envs/wheeled/VertBenchModels/ppo_ACL_iter138_level90.pt (torch, 142102 bytes, 36 tensors)

log_std f4 [2]
0	0xbeb1806c	-0.3466829
1	0xbf94b43d	-1.1617504

features_extractor.network.0.weight f4 [64, 18]
0	0xbefeb346	-0.4974615
1	0x3f4be4f8	0.79646254
2	0x3eb25a09	0.34834316
3	0x3f00e32f	0.50346655
4	0x3efb0a7b	0.49031433
5	0x3e9956ec	0.2994913
6	0xbf1b52a6	-0.60672987
7	0xbbb1eeac	-0.005430063
8	0x3d6e7303	0.058215152
9	0xbed38029	-0.41308716
10	0x3dbfc0f1	0.093629725
11	0x3f013deb	0.50485104
12	0x3e0c028e	0.1367285
13	0x3f94cb5b	1.1624559
14	0x3f2de18c	0.6792228
15	0x3e228bc0	0.15873623
16	0x3eb61bc5	0.3556806
17	0x3e235810	0.15951562
18	0x3f0f4582	0.55965436
19	0x3eee2db5	0.46519247
20	0xbfb26a42	-1.3938677
21	0xbeb9b17b	-0.3626822
22	0xbdf614f3	-0.120157145
23	0x3d819e78	0.06329054
24	0xbf553f4c	-0.8329971
25	0xbf3d0903	-0.73841876
26	0xbfc8625b	-1.5655016
27	0x3f8587ae	1.0432031
28	0x3f1f9529	0.62336975
29	0x3f9584a8	1.1681108
30	0xbee19bf5	-0.44064298
31	0x3f1abda4	0.6044562
32	0x3ccad5d3	0.024760162
33	0x3eff6b30	0.49886465
34	0x3f971752	1.1803992
35	0xbdc9701f	-0.098358385
36	0x3e9024da	0.28153116
37	0x3e9f9e05	0.31175247
38	0x3e090230	0.1337974
39	0x3ed1c700	0.40972137
40	0x3ec67783	0.38763055
41	0xbc946323	-0.018113678
42	0x3f1db444	0.6160319
43	0x3f757e1d	0.9589556
44	0x3e6de13a	0.23230448
45	0xbea03818	-0.31292796
46	0x3d00e187	0.03146508
47	0x3eaaee38	0.3338487
48	0xbde04235	-0.10950128
49	0xbf2cb8d9	-0.67469555
50	0x3ee68b44	0.45028126
51	0x3ddb8c48	0.10720116
52	0x404d8d02	3.2117314
53	0xbd05e89b	-0.032692533
54	0xbd8be6a0	-0.068310976
55	0xbee2a1c7	-0.4426405
56	0xbf7406bc	-0.95322776
57	0xbf28e8f7	-0.65980476
58	0x3f174b17	0.59098953
59	0x3ec3f53f	0.38273045
60	0x3e7cdea4	0.24694306
61	0x3a8912c3	0.0010457862
62	0xbc19cd09	-0.009387263
63	0x3e80c261	0.251483
64	0xc00637e7	-2.097162
65	0xbd50ca9c	-0.050974473
66	0x3eb2aab4	0.3489586
67	0x3f91edd7	1.1400708
68	0x3efd745f	0.49502847
69	0xbf756fb4	-0.9587357
70	0xbf660e2d	-0.8986538
71	0xbde97ac0	-0.11400366
72	0xbe8ffece	-0.28124088
73	0xbe8fa50a	-0.28055602
74	0xbed64e41	-0.41856578
75	0x3cbe9bd9	0.023267673
76	0xbe8bbee3	-0.27294073
77	0xbca77556	-0.020441692
78	0x3d565391	0.05232579
79	0x3eaaba2a	0.33345157
80	0xbf08c042	-0.5341836
81	0xbdc2d18e	-0.09512626
82	0xbcc480c8	-0.023987189
83	0x3c8ae534	0.016954996
84	0x3f1c4475	0.6104196
85	0x3e8ae0bc	0.27124584
86	0xbc4fb5e1	-0.012677641
87	0xbf678a88	-0.90445757
88	0xc07c16eb	-3.9388988
89	0xbe2e8174	-0.1704157
90	0xbf80a464	-1.0050168
91	0x3f1d7375	0.615043
92	0xbec506ab	-0.3848165
93	0x3e0f3629	0.13985504
94	0x3ec98a88	0.39363503
95	0xbfa0fc41	-1.2576982
96	0x3e622e5c	0.22087997
97	0xbe7ba06c	-0.24572915
98	0xbe9f7e2c	-0.3115095
99	0x3ed6e33c	0.4197024
100	0xbeb925f9	-0.36161783
101	0xbf7ad1a6	-0.9797615
102	0xbf7f1686	-0.99643743
103	0x3eb0e830	0.34552145
104	0x3f7aadf3	0.97921675
105	0x3e2584c0	0.16163921
106	0x3eb6eab1	0.3572593
107	0x3ddb7595	0.10715786
108	0xbfab3984	-1.3376927
109	0x3ef9b36c	0.487697
110	0x3f149705	0.5804294
111	0x3ef08893	0.46979198
112	0xbc5811ef	-0.013187869
113	0x3d5a4596	0.05328902
114	0x3f9d49f4	1.2288194
115	0xbf9ec7f0	-1.2404766
116	0x3db4d959	0.08830518
117	0xbf7d0437	-0.98834556
118	0xbf26b5cb	-0.65121144
119	0x3ecf00ed	0.40430394
120	0xbe38f3e3	-0.18061785
121	0xbf2d4938	-0.6768985
122	0xbcc5962b	-0.024119457
123	0x3f89e7b4	1.0773835
124	0xbefcc2ba	-0.49367315
125	0x3ddfcf6b	0.10928234
126	0xbdcd883d	-0.10035751
127	0x3dcdb506	0.10044293
128	0xbe2a74f4	-0.16646177
129	0x3e0a1df8	0.13487995
130	0x3eca8694	0.395558
131	0x3e33b6e8	0.17550242
132	0x3e7b8565	0.24562605
133	0xbdd572ff	-0.104223244
134	0x3d8d79dd	0.06908009
135	0x3e2d9250	0.16950345
136	0x3e8475f4	0.2587124
137	0xbdb0c6b2	-0.08631648
138	0xbec9f11d	-0.39441767
139	0x3e61065e	0.21975085
140	0x3e01fc8a	0.12693992
141	0x3e50d08f	0.20392059
142	0xbf0b82e9	-0.5449663
143	0xc07073a5	-3.7570584
144	0xbf1f1eb5	-0.6215623
145	0xbebec7e6	-0.37261885
146	0xbf4ff30c	-0.81230235
147	0xbd0c5fcd	-0.03427105
148	0x3d567b57	0.05236372
149	0x3d24df91	0.040252272
150	0x3f95d9d0	1.1707096
151	0xbfb001e1	-1.3750573
152	0x3f279bac	0.6547191
153	0x3f1ace53	0.60471076
154	0x3e0a269b	0.1349129
155	0x3c859b2a	0.01630934
156	0x3f9f528d	1.2447067
157	0xbf49e7b8	-0.788692
158	0xbf814aac	-1.0100913
159	0x3eb1d60f	0.34733626
160	0x3f39305f	0.72339433
161	0xbe28c4a3	-0.16481261
162	0x3f4fdced	0.8119648
163	0xbed9af2a	-0.42516452
164	0xbfb1208f	-1.3838061
165	0xbf84c5e9	-1.0372897
166	0x3f8773ee	1.0582254
167	0xbf62358c	-0.88362956
168	0xbebb5c34	-0.36593783
169	0x3f80ba5b	1.0056871
170	0xbe41c286	-0.18921861
171	0xc016f44d	-2.358661
172	0x3f978993	1.1838859
173	0x3eb1948e	0.3468365
174	0x3ed554bf	0.4166622
175	0x3e3d65b6	0.18495831
176	0xbdaa249e	-0.083077654
177	0x3fa22872	1.2668593
178	0xbec4cdee	-0.38438362
179	0x3e054782	0.1301556
180	0xbe846ff3	-0.2586666
181	0xbfe613b6	-1.7974765
182	0x3f653fd5	0.89550525
183	0x3f219d86	0.63130987
184	0xbf2d911b	-0.6779954
185	0x3d895ab2	0.06706752
186	0xbf050fe6	-0.51977384
187	0xbd91fbd6	-0.07128112
188	0xbeb92623	-0.36161909
189	0xbcb9ba7d	-0.022671932
190	0x3bb55f12	0.005535015
191	0xbf1b95fc	-0.60775733
192	0xbce37d5b	-0.027769735
193	0xbf5a27d9	-0.8521705
194	0x3ef6e22a	0.48219424
195	0x3efe5719	0.49675825
196	0x3eaca763	0.33721456
197	0x3e169b15	0.14707597
198	0x3d8a44a4	0.067513734
199	0xbe0b5849	-0.13607897
200	0xbdffe290	-0.12494385
201	0xbdd04613	-0.101696156
202	0xbcd75f3b	-0.026290527
203	0x3d9e8ffd	0.07742307
204	0x3db4edcd	0.088344194
205	0xbcf19b48	-0.02949299
206	0x3e3403cf	0.17579578
207	0xbdc9b643	-0.09849217
208	0x3dec8082	0.115479484
209	0xbda042a8	-0.07825214
210	0x3c6bc614	0.014390487
211	0xbe02b57c	-0.12764543
212	0xbdc77744	-0.09739545
213	0xbe2a9d0b	-0.1666147
214	0xbe809ec0	-0.25121117
215	0xbfe66a90	-1.800127
216	0x3ed9fe09	0.42576626
217	0xbec244cd	-0.37943116
218	0xbe08a178	-0.13342845
219	0xbf8226c9	-1.0168086
220	0xbf154826	-0.58313215
221	0xbed2459b	-0.4106873
222	0xbebd8040	-0.3701191
223	0x3f617595	0.8807004
224	0x3f627e63	0.884741
225	0xbfe94ab7	-1.8225926
226	0xbbb3df60	-0.005489275
227	0x3e798c84	0.24370009
228	0xbf87811d	-1.0586277
229	0x3e28d343	0.1648684
230	0xbed738c4	-0.42035496
231	0x3fb25fc7	1.3935479
232	0x3e70a15f	0.23499058
233	0xbe608ae5	-0.21927984
234	0x3cee3ca0	0.029081643
235	0x3e1aeee6	0.15130195
236	0xbb67d9c3	-0.0035377599
237	0x3dbb5dcd	0.091487505
238	0xbe885aa3	-0.2663165
239	0xbe877ef4	-0.26464045
240	0xbe119bab	-0.14219539
241	0x3daa6062	0.08319165
242	0x3cf4aceb	0.02986761
243	0x3dc0acd5	0.09407965
244	0xbd3eb0ac	-0.046555206
245	0xbd93fb32	-0.07225646
246	0x3d1f9faa	0.038970627
247	0x3e65a682	0.22426799
248	0x3e75bd65	0.2399803
249	0x3d9065cf	0.070506684
250	0xbf8ef337	-1.1167973
251	0xbe501b18	-0.20322835
252	0xbf88ae42	-1.0678179
253	0xbf5bb8c7	-0.8582882
254	0xbfbfbf96	-1.4980342
255	0xbe2942b3	-0.1652935

features_extractor.network.0.bias f4 [64]
0	0x3ecd4121	0.40088752
1	0x3eac8cf0	0.33701277
2	0x3e2c712b	0.16840045
3	0x3f03176a	0.512076
4	0x3b8962e7	0.0041926983
5	0x3eeb50e5	0.45960155
6	0x3f1c42d8	0.61039495
7	0x3f89928a	1.0747845
8	0x3e5d11b6	0.21588787
9	0x3ef43afb	0.4770125
10	0x3f2e42bb	0.6807057
11	0x3f2f6f1c	0.68528914
12	0x3d9dbc66	0.0770195
13	0x3f6ebf2f	0.93260473
14	0x3e882c8e	0.26596493
15	0x3f463c86	0.774361
16	0x3f3e0998	0.7423339
17	0x3f7aa44d	0.97906953
18	0xbc432ccc	-0.011912536
19	0x3ed26826	0.41095084
20	0x3df7e50b	0.12104233
21	0x3e87a465	0.2649261
22	0x3f168107	0.5879063
23	0x3e922164	0.285411
24	0x3e55035e	0.20802066
25	0x3f10159e	0.56282985
26	0x3f042b7d	0.5162886
27	0x3f9e1211	1.2349263
28	0xbe38479b	-0.17996065
29	0x3f959c26	1.1688278
30	0x3e311f48	0.17297089
31	0xbf1044cf	-0.56354994
32	0x3e380839	0.17971887
33	0x3f8dbf74	1.1074052
34	0x3f0c38c2	0.54774106
35	0xbe103b3c	-0.14085096
36	0x3dc928fc	0.0982227
37	0x3dc97c24	0.09838131
38	0x3edf476a	0.43609172
39	0xbe987942	-0.29780012
40	0x3f2efe10	0.6835642
41	0x3ee763df	0.45193383
42	0x3eb77dac	0.35838068
43	0x3f00faf8	0.5038295
44	0x3fc47dff	1.5350951
45	0x3e75ab7e	0.239912
46	0x3e1b5bf8	0.15171802
47	0x3e9737cf	0.29534766
48	0x3db9ac04	0.090660125
49	0x3e8f38b9	0.27972963
50	0x3ec9a385	0.39382568
51	0x3f697422	0.9119283
52	0x3f4a38d5	0.7899297
53	0x3f35d328	0.71025324
54	0x3f15711c	0.58375716
55	0x3e3884c2	0.18019393
56	0x3ef87af3	0.48531303
57	0x3fa4a520	1.2862892
58	0x3eeded55	0.46470132
59	0x3f0ceccc	0.55048823
60	0x3ef77362	0.48330218
61	0x3e93bbbd	0.2885417
62	0x3bb4d3f5	0.0055184313
63	0x3f066a47	0.52505916

features_extractor.network.2.weight f4 [128, 64]
0	0x3e87d2eb	0.26528105
1	0xbe1492bf	-0.14509104
2	0x3f010117	0.5039229
3	0xbef7ffb0	-0.48437262
4	0x3f851cbc	1.0399394
5	0x3f142edd	0.5788401
6	0xbe73bfab	-0.23803584
7	0xbf83961b	-1.0280184
8	0x3f853863	1.0407833
9	0x3e4a3cdb	0.19749777
10	0xbe707aad	-0.23484297
11	0x3f024ad3	0.5089542
12	0xbfb06147	-1.3779687
13	0x3ec2e9fc	0.3806914
14	0xbf631dae	-0.8871716
15	0x3f299db8	0.66256285
16	0xbd2aea08	-0.041727096
17	0xbecc5bc2	-0.39913756
18	0xbe571474	-0.21003896
19	0xbed0d931	-0.40790704
20	0x3e24340e	0.16035482
21	0x3f837429	1.0269824
22	0xbdb4a9aa	-0.08821423
23	0x3f30437c	0.68852973
24	0x3ef7a2de	0.48366445
25	0x3f1bb6e8	0.6082597
26	0x3ebf4812	0.37359673
27	0xbf016558	-0.50545263
28	0x3f49dfbf	0.78857034
29	0xbeefb51b	-0.4681786
30	0xbfa08bc8	-1.2542658
31	0x3fe2414d	1.7676178
32	0x3ed9089d	0.42389384
33	0xc0003d8d	-2.0037568
34	0xbf29304b	-0.66089314
35	0xbf22fd31	-0.6366759
36	0x3ecdeb58	0.40218616
37	0xbf57ea96	-0.84342325
38	0xbce3ebd6	-0.027822416
39	0x3fb6ae7e	1.4272001
40	0xbed3e7fa	-0.41387922
41	0xbf1c1d46	-0.6098217
42	0x3caa6719	0.020801114
43	0x3ff55423	1.9166301
44	0xbe5c889a	-0.21536484
45	0x3f22d281	0.63602453
46	0x3f9ebe18	1.2401762
47	0x3d341506	0.043965362
48	0x3f44be9f	0.76853365
49	0x3d482a86	0.04886868
50	0x3f9a5737	1.2057866
51	0xbeae340f	-0.34024093
52	0x3f5ced05	0.86299163
53	0x3d565286	0.052324794
54	0xbf56fbe8	-0.8397813
55	0xbb320177	-0.0027161518
56	0x3df65a29	0.120289154
57	0xbeba9433	-0.36441192
58	0x3f405984	0.7513659
59	0x3f48d6df	0.7845287
60	0xbe52acf9	-0.20573796
61	0xbec85535	-0.39127508
62	0xbd48e07c	-0.04904221
63	0x3f6fa64a	0.9361311
64	0x3e897271	0.26845124
65	0x3dc13459	0.09433813
66	0xbf8af4cc	-1.0855956
67	0x3ed1552f	0.40885302
68	0x3e8b0181	0.27149585
69	0xbedbf7dc	-0.4296254
70	0x3f10e942	0.56605923
71	0xbfe7c39d	-1.8106571
72	0x3e79e9e8	0.24405634
73	0xbeaa5e8a	-0.33275253
74	0xbe8a02fe	-0.26955408
75	0xbf060518	-0.5235152
76	0xbf56184e	-0.83630836
77	0x3ef7d61b	0.48405537
78	0xbeb1b88c	-0.3471111
79	0x3f25bdfe	0.6474303
80	0x3eed36b7	0.46330807
81	0x3c10718b	0.008816133
82	0xbcd35c94	-0.02580098
83	0x3e18467c	0.14870638
84	0x3f28438a	0.65728056
85	0x3de51688	0.11185938
86	0x3f37af45	0.71751815
87	0x3f2c768b	0.6736838
88	0x3f113794	0.5672543
89	0x3d756f42	0.059920557
90	0x3f3ad6d2	0.7298404
91	0x3f1977f7	0.59948677
92	0x3f8b6306	1.0889595
93	0xbe343e2c	-0.17601842
94	0x3ede10a0	0.4337206
95	0xbf767a3a	-0.9628025
96	0xbd330b99	-0.043712232
97	0xbe2037da	-0.15646306
98	0x3f35ce22	0.7101766
99	0x3e2ac218	0.16675603
100	0xbf14b8d1	-0.5809451
101	0xbf09c161	-0.538107
102	0xbe613bca	-0.21995464
103	0xbe87fee2	-0.26561648
104	0x3f1c9d05	0.6117709
105	0xbd663188	-0.05619958
106	0xbf1ada2b	-0.6048915
107	0xbf89ae64	-1.0756345
108	0x3eba7e0a	0.36424285
109	0xbf6aa67a	-0.91660273
110	0xbf334d71	-0.7004004
111	0xbe282394	-0.16419822
112	0x3e719bb3	0.23594551
113	0xbf59f853	-0.8514454
114	0x3f1b4fcb	0.6066863
115	0x3f3be120	0.7339039
116	0x3fa9b8be	1.3259504
117	0x3eb8d976	0.3610341
118	0x3fa2cb94	1.2718377
119	0x3ee0dc29	0.4391797
120	0x3e9e1639	0.3087633
121	0xbeff6c80	-0.49887466
122	0x3f16972e	0.5882443
123	0xbf028788	-0.50988054
124	0x3e8d4c2f	0.27597186
125	0x3dbb901b	0.09158345
126	0xbe5f1a3f	-0.21787356
127	0x3e1ce41a	0.15321389
128	0xbfa01e37	-1.2509221
129	0xbf0d3661	-0.551611
130	0xbdd84f68	-0.105620205
131	0x3f07f07e	0.53101337
132	0x3e9d5cab	0.30734763
133	0xbf428c9b	-0.75995797
134	0x3f88ab53	1.0677284
135	0xbf9bb045	-1.2163168
136	0x3ee8c8c5	0.45465675
137	0x3f8bd683	1.0924839
138	0xbed80865	-0.42193905
139	0xbb17d5bb	-0.0023168165
140	0xbb02cc4f	-0.0019958203
141	0x3e8d96e4	0.27654183
142	0x3f1a7c91	0.60346323
143	0x3f160faa	0.5861765
144	0x3f478b74	0.77947164
145	0x3f0d400e	0.55175865
146	0xbfaeb6e0	-1.3649559
147	0xbf7d621b	-0.9897782
148	0x3e78dd02	0.24303058
149	0xbf3b77b0	-0.73229504
150	0x3f38ea4d	0.72232515
151	0xbedb227d	-0.4279975
152	0x3f6dafc1	0.92846304
153	0xbdd1b616	-0.10239808
154	0xbe39ea92	-0.18155888
155	0x3ef2c0e4	0.4741279
156	0x3e9228db	0.28546795
157	0x3ebb9d2b	0.36643347
158	0xbed56c5a	-0.41684228
159	0x3f71c20b	0.9443671
160	0x3e888e97	0.26671287
161	0x3f3faea5	0.7487586
162	0x3f138f91	0.5764094
163	0x3eac0294	0.33595717
164	0x3e8ec036	0.2788102
165	0xbdc064d2	-0.0939423
166	0xbe757bcd	-0.23973008
167	0x3e5effa6	0.2177721
168	0x3e241443	0.16023354
169	0xbec7632a	-0.38942844
170	0x3ebaa9a5	0.36457554
171	0xbdc063d3	-0.0939404
172	0x3c498d55	0.012301763
173	0xbee4e91c	-0.44709098
174	0xbef454a5	-0.4772083
175	0x3f8a72d9	1.0816299
176	0x3ef5ea9c	0.48030555
177	0x3cb5538a	0.022134561
178	0xbe2b067a	-0.1670169
179	0xbf445e78	-0.7670665
180	0xbf0a7cf1	-0.54096895
181	0xbd0cdd0f	-0.034390505
182	0x3f83e1bc	1.0303264
183	0x3f348cdf	0.7052745
184	0xbc81b8ef	-0.015835254
185	0xbe513646	-0.2043086
186	0x3e859dad	0.2609686
187	0x3f90aebd	1.1303326
188	0xbec5bcea	-0.38620692
189	0xbf43c0fd	-0.7646635
190	0x3dbc7593	0.09202113
191	0xbed60572	-0.4180103
192	0x3e9bfda0	0.30466938
193	0x3ec7f9dc	0.39057815
194	0x3fc61568	1.5475283
195	0x3f4fb256	0.81131494
196	0xbe77a64d	-0.24184532
197	0x3e5ed2d9	0.2176012
198	0xbf1fe5b1	-0.62459856
199	0x3f784971	0.9698706
200	0xbe118c78	-0.14213741
201	0xc012daed	-2.2946122
202	0xbdfa3fcb	-0.12219199
203	0x3e80b44f	0.25137565
204	0xbfca13c3	-1.5787281
205	0x3cd53b3d	0.026029224
206	0xbeaec62a	-0.34135562
207	0x3f08def9	0.5346523
208	0x3f19812b	0.5996272
209	0x3f29b8cc	0.662976
210	0xbe457bb4	-0.1928547
211	0x3f58a49f	0.8462619
212	0x3f1a458a	0.6026236
213	0x3fbbea22	1.4680827
214	0xbd185163	-0.03718699
215	0xbf774ab9	-0.9659839
216	0x3e9038ac	0.28168237
217	0x3d349932	0.04409141
218	0x3f4e78e3	0.8065321
219	0xbd75af6b	-0.059981745
220	0x3ea9f8e8	0.33197713
221	0x3f1f7b5f	0.62297624
222	0x3f75b134	0.95973516
223	0x3e51ca20	0.20487261
224	0x3f02aca0	0.51044655
225	0xbe2003f6	-0.15626511
226	0xbef8f5a1	-0.486249
227	0xbf986b13	-1.1907676
228	0xbf5c25d5	-0.8599523
229	0x3f055ce1	0.52094847
230	0xbf268a3d	-0.65054685
231	0x3fd5061c	1.664249
232	0xbf88e0bc	-1.0693583
233	0xbeb189c6	-0.34675425
234	0xbfd39d4f	-1.6532382
235	0xbef83577	-0.4847829
236	0xbe8064b9	-0.25076845
237	0x3fc3311d	1.5249363
238	0xbebf40ad	-0.3735403
239	0xbfcabd2b	-1.583898
240	0x3ece6932	0.40314633
241	0xbf6122ce	-0.8794373
242	0x3da9560e	0.08268367
243	0xbf0b492c	-0.54408526
244	0xbecc2634	-0.39872897
245	0x3f189120	0.59596443
246	0x3f521bff	0.8207397
247	0x3dbf0e05	0.09328846
248	0x3cdc48b1	0.02689013
249	0x3f4225d6	0.75838983
250	0x3eeea2de	0.46608633
251	0xbe9d2415	-0.3069159
252	0xbfbe7e32	-1.4882262
253	0xbf640fa5	-0.8908637
254	0x3efcc814	0.49371397
255	0x3e70161c	0.23445934

features_extractor.network.2.bias f4 [128]
0	0xbe68c4df	-0.2273135
1	0x3ef78123	0.4834071
2	0x3c1d9b18	0.009619497
3	0x3e87c548	0.265177
4	0x3f0addb1	0.54244524
5	0x3ef1f07e	0.47253793
6	0x3ea2327e	0.31679147
7	0x3e7c8be6	0.24662742
8	0x3f035d3b	0.51314133
9	0x3effda89	0.49971417
10	0x3e620036	0.22070393
11	0x3e9770bf	0.29578206
12	0x3e9c67b2	0.30547863
13	0x3eb59bb3	0.35470352
14	0x3e50e676	0.20400414
15	0x3f0a49dd	0.54018956
16	0xbe361dd8	-0.17784822
17	0x3f50b0a7	0.8151955
18	0x3f134f8b	0.5754325
19	0x3f5a7025	0.8532737
20	0x3f0dcf37	0.5539431
21	0x3f05aa19	0.52212673
22	0xbed6f14b	-0.41980967
23	0x3f0399c0	0.5140648
24	0x3fc2be51	1.521433
25	0x3ecd9aa9	0.4015706
26	0x3f4f4a07	0.8097233
27	0x3f0c249a	0.5474335
28	0x3daa4d93	0.08315577
29	0x3e882934	0.26593935
30	0x3e684abe	0.22684762
31	0x3d8f44b8	0.06995529
32	0x3f02912e	0.51002777
33	0x3ec5d08d	0.38635674
34	0x3d62fd88	0.055417567
35	0xbe4970a5	-0.19671877
36	0xbdafff7c	-0.08593652
37	0x3f35b883	0.7098467
38	0x3f45a25a	0.77200854
39	0x3eac8212	0.33692986
40	0x3cdb0508	0.026735798
41	0x3f55fdf1	0.8359061
42	0x3eb114e2	0.34586245
43	0x3def3680	0.11680317
44	0x3f97c9e1	1.1858484
45	0x3e1ba75a	0.15200558
46	0xbe8b4437	-0.2720048
47	0x3f1a0c4b	0.6017501
48	0xbdd02111	-0.10162557
49	0xbd8b428d	-0.06799803
50	0x3fa1fe79	1.2655784
51	0x3e83ada0	0.25718403
52	0x3e552c31	0.20817639
53	0x3e253d6b	0.1613671
54	0x3f0ad23d	0.5422705
55	0x3f4216f7	0.7581629
56	0x3e4234d3	0.18965463
57	0x3ec3f0d8	0.38269687
58	0x3f15a9b9	0.584621
59	0x3f4adefe	0.7924651
60	0x3e2ea96a	0.17056814
61	0x3e2a4a45	0.16629894
62	0x3e798ba5	0.24369676
63	0x3e0022dc	0.12513298
64	0x3f5adf7f	0.8549728
65	0xbd6a7c52	-0.057247467
66	0x3f41fbee	0.7577504
67	0x3f1fb7f7	0.62390083
68	0x3f30dd56	0.6908773
69	0xbc8ac91d	-0.016941601
70	0x3e4c5d47	0.19957457
71	0x3eaf594d	0.3424782
72	0x3f68babb	0.9090993
73	0xbe549d97	-0.20763241
74	0x3f58a2ad	0.84623224
75	0x3f2e6c6f	0.68134207
76	0x3c6cc45d	0.0144511135
77	0x3f355ef9	0.7084804
78	0xbe0c36c4	-0.13692766
79	0x3dd8a2ba	0.10577913
80	0x3f42997b	0.7601544
81	0x3ed7ab60	0.42122936
82	0x3f4d2859	0.8013969
83	0x3e87547d	0.26431647
84	0x3f527655	0.8221181
85	0x3f6411e4	0.890898
86	0xbf1c54ce	-0.610669
87	0x3f61bc4a	0.8817793
88	0xbd807a6e	-0.062733516
89	0x3f8ff010	1.1245136
90	0x3c453e18	0.01203873
91	0x3d516462	0.051121123
92	0x3e3ac372	0.18238619
93	0x3e10b629	0.14131989
94	0x3dc42a72	0.09578408
95	0x3ec72ccf	0.38901374
96	0x3e5e9b50	0.21738935
97	0x3ea52f74	0.32262766
98	0x3f0252d5	0.5090764
99	0xbf3022e4	-0.6880324
100	0x3ee4928c	0.44643056
101	0x3e510fc5	0.20416172
102	0xbe9e1ff6	-0.3088376
103	0x3f924512	1.1427329
104	0x3f3269f4	0.6969292
105	0x3f2b0cfe	0.668167
106	0x3c07939e	0.008274941
107	0xbeb8fcbe	-0.36130327
108	0x3f545c4d	0.8295334
109	0x3f334457	0.70026153
110	0x3f0bb159	0.54567486
111	0x3f9dcbb2	1.2327788
112	0x3ed4bcdb	0.41550335
113	0x3eac3963	0.33637533
114	0x3ed46e4e	0.41490406
115	0x3f0e0979	0.55483204
116	0x3eab759d	0.3348817
117	0x3f7cac1b	0.9870011
118	0x3e47c6d9	0.19509448
119	0x3ea0867f	0.31352612
120	0xbe554741	-0.20827962
121	0x3f55db1a	0.8353745
122	0x3f1a0453	0.6016285
123	0xbef2f84e	-0.47455066
124	0x3f17e840	0.5933876
125	0x3f23aea4	0.63938355
126	0x3f70c6b6	0.9405321
127	0x3ecd30f7	0.4007642

features_extractor.network.4.weight f4 [64, 128]
0	0x3d4647f0	0.04840845
1	0x3d1a838d	0.037723113
2	0xbcde445e	-0.02713221
3	0xbe8a718b	-0.2703975
4	0xbe48dff1	-0.19616677
5	0xbe32d975	-0.17465766
6	0xbe5d8300	-0.21632004
7	0x3e410ab9	0.18851747
8	0xbe2f0ade	-0.17093989
9	0xbdd332fe	-0.1031246
10	0x3e050ac2	0.12992385
11	0xbde98dce	-0.11404
12	0x3de0fbb4	0.109855086
13	0x3db096d9	0.08622522
14	0xbebc1661	-0.36735824
15	0xbf109ece	-0.56492317
16	0xbd969085	-0.07351784
17	0xbdc88728	-0.09791404
18	0xbdf29807	-0.11845403
19	0x3b137a9f	0.0022503508
20	0xbdcb1ae0	-0.099172354
21	0x3d8e5794	0.06950298
22	0xbf06faa2	-0.52726185
23	0xbe4d5f7f	-0.2005596
24	0x3dbc9394	0.09207836
25	0x3dfd28a9	0.12361271
26	0xbe73cc19	-0.23808326
27	0x3e886cf8	0.26645637
28	0xbd8ca9a8	-0.06868297
29	0x3d6a7920	0.05724442
30	0xbe14604d	-0.14489861
31	0xbc3fe43e	-0.011712132
32	0x3d8d03e5	0.068855084
33	0xbdda6fa4	-0.10665825
34	0x3ea64303	0.32473
35	0xbd34cf87	-0.044143226
36	0xbbe257c8	-0.006907437
37	0xbdb9403c	-0.09045455
38	0xbe93f2da	-0.2889622
39	0x3d49a1b3	0.049226474
40	0xbe5740fd	-0.21020885
41	0xbe322be9	-0.17399563
42	0xbad45c12	-0.0016201755
43	0xbe303d56	-0.17210898
44	0x3df5c176	0.1199979
45	0xbd5bdbc1	-0.05367637
46	0x3f21fdbc	0.6327779
47	0x3d936709	0.07197387
48	0x3cffca9d	0.031224543
49	0xbccfe593	-0.025378024
50	0xbdedaca7	-0.116051964
51	0x3deb9b83	0.11504271
52	0x3e03bb20	0.12864351
53	0xbf018ac0	-0.5060234
54	0xbe0afa33	-0.13572006
55	0xbe56d555	-0.20979817
56	0xbabeeac9	-0.0014565821
57	0xbe68314d	-0.22675057
58	0xbdfee7d7	-0.12446564
59	0x3ca537ba	0.020168174
60	0x3d354bf0	0.044261873
61	0xbc97d4e3	-0.01853413
62	0x3e706eaa	0.23479715
63	0xbe3c26fd	-0.18374248
64	0x3b673156	0.003527721
65	0x3e0935ca	0.13399425
66	0x3e1e4dd6	0.1545938
67	0xbf19130b	-0.5979468
68	0xbea66c5c	-0.32504547
69	0xbd4580cf	-0.048218545
70	0xbd3b351f	-0.045704957
71	0x3e90dd7e	0.28293985
72	0x3e35e803	0.17764287
73	0x3e125d91	0.14293505
74	0xbd69f3cb	-0.057117265
75	0xbe6199fa	-0.22031394
76	0xbe25789a	-0.16159287
77	0xbd8fd813	-0.07023635
78	0xbe970554	-0.29496253
79	0xbcf61a96	-0.030041974
80	0x3cb7296b	0.022358617
81	0x3da18354	0.07886377
82	0xbe34caa5	-0.17655428
83	0xbd7952e9	-0.060870085
84	0xbb769a8e	-0.0037628743
85	0xbec97a94	-0.39351332
86	0xbf064391	-0.5244685
87	0xbe414b6a	-0.18876424
88	0xbeaea2ec	-0.34108675
89	0x3e1bb96c	0.15207452
90	0x3d44d6aa	0.048056282
91	0xbd899b3f	-0.06719064
92	0xbe842d3d	-0.25815764
93	0xbde1a50c	-0.11017808
94	0xbe4e74c5	-0.20161732
95	0xbece710f	-0.40320632
96	0xbe2b986b	-0.16757362
97	0xbe14f740	-0.14547443
98	0x3e9988d1	0.29987195
99	0xbcc2a1d9	-0.023758816
100	0xbeb2d2ef	-0.34926555
101	0xbe55ab57	-0.20866142
102	0xbf057c01	-0.5214234
103	0xbe001e8a	-0.1251165
104	0xbd6d9e49	-0.05801228
105	0x3d4098c6	0.047020696
106	0x3dddd632	0.1083187
107	0x3e8849f7	0.2661893
108	0x3ded4d9b	0.11587068
109	0xbe46c38d	-0.19410534
110	0x3db4fb03	0.08836939
111	0x3e72c47e	0.23707768
112	0x3d6ba369	0.057528887
113	0xbeb81c20	-0.35958958
114	0x3e423690	0.18966126
115	0x3da6ef70	0.08151138
116	0xbe1611de	-0.14655253
117	0x3c657a04	0.014006142
118	0xbde5ef11	-0.11227239
119	0x3db1ef7f	0.086882584
120	0xbdc4a36d	-0.096014835
121	0xbe221172	-0.15826967
122	0xbf2599f3	-0.6468803
123	0x3da81625	0.08207349
124	0x3e768f38	0.24078071
125	0x3e3be91f	0.18350647
126	0x3e7fc9c6	0.24979314
127	0xbef9fa75	-0.48823896
128	0xbdda1bc7	-0.10649829
129	0xbea27a05	-0.3173372
130	0xbd968237	-0.07349055
131	0xbee47dff	-0.44627377
132	0x3e429d99	0.19005431
133	0xbea5901f	-0.32336518
134	0xbd844e7a	-0.06460281
135	0x3cf9d231	0.030495735
136	0x3dc648ca	0.09681852
137	0x3db2f72a	0.08738549
138	0x3f20d9d0	0.62832355
139	0xbe1726a3	-0.14760832
140	0xbec7026f	-0.38869044
141	0xbf06242d	-0.5239895
142	0xbe8d92bf	-0.2765102
143	0x3cf25f06	0.029586326
144	0x3dde4873	0.10853662
145	0xbea70938	-0.3262422
146	0xbd449ee4	-0.048003092
147	0x3d717ab7	0.05895492
148	0x3e36960d	0.17830677
149	0x3d577e4b	0.052610677
150	0xbd042984	-0.032266155
151	0xbf2ed342	-0.68291104
152	0x3e4c54c3	0.19954209
153	0xbe07b4f9	-0.1325263
154	0x3e27c367	0.16383134
155	0xbb4d4913	-0.0031324073
156	0xbd3c4900	-0.045968056
157	0xbef78180	-0.48340988
158	0xbf408747	-0.75206417
159	0xbef0ce86	-0.47032565
160	0x3cc98f9a	0.024604607
161	0x3c99aba0	0.018758595
162	0x3cafcac8	0.021458998
163	0x3ddb80d4	0.107179314
164	0xbf434ba3	-0.7628729
165	0x3cb9897c	0.022648565
166	0x3dec7d4e	0.115473375
167	0x3e9856b8	0.2975366
168	0xbdfe34cc	-0.12412414
169	0xbe659936	-0.22421727
170	0xbd5b3e10	-0.053525984
171	0xbf0f9c63	-0.56098
172	0xbe705085	-0.23468216
173	0xbe1e7da7	-0.1547762
174	0xbe76760e	-0.24068472
175	0x3e06a6b0	0.13149524
176	0x3d801a02	0.062549606
177	0x3ece3d26	0.40281028
178	0xbf0f1619	-0.55893093
179	0xbe19a889	-0.15005697
180	0x3d408ab8	0.047007293
181	0xbc3fa3e9	-0.011696794
182	0x3d5b77ef	0.053581174
183	0xbeaf401c	-0.342286
184	0xbef08b52	-0.46981293
185	0xbdb4fbb1	-0.08837069
186	0xbeb06486	-0.34451693
187	0xbe3296d0	-0.17440343
188	0xbf1c2db1	-0.6100722
189	0x3e8f375d	0.27971926
190	0xbf47dc28	-0.78070307
191	0xbeb6fe85	-0.35741058
192	0x3e1bac73	0.15202503
193	0x3da8710e	0.082246885
194	0x3cda6c9b	0.026663115
195	0xbec37a88	-0.3817942
196	0x3ca31105	0.019905576
197	0x3e59773c	0.2123689
198	0xbe86ab5b	-0.2630261
199	0x3eeb1eac	0.45921838
200	0xbf193e83	-0.5986101
201	0x3f024873	0.508918
202	0xbe56d62a	-0.20980135
203	0xbc904645	-0.017611632
204	0xbe843fb9	-0.25829867
205	0xbe922a29	-0.2854779
206	0x3ea75eac	0.32689416
207	0xbea92028	-0.33032346
208	0x3d727be5	0.059200186
209	0xbf4a90ae	-0.79127014
210	0x3e1b0385	0.15138061
211	0xbe7d7c4c	-0.24754447
212	0x3eb0febb	0.34569344
213	0xbe3d692c	-0.18497151
214	0xbe204149	-0.15649904
215	0x3e9fa25b	0.31178555
216	0x3d01ed25	0.0317203
217	0xbd8fe593	-0.0702621
218	0x3f1166ce	0.5679749
219	0xbda3608b	-0.079773985
220	0xbf33e781	-0.7027512
221	0xbebb30c6	-0.3656065
222	0xbed14de5	-0.4087974
223	0xbe83d699	-0.25749663
224	0xbde592e1	-0.112096556
225	0xbf101776	-0.562858
226	0xbeb179cf	-0.34663245
227	0xbe35ee17	-0.17766605
228	0x3daa1ea2	0.08306624
229	0xbc3fc64e	-0.011704994
230	0x3ddd458e	0.10804282
231	0xbe53f047	-0.20697127
232	0xbd22e904	-0.039773002
233	0x3d62e73f	0.055396315
234	0x3e2a285d	0.1661696
235	0x3d100707	0.03516295
236	0x3ec42b3b	0.38314232
237	0x3e05ac80	0.13054085
238	0x3e329027	0.17437802
239	0xbe9ba377	-0.3039815
240	0xbe8b657a	-0.27225858
241	0xbe198275	-0.14991172
242	0xbebcfe63	-0.36912832
243	0xbdbd5361	-0.09244419
244	0xbea22dd1	-0.3167558
245	0xbe7cbfa8	-0.24682486
246	0xbed94701	-0.42436984
247	0xbdaf8f37	-0.08572238
248	0x3eac571e	0.33660215
249	0xbdaa6815	-0.08320633
250	0x3ce6f78f	0.028194217
251	0x3d16308e	0.0366674
252	0xbe4bf7ae	-0.19918701
253	0x3e5f74d0	0.21821904
254	0x3e4d5e9d	0.20055623
255	0x3d8553e9	0.06510145

features_extractor.network.4.bias f4 [64]
0	0xbdbc2c4b	-0.09188136
1	0x3aa2973a	0.0012404688
2	0x3ec3f2b5	0.38271108
3	0xbdee3d33	-0.116327666
4	0x3d968396	0.07349317
5	0x3f423156	0.7585653
6	0x3ebc7d30	0.3681426
7	0x3f50c872	0.81555855
8	0xbde5c728	-0.11219627
9	0xbc22fb0e	-0.009947551
10	0x3e58da2a	0.21176973
11	0x3f333d36	0.70015275
12	0xbd2506c8	-0.04028967
13	0x3ec46bba	0.3836344
14	0x3f036876	0.5133127
15	0x3f104b14	0.5636456
16	0x3e73b25a	0.23798504
17	0xbd8f175a	-0.06986876
18	0x3e8090f7	0.251106
19	0x3ebcbd1d	0.36863032
20	0x3e573a29	0.2101828
21	0x3e9f9560	0.31168652
22	0xbcf2c274	-0.029633738
23	0x3e2dcd3e	0.16972825
24	0xbe3672b7	-0.17817198
25	0xbe430898	-0.19046247
26	0xbd964a42	-0.07338382
27	0x3e653599	0.22383727
28	0x3f86c625	1.0529219
29	0x3de00bf0	0.10939777
30	0xbdd19c80	-0.10234928
31	0x3e6d8f6e	0.23199245
32	0xbe0cbb65	-0.1374336
33	0xbe0f9dcf	-0.14025043
34	0xbe4a9e23	-0.19786887
35	0xbe45fc22	-0.19334462
36	0xbdd1beb0	-0.10241449
37	0x3eec5a34	0.4616257
38	0x3ea87544	0.32901967
39	0x3f0dc9c3	0.5538599
40	0x3dce7b54	0.10082117
41	0xbe51b24f	-0.20478176
42	0x3dcadfe0	0.09905982
43	0xbe6915ce	-0.22762224
44	0xbe264f56	-0.16241202
45	0x3ec6b971	0.38813356
46	0xbd4942c5	-0.049135942
47	0x3e8ae199	0.27125242
48	0x3ebe1f28	0.37133145
49	0xbd0cfc4f	-0.034420308
50	0x3e4d2cbd	0.20036598
51	0x3e976835	0.2957169
52	0xbee50454	-0.44729865
53	0xbd685600	-0.05672264
54	0x3f0076b2	0.50181115
55	0x3d968e6b	0.07351383
56	0x3bcdc599	0.006279659
57	0x3cf2c3d5	0.029634396
58	0xbe7d4a13	-0.24735288
59	0x3ea22aea	0.31673366
60	0xbe17a18c	-0.14807719
61	0x3d98f21d	0.074680544
62	0xbd261d17	-0.040555086
63	0xbdb3be1e	-0.08776496

features_extractor.network.6.weight f4 [32, 64]
0	0xbd8ab999	-0.06773681
1	0xbf043c3d	-0.51654416
2	0xbefe5510	-0.49674273
3	0xbeb70073	-0.3574253
4	0x3f04877b	0.51769227
5	0xbf014d4d	-0.50508577
6	0xbdf3a45e	-0.11896585
7	0xbda73318	-0.08164042
8	0xbe555ba7	-0.20835744
9	0xbe72cbe1	-0.23710586
10	0x3e7238ba	0.23654452
11	0x3e25dd54	0.16197711
12	0xbe83815c	-0.2568463
13	0x3ec481b9	0.3838022
14	0xbde1d685	-0.110272445
15	0xbd99c509	-0.075082846
16	0xbe3d9541	-0.18513967
17	0x3daaff0a	0.08349426
18	0xbfaea812	-1.3645041
19	0x3e818119	0.25293806
20	0x3d10b373	0.035327386
21	0x3e74b2cb	0.23896329
22	0xbe53d503	-0.20686726
23	0x3eb7ab9e	0.3587312
24	0xbef5c35e	-0.48000616
25	0xbe2c7ede	-0.16845271
26	0x3e6f0d6a	0.23344961
27	0xbed00af1	-0.40633348
28	0xbfac0701	-1.3439637
29	0xbe9ee255	-0.31032053
30	0xbf8b714e	-1.0893953
31	0x3e4e1eda	0.20128956
32	0x3c6385c8	0.013886876
33	0x3ec8cf7d	0.392208
34	0x3dbdede8	0.09273893
35	0x3b8984eb	0.0041967533
36	0x3edd05eb	0.43168578
37	0xbf72c786	-0.948357
38	0xbebbdd24	-0.36692154
39	0xbee655e6	-0.4498741
40	0xbf48d125	-0.7844413
41	0xbf21065b	-0.6290032
42	0xbe876f10	-0.2645192
43	0x3f0df279	0.5544811
44	0xbe5bf48c	-0.21480006
45	0xbebdd755	-0.37078348
46	0x3f3fe737	0.7496218
47	0x3e5cf440	0.21577549
48	0xbd2bafe9	-0.041915808
49	0xbe7a3023	-0.24432425
50	0xbea25d27	-0.31711695
51	0xbd232172	-0.039826818
52	0xbed15732	-0.40886837
53	0x3d839596	0.06425016
54	0x3e7eae4b	0.24871175
55	0xbe62b3f4	-0.22138959
56	0xbf295b6d	-0.6615513
57	0xbd9c2bae	-0.07625519
58	0xbf27e181	-0.65578467
59	0x3eaa8bbd	0.33309737
60	0x3f52114a	0.8205763
61	0xbe182cbb	-0.14860813
62	0xbdc9b821	-0.09849573
63	0xbf8c08df	-1.0940207
64	0xbdfc2926	-0.12312536
65	0x3e08d020	0.13360643
66	0x3d917d67	0.07103997
67	0x3d238c64	0.03992881
68	0xbf17f67a	-0.5936047
69	0xbf73017d	-0.94924146
70	0xbf52f00f	-0.8239755
71	0xbe813cab	-0.25241598
72	0xbec473c9	-0.38369587
73	0x3ec08049	0.37597874
74	0x3c1735db	0.009229149
75	0x3e474b77	0.19462381
76	0xbe8123e4	-0.25222695
77	0xbfa9cc2b	-1.3265432
78	0x3d4fd475	0.050739724
79	0xbe1c1012	-0.15240505
80	0xbe1239c6	-0.14279851
81	0x3e1fdeff	0.1561241
82	0xbee24614	-0.4419409
83	0xbf2c6351	-0.67339045
84	0xbdb4eda5	-0.088343896
85	0xbf0e2db3	-0.5553848
86	0xbebeecf9	-0.3729017
87	0xbdb0b913	-0.0862905
88	0x3f29bc29	0.66302735
89	0xbf1e81db	-0.61916894
90	0x3ed754dc	0.4205693
91	0xbef9cf36	-0.48790902
92	0xbeb3be2c	-0.35106027
93	0x3eac6d28	0.3367703
94	0x3d8ccd08	0.06875044
95	0xbee9d89a	-0.45673066
96	0x3e4f440c	0.20240802
97	0x3e0754fb	0.13216011
98	0xbe90dff0	-0.2829585
99	0x3fab1a37	1.3367375
100	0x3e3543ed	0.17701693
101	0xbdc5e6b4	-0.09663144
102	0xbf4dc992	-0.80385697
103	0x3e1e76cc	0.15475005
104	0xbe62b86e	-0.22140667
105	0x3f89d582	1.0768282
106	0x3e50d38f	0.20393203
107	0xbe71db82	-0.23618892
108	0xbf8a74f4	-1.0816941
109	0xbda8344b	-0.08213099
110	0xbd076400	-0.03305435
111	0xbe893c79	-0.2680395
112	0xbeba5dbd	-0.36399642
113	0xbd4987d3	-0.049201798
114	0x3e843292	0.25819832
115	0xbf4f47d2	-0.80968964
116	0xbe299f68	-0.16564715
117	0xbe425a18	-0.1897968
118	0xbec5421b	-0.38526997
119	0x3b7f323f	0.003893986
120	0xbcccf49d	-0.025018984
121	0xbdb099db	-0.086230956
122	0xbd7bea25	-0.061502595
123	0xbe52278a	-0.20522895
124	0x3dd1ffbc	0.102538556
125	0xbe94ae6d	-0.29039326
126	0x3edd803f	0.43261907
127	0x3eb046b8	0.34428954
128	0xbb221bef	-0.0024735888
129	0xbe688141	-0.22705556
130	0x3eba2f49	0.363642
131	0x3cb4ad13	0.022055184
132	0xbeca4164	-0.39503014
133	0xbdb59477	-0.08866208
134	0x3e8b7141	0.27234843
135	0x3e572797	0.21011196
136	0xbe82d85b	-0.2555569
137	0x3dac3d47	0.08410125
138	0x3ccafc08	0.024778381
139	0xbf1a0721	-0.6016713
140	0xbe4767c2	-0.19473174
141	0xbd632e87	-0.055464294
142	0x3f17181f	0.5902118
143	0x3eec843a	0.4619463
144	0x3ec4dd34	0.38450015
145	0xbd6da20c	-0.058015868
146	0xbee1c553	-0.4409586
147	0x3eaa8690	0.33305788
148	0xbeddc05d	-0.43310824
149	0x3f1a013f	0.6015815
150	0xbcf6a93a	-0.03010999
151	0x3b113359	0.002215585
152	0x3dec57de	0.11540197
153	0xbebf10d4	-0.37317526
154	0x3ec92102	0.39282995
155	0xbf61ebb8	-0.88250303
156	0x3e5515aa	0.20809045
157	0xbe615279	-0.22004117
158	0xbdbaf7c7	-0.09129291
159	0x3e763a25	0.24045618
160	0x3f0fbfd1	0.56152064
161	0xbda7a324	-0.081854135
162	0x3ec3cb03	0.38240823
163	0x3ec2a3c7	0.38015577
164	0xbf1119b3	-0.5667984
165	0xbf3cc391	-0.7373591
166	0x3dfa67a9	0.12226803
167	0xbe4a4e2a	-0.1975638
168	0xbf8446d8	-1.033412
169	0x3fba00e5	1.4531523
170	0x3e8b9e79	0.27269343
171	0x3d846bc5	0.06465868
172	0x3e8a2082	0.26977926
173	0xbf3de045	-0.74170333
174	0x3ef82a32	0.48469692
175	0xbf06a6be	-0.5259818
176	0xbe8c8640	-0.27446175
177	0xbf99fbcd	-1.2029969
178	0xbf205dab	-0.62642926
179	0xbd655386	-0.055987857
180	0xbe879546	-0.26481074
181	0xbe1cacbc	-0.15300268
182	0xbf4c0103	-0.79689044
183	0xbf862beb	-1.0482153
184	0xbf251c27	-0.6449608
185	0xbe0f4119	-0.13989677
186	0xbf32b670	-0.6980963
187	0x3e26b1b8	0.16278732
188	0x3f3c0b5e	0.73454845
189	0xbf1d737a	-0.6150433
190	0x3e89778d	0.26849023
191	0xbe27350d	-0.16328831
192	0xbf59b1ee	-0.85037124
193	0x3edcf383	0.43154535
194	0x3ebab81d	0.36468592
195	0xbf816433	-1.0108703
196	0xbe6b58e6	-0.22983131
197	0x3e5e95d6	0.21736845
198	0xbfaefc71	-1.3670789
199	0x3e9f1038	0.3106706
200	0x3f9c5ea9	1.2216388
201	0xbfb674ed	-1.4254433
202	0x3ecc90b9	0.39954165
203	0xbf06c313	-0.5264141
204	0x3f4a55ea	0.79037344
205	0xbf3253ae	-0.69658935
206	0xbea7bdc7	-0.32761976
207	0xbeac2eb6	-0.33629388
208	0xbe2bdb8d	-0.1678297
209	0x3ee574f1	0.44815782
210	0xbed7bd8d	-0.42136803
211	0x3e506aab	0.2035319
212	0x3e3148ee	0.17312977
213	0xbebf7962	-0.37397295
214	0x3f20dd2a	0.6283747
215	0xbe27e316	-0.1639522
216	0xbfa1ef72	-1.2651198
217	0x3d486124	0.048920766
218	0xbf0c5b54	-0.54826856
219	0x3c7af2f5	0.0153167145
220	0xbeca5dc5	-0.39524665
221	0x3f2e95e1	0.6819745
222	0x3f3ea53f	0.74470896
223	0x3f6a6717	0.9156355
224	0xbe5395ae	-0.20662567
225	0x3eb9ed12	0.36313683
226	0xbf0a66d1	-0.54063135
227	0xbf2f4068	-0.6845765
228	0xbf021b42	-0.5082284
229	0x3d81bd59	0.06334943
230	0xbea84499	-0.32864836
231	0xbf9eda8a	-1.2410443
232	0x3e6be358	0.23035944
233	0xbf38393c	-0.7196233
234	0x3e4a8d55	0.19780476
235	0xbee0197b	-0.4376944
236	0xbf62399b	-0.8836915
237	0xbd91f3e9	-0.071266
238	0xbf403cb7	-0.75092643
239	0x3e99a94c	0.30011976
240	0x3e782a55	0.24234898
241	0x3d1e8424	0.038700238
242	0xbf9c5570	-1.2213573
243	0x3f020618	0.5079055
244	0xbe303daa	-0.17211023
245	0x3ab53e9e	0.0013827865
246	0xbc817540	-0.01580298
247	0x3e1900c7	0.14941703
248	0x3f35d7e1	0.7103253
249	0x3ed88cc2	0.4229489
250	0x3f6d27ad	0.92638665
251	0xbe68d91c	-0.2273907
252	0xbed89c48	-0.42306733
253	0x3f2e7d1e	0.68159664
254	0xbe7de8fe	-0.2479591
255	0xbe549099	-0.20758285

features_extractor.network.6.bias f4 [32]
0	0xbf98a51d	-1.1925389
1	0xbf1c0ed7	-0.60960144
2	0x3f7fd533	0.9993469
3	0xbe2fa5e8	-0.17153132
4	0x3f40e5f2	0.7535087
5	0x3e889ce8	0.2668221
6	0xbdbbe0d7	-0.09173744
7	0x3daf0118	0.085451305
8	0xbf83c7b7	-1.0295323
9	0x3f30948f	0.6897668
10	0x3f9fbdc6	1.2479789
11	0x3f4f635e	0.81011
12	0xbe8c73db	-0.2743214
13	0xbfbf3b2a	-1.493993
14	0xbf937fab	-1.1523336
15	0xbfbd3b47	-1.4783715
16	0x3f1c0fef	0.6096181
17	0xbf386ccd	-0.72041017
18	0x3e1f10f7	0.15533815
19	0xbf9f9272	-1.2466567
20	0xbddccec4	-0.10781625
21	0xbf2fcc0d	-0.6867073
22	0xbeccd0a4	-0.4000293
23	0xbe648695	-0.22316964
24	0xbf087d63	-0.53316325
25	0xbdf50e09	-0.119655676
26	0xbf8d0467	-1.1016968
27	0xbe88432c	-0.26613748
28	0x3f28bff6	0.6591791
29	0xbf93fe34	-1.1561952
30	0xbbd62eaa	-0.0065363245
31	0x3f87699a	1.0579102

pi_features_extractor.network.0.weight f4 [64, 18]
0	0xbefeb346	-0.4974615
1	0x3f4be4f8	0.79646254
2	0x3eb25a09	0.34834316
3	0x3f00e32f	0.50346655
4	0x3efb0a7b	0.49031433
5	0x3e9956ec	0.2994913
6	0xbf1b52a6	-0.60672987
7	0xbbb1eeac	-0.005430063
8	0x3d6e7303	0.058215152
9	0xbed38029	-0.41308716
10	0x3dbfc0f1	0.093629725
11	0x3f013deb	0.50485104
12	0x3e0c028e	0.1367285
13	0x3f94cb5b	1.1624559
14	0x3f2de18c	0.6792228
15	0x3e228bc0	0.15873623
16	0x3eb61bc5	0.3556806
17	0x3e235810	0.15951562
18	0x3f0f4582	0.55965436
19	0x3eee2db5	0.46519247
20	0xbfb26a42	-1.3938677
21	0xbeb9b17b	-0.3626822
22	0xbdf614f3	-0.120157145
23	0x3d819e78	0.06329054
24	0xbf553f4c	-0.8329971
25	0xbf3d0903	-0.73841876
26	0xbfc8625b	-1.5655016
27	0x3f8587ae	1.0432031
28	0x3f1f9529	0.62336975
29	0x3f9584a8	1.1681108
30	0xbee19bf5	-0.44064298
31	0x3f1abda4	0.6044562
32	0x3ccad5d3	0.024760162
33	0x3eff6b30	0.49886465
34	0x3f971752	1.1803992
35	0xbdc9701f	-0.098358385
36	0x3e9024da	0.28153116
37	0x3e9f9e05	0.31175247
38	0x3e090230	0.1337974
39	0x3ed1c700	0.40972137
40	0x3ec67783	0.38763055
41	0xbc946323	-0.018113678
42	0x3f1db444	0.6160319
43	0x3f757e1d	0.9589556
44	0x3e6de13a	0.23230448
45	0xbea03818	-0.31292796
46	0x3d00e187	0.03146508
47	0x3eaaee38	0.3338487
48	0xbde04235	-0.10950128
49	0xbf2cb8d9	-0.67469555
50	0x3ee68b44	0.45028126
51	0x3ddb8c48	0.10720116
52	0x404d8d02	3.2117314
53	0xbd05e89b	-0.032692533
54	0xbd8be6a0	-0.068310976
55	0xbee2a1c7	-0.4426405
56	0xbf7406bc	-0.95322776
57	0xbf28e8f7	-0.65980476
58	0x3f174b17	0.59098953
59	0x3ec3f53f	0.38273045
60	0x3e7cdea4	0.24694306
61	0x3a8912c3	0.0010457862
62	0xbc19cd09	-0.009387263
63	0x3e80c261	0.251483
64	0xc00637e7	-2.097162
65	0xbd50ca9c	-0.050974473
66	0x3eb2aab4	0.3489586
67	0x3f91edd7	1.1400708
68	0x3efd745f	0.49502847
69	0xbf756fb4	-0.9587357
70	0xbf660e2d	-0.8986538
71	0xbde97ac0	-0.11400366
72	0xbe8ffece	-0.28124088
73	0xbe8fa50a	-0.28055602
74	0xbed64e41	-0.41856578
75	0x3cbe9bd9	0.023267673
76	0xbe8bbee3	-0.27294073
77	0xbca77556	-0.020441692
78	0x3d565391	0.05232579
79	0x3eaaba2a	0.33345157
80	0xbf08c042	-0.5341836
81	0xbdc2d18e	-0.09512626
82	0xbcc480c8	-0.023987189
83	0x3c8ae534	0.016954996
84	0x3f1c4475	0.6104196
85	0x3e8ae0bc	0.27124584
86	0xbc4fb5e1	-0.012677641
87	0xbf678a88	-0.90445757
88	0xc07c16eb	-3.9388988
89	0xbe2e8174	-0.1704157
90	0xbf80a464	-1.0050168
91	0x3f1d7375	0.615043
92	0xbec506ab	-0.3848165
93	0x3e0f3629	0.13985504
94	0x3ec98a88	0.39363503
95	0xbfa0fc41	-1.2576982
96	0x3e622e5c	0.22087997
97	0xbe7ba06c	-0.24572915
98	0xbe9f7e2c	-0.3115095
99	0x3ed6e33c	0.4197024
100	0xbeb925f9	-0.36161783
101	0xbf7ad1a6	-0.9797615
102	0xbf7f1686	-0.99643743
103	0x3eb0e830	0.34552145
104	0x3f7aadf3	0.97921675
105	0x3e2584c0	0.16163921
106	0x3eb6eab1	0.3572593
107	0x3ddb7595	0.10715786
108	0xbfab3984	-1.3376927
109	0x3ef9b36c	0.487697
110	0x3f149705	0.5804294
111	0x3ef08893	0.46979198
112	0xbc5811ef	-0.013187869
113	0x3d5a4596	0.05328902
114	0x3f9d49f4	1.2288194
115	0xbf9ec7f0	-1.2404766
116	0x3db4d959	0.08830518
117	0xbf7d0437	-0.98834556
118	0xbf26b5cb	-0.65121144
119	0x3ecf00ed	0.40430394
120	0xbe38f3e3	-0.18061785
121	0xbf2d4938	-0.6768985
122	0xbcc5962b	-0.024119457
123	0x3f89e7b4	1.0773835
124	0xbefcc2ba	-0.49367315
125	0x3ddfcf6b	0.10928234
126	0xbdcd883d	-0.10035751
127	0x3dcdb506	0.10044293
128	0xbe2a74f4	-0.16646177
129	0x3e0a1df8	0.13487995
130	0x3eca8694	0.395558
131	0x3e33b6e8	0.17550242
132	0x3e7b8565	0.24562605
133	0xbdd572ff	-0.104223244
134	0x3d8d79dd	0.06908009
135	0x3e2d9250	0.16950345
136	0x3e8475f4	0.2587124
137	0xbdb0c6b2	-0.08631648
138	0xbec9f11d	-0.39441767
139	0x3e61065e	0.21975085
140	0x3e01fc8a	0.12693992
141	0x3e50d08f	0.20392059
142	0xbf0b82e9	-0.5449663
143	0xc07073a5	-3.7570584
144	0xbf1f1eb5	-0.6215623
145	0xbebec7e6	-0.37261885
146	0xbf4ff30c	-0.81230235
147	0xbd0c5fcd	-0.03427105
148	0x3d567b57	0.05236372
149	0x3d24df91	0.040252272
150	0x3f95d9d0	1.1707096
151	0xbfb001e1	-1.3750573
152	0x3f279bac	0.6547191
153	0x3f1ace53	0.60471076
154	0x3e0a269b	0.1349129
155	0x3c859b2a	0.01630934
156	0x3f9f528d	1.2447067
157	0xbf49e7b8	-0.788692
158	0xbf814aac	-1.0100913
159	0x3eb1d60f	0.34733626
160	0x3f39305f	0.72339433
161	0xbe28c4a3	-0.16481261
162	0x3f4fdced	0.8119648
163	0xbed9af2a	-0.42516452
164	0xbfb1208f	-1.3838061
165	0xbf84c5e9	-1.0372897
166	0x3f8773ee	1.0582254
167	0xbf62358c	-0.88362956
168	0xbebb5c34	-0.36593783
169	0x3f80ba5b	1.0056871
170	0xbe41c286	-0.18921861
171	0xc016f44d	-2.358661
172	0x3f978993	1.1838859
173	0x3eb1948e	0.3468365
174	0x3ed554bf	0.4166622
175	0x3e3d65b6	0.18495831
176	0xbdaa249e	-0.083077654
177	0x3fa22872	1.2668593
178	0xbec4cdee	-0.38438362
179	0x3e054782	0.1301556
180	0xbe846ff3	-0.2586666
181	0xbfe613b6	-1.7974765
182	0x3f653fd5	0.89550525
183	0x3f219d86	0.63130987
184	0xbf2d911b	-0.6779954
185	0x3d895ab2	0.06706752
186	0xbf050fe6	-0.51977384
187	0xbd91fbd6	-0.07128112
188	0xbeb92623	-0.36161909
189	0xbcb9ba7d	-0.022671932
190	0x3bb55f12	0.005535015
191	0xbf1b95fc	-0.60775733
192	0xbce37d5b	-0.027769735
193	0xbf5a27d9	-0.8521705
194	0x3ef6e22a	0.48219424
195	0x3efe5719	0.49675825
196	0x3eaca763	0.33721456
197	0x3e169b15	0.14707597
198	0x3d8a44a4	0.067513734
199	0xbe0b5849	-0.13607897
200	0xbdffe290	-0.12494385
201	0xbdd04613	-0.101696156
202	0xbcd75f3b	-0.026290527
203	0x3d9e8ffd	0.07742307
204	0x3db4edcd	0.088344194
205	0xbcf19b48	-0.02949299
206	0x3e3403cf	0.17579578
207	0xbdc9b643	-0.09849217
208	0x3dec8082	0.115479484
209	0xbda042a8	-0.07825214
210	0x3c6bc614	0.014390487
211	0xbe02b57c	-0.12764543
212	0xbdc77744	-0.09739545
213	0xbe2a9d0b	-0.1666147
214	0xbe809ec0	-0.25121117
215	0xbfe66a90	-1.800127
216	0x3ed9fe09	0.42576626
217	0xbec244cd	-0.37943116
218	0xbe08a178	-0.13342845
219	0xbf8226c9	-1.0168086
220	0xbf154826	-0.58313215
221	0xbed2459b	-0.4106873
222	0xbebd8040	-0.3701191
223	0x3f617595	0.8807004
224	0x3f627e63	0.884741
225	0xbfe94ab7	-1.8225926
226	0xbbb3df60	-0.005489275
227	0x3e798c84	0.24370009
228	0xbf87811d	-1.0586277
229	0x3e28d343	0.1648684
230	0xbed738c4	-0.42035496
231	0x3fb25fc7	1.3935479
232	0x3e70a15f	0.23499058
233	0xbe608ae5	-0.21927984
234	0x3cee3ca0	0.029081643
235	0x3e1aeee6	0.15130195
236	0xbb67d9c3	-0.0035377599
237	0x3dbb5dcd	0.091487505
238	0xbe885aa3	-0.2663165
239	0xbe877ef4	-0.26464045
240	0xbe119bab	-0.14219539
241	0x3daa6062	0.08319165
242	0x3cf4aceb	0.02986761
243	0x3dc0acd5	0.09407965
244	0xbd3eb0ac	-0.046555206
245	0xbd93fb32	-0.07225646
246	0x3d1f9faa	0.038970627
247	0x3e65a682	0.22426799
248	0x3e75bd65	0.2399803
249	0x3d9065cf	0.070506684
250	0xbf8ef337	-1.1167973
251	0xbe501b18	-0.20322835
252	0xbf88ae42	-1.0678179
253	0xbf5bb8c7	-0.8582882
254	0xbfbfbf96	-1.4980342
255	0xbe2942b3	-0.1652935

pi_features_extractor.network.0.bias f4 [64]
0	0x3ecd4121	0.40088752
1	0x3eac8cf0	0.33701277
2	0x3e2c712b	0.16840045
3	0x3f03176a	0.512076
4	0x3b8962e7	0.0041926983
5	0x3eeb50e5	0.45960155
6	0x3f1c42d8	0.61039495
7	0x3f89928a	1.0747845
8	0x3e5d11b6	0.21588787
9	0x3ef43afb	0.4770125
10	0x3f2e42bb	0.6807057
11	0x3f2f6f1c	0.68528914
12	0x3d9dbc66	0.0770195
13	0x3f6ebf2f	0.93260473
14	0x3e882c8e	0.26596493
15	0x3f463c86	0.774361
16	0x3f3e0998	0.7423339
17	0x3f7aa44d	0.97906953
18	0xbc432ccc	-0.011912536
19	0x3ed26826	0.41095084
20	0x3df7e50b	0.12104233
21	0x3e87a465	0.2649261
22	0x3f168107	0.5879063
23	0x3e922164	0.285411
24	0x3e55035e	0.20802066
25	0x3f10159e	0.56282985
26	0x3f042b7d	0.5162886
27	0x3f9e1211	1.2349263
28	0xbe38479b	-0.17996065
29	0x3f959c26	1.1688278
30	0x3e311f48	0.17297089
31	0xbf1044cf	-0.56354994
32	0x3e380839	0.17971887
33	0x3f8dbf74	1.1074052
34	0x3f0c38c2	0.54774106
35	0xbe103b3c	-0.14085096
36	0x3dc928fc	0.0982227
37	0x3dc97c24	0.09838131
38	0x3edf476a	0.43609172
39	0xbe987942	-0.29780012
40	0x3f2efe10	0.6835642
41	0x3ee763df	0.45193383
42	0x3eb77dac	0.35838068
43	0x3f00faf8	0.5038295
44	0x3fc47dff	1.5350951
45	0x3e75ab7e	0.239912
46	0x3e1b5bf8	0.15171802
47	0x3e9737cf	0.29534766
48	0x3db9ac04	0.090660125
49	0x3e8f38b9	0.27972963
50	0x3ec9a385	0.39382568
51	0x3f697422	0.9119283
52	0x3f4a38d5	0.7899297
53	0x3f35d328	0.71025324
54	0x3f15711c	0.58375716
55	0x3e3884c2	0.18019393
56	0x3ef87af3	0.48531303
57	0x3fa4a520	1.2862892
58	0x3eeded55	0.46470132
59	0x3f0ceccc	0.55048823
60	0x3ef77362	0.48330218
61	0x3e93bbbd	0.2885417
62	0x3bb4d3f5	0.0055184313
63	0x3f066a47	0.52505916

pi_features_extractor.network.2.weight f4 [128, 64]
0	0x3e87d2eb	0.26528105
1	0xbe1492bf	-0.14509104
2	0x3f010117	0.5039229
3	0xbef7ffb0	-0.48437262
4	0x3f851cbc	1.0399394
5	0x3f142edd	0.5788401
6	0xbe73bfab	-0.23803584
7	0xbf83961b	-1.0280184
8	0x3f853863	1.0407833
9	0x3e4a3cdb	0.19749777
10	0xbe707aad	-0.23484297
11	0x3f024ad3	0.5089542
12	0xbfb06147	-1.3779687
13	0x3ec2e9fc	0.3806914
14	0xbf631dae	-0.8871716
15	0x3f299db8	0.66256285
16	0xbd2aea08	-0.041727096
17	0xbecc5bc2	-0.39913756
18	0xbe571474	-0.21003896
19	0xbed0d931	-0.40790704
20	0x3e24340e	0.16035482
21	0x3f837429	1.0269824
22	0xbdb4a9aa	-0.08821423
23	0x3f30437c	0.68852973
24	0x3ef7a2de	0.48366445
25	0x3f1bb6e8	0.6082597
26	0x3ebf4812	0.37359673
27	0xbf016558	-0.50545263
28	0x3f49dfbf	0.78857034
29	0xbeefb51b	-0.4681786
30	0xbfa08bc8	-1.2542658
31	0x3fe2414d	1.7676178
32	0x3ed9089d	0.42389384
33	0xc0003d8d	-2.0037568
34	0xbf29304b	-0.66089314
35	0xbf22fd31	-0.6366759
36	0x3ecdeb58	0.40218616
37	0xbf57ea96	-0.84342325
38	0xbce3ebd6	-0.027822416
39	0x3fb6ae7e	1.4272001
40	0xbed3e7fa	-0.41387922
41	0xbf1c1d46	-0.6098217
42	0x3caa6719	0.020801114
43	0x3ff55423	1.9166301
44	0xbe5c889a	-0.21536484
45	0x3f22d281	0.63602453
46	0x3f9ebe18	1.2401762
47	0x3d341506	0.043965362
48	0x3f44be9f	0.76853365
49	0x3d482a86	0.04886868
50	0x3f9a5737	1.2057866
51	0xbeae340f	-0.34024093
52	0x3f5ced05	0.86299163
53	0x3d565286	0.052324794
54	0xbf56fbe8	-0.8397813
55	0xbb320177	-0.0027161518
56	0x3df65a29	0.120289154
57	0xbeba9433	-0.36441192
58	0x3f405984	0.7513659
59	0x3f48d6df	0.7845287
60	0xbe52acf9	-0.20573796
61	0xbec85535	-0.39127508
62	0xbd48e07c	-0.04904221
63	0x3f6fa64a	0.9361311
64	0x3e897271	0.26845124
65	0x3dc13459	0.09433813
66	0xbf8af4cc	-1.0855956
67	0x3ed1552f	0.40885302
68	0x3e8b0181	0.27149585
69	0xbedbf7dc	-0.4296254
70	0x3f10e942	0.56605923
71	0xbfe7c39d	-1.8106571
72	0x3e79e9e8	0.24405634
73	0xbeaa5e8a	-0.33275253
74	0xbe8a02fe	-0.26955408
75	0xbf060518	-0.5235152
76	0xbf56184e	-0.83630836
77	0x3ef7d61b	0.48405537
78	0xbeb1b88c	-0.3471111
79	0x3f25bdfe	0.6474303
80	0x3eed36b7	0.46330807
81	0x3c10718b	0.008816133
82	0xbcd35c94	-0.02580098
83	0x3e18467c	0.14870638
84	0x3f28438a	0.65728056
85	0x3de51688	0.11185938
86	0x3f37af45	0.71751815
87	0x3f2c768b	0.6736838
88	0x3f113794	0.5672543
89	0x3d756f42	0.059920557
90	0x3f3ad6d2	0.7298404
91	0x3f1977f7	0.59948677
92	0x3f8b6306	1.0889595
93	0xbe343e2c	-0.17601842
94	0x3ede10a0	0.4337206
95	0xbf767a3a	-0.9628025
96	0xbd330b99	-0.043712232
97	0xbe2037da	-0.15646306
98	0x3f35ce22	0.7101766
99	0x3e2ac218	0.16675603
100	0xbf14b8d1	-0.5809451
101	0xbf09c161	-0.538107
102	0xbe613bca	-0.21995464
103	0xbe87fee2	-0.26561648
104	0x3f1c9d05	0.6117709
105	0xbd663188	-0.05619958
106	0xbf1ada2b	-0.6048915
107	0xbf89ae64	-1.0756345
108	0x3eba7e0a	0.36424285
109	0xbf6aa67a	-0.91660273
110	0xbf334d71	-0.7004004
111	0xbe282394	-0.16419822
112	0x3e719bb3	0.23594551
113	0xbf59f853	-0.8514454
114	0x3f1b4fcb	0.6066863
115	0x3f3be120	0.7339039
116	0x3fa9b8be	1.3259504
117	0x3eb8d976	0.3610341
118	0x3fa2cb94	1.2718377
119	0x3ee0dc29	0.4391797
120	0x3e9e1639	0.3087633
121	0xbeff6c80	-0.49887466
122	0x3f16972e	0.5882443
123	0xbf028788	-0.50988054
124	0x3e8d4c2f	0.27597186
125	0x3dbb901b	0.09158345
126	0xbe5f1a3f	-0.21787356
127	0x3e1ce41a	0.15321389
128	0xbfa01e37	-1.2509221
129	0xbf0d3661	-0.551611
130	0xbdd84f68	-0.105620205
131	0x3f07f07e	0.53101337
132	0x3e9d5cab	0.30734763
133	0xbf428c9b	-0.75995797
134	0x3f88ab53	1.0677284
135	0xbf9bb045	-1.2163168
136	0x3ee8c8c5	0.45465675
137	0x3f8bd683	1.0924839
138	0xbed80865	-0.42193905
139	0xbb17d5bb	-0.0023168165
140	0xbb02cc4f	-0.0019958203
141	0x3e8d96e4	0.27654183
142	0x3f1a7c91	0.60346323
143	0x3f160faa	0.5861765
144	0x3f478b74	0.77947164
145	0x3f0d400e	0.55175865
146	0xbfaeb6e0	-1.3649559
147	0xbf7d621b	-0.9897782
148	0x3e78dd02	0.24303058
149	0xbf3b77b0	-0.73229504
150	0x3f38ea4d	0.72232515
151	0xbedb227d	-0.4279975
152	0x3f6dafc1	0.92846304
153	0xbdd1b616	-0.10239808
154	0xbe39ea92	-0.18155888
155	0x3ef2c0e4	0.4741279
156	0x3e9228db	0.28546795
157	0x3ebb9d2b	0.36643347
158	0xbed56c5a	-0.41684228
159	0x3f71c20b	0.9443671
160	0x3e888e97	0.26671287
161	0x3f3faea5	0.7487586
162	0x3f138f91	0.5764094
163	0x3eac0294	0.33595717
164	0x3e8ec036	0.2788102
165	0xbdc064d2	-0.0939423
166	0xbe757bcd	-0.23973008
167	0x3e5effa6	0.2177721
168	0x3e241443	0.16023354
169	0xbec7632a	-0.38942844
170	0x3ebaa9a5	0.36457554
171	0xbdc063d3	-0.0939404
172	0x3c498d55	0.012301763
173	0xbee4e91c	-0.44709098
174	0xbef454a5	-0.4772083
175	0x3f8a72d9	1.0816299
176	0x3ef5ea9c	0.48030555
177	0x3cb5538a	0.022134561
178	0xbe2b067a	-0.1670169
179	0xbf445e78	-0.7670665
180	0xbf0a7cf1	-0.54096895
181	0xbd0cdd0f	-0.034390505
182	0x3f83e1bc	1.0303264
183	0x3f348cdf	0.7052745
184	0xbc81b8ef	-0.015835254
185	0xbe513646	-0.2043086
186	0x3e859dad	0.2609686
187	0x3f90aebd	1.1303326
188	0xbec5bcea	-0.38620692
189	0xbf43c0fd	-0.7646635
190	0x3dbc7593	0.09202113
191	0xbed60572	-0.4180103
192	0x3e9bfda0	0.30466938
193	0x3ec7f9dc	0.39057815
194	0x3fc61568	1.5475283
195	0x3f4fb256	0.81131494
196	0xbe77a64d	-0.24184532
197	0x3e5ed2d9	0.2176012
198	0xbf1fe5b1	-0.62459856
199	0x3f784971	0.9698706
200	0xbe118c78	-0.14213741
201	0xc012daed	-2.2946122
202	0xbdfa3fcb	-0.12219199
203	0x3e80b44f	0.25137565
204	0xbfca13c3	-1.5787281
205	0x3cd53b3d	0.026029224
206	0xbeaec62a	-0.34135562
207	0x3f08def9	0.5346523
208	0x3f19812b	0.5996272
209	0x3f29b8cc	0.662976
210	0xbe457bb4	-0.1928547
211	0x3f58a49f	0.8462619
212	0x3f1a458a	0.6026236
213	0x3fbbea22	1.4680827
214	0xbd185163	-0.03718699
215	0xbf774ab9	-0.9659839
216	0x3e9038ac	0.28168237
217	0x3d349932	0.04409141
218	0x3f4e78e3	0.8065321
219	0xbd75af6b	-0.059981745
220	0x3ea9f8e8	0.33197713
221	0x3f1f7b5f	0.62297624
222	0x3f75b134	0.95973516
223	0x3e51ca20	0.20487261
224	0x3f02aca0	0.51044655
225	0xbe2003f6	-0.15626511
226	0xbef8f5a1	-0.486249
227	0xbf986b13	-1.1907676
228	0xbf5c25d5	-0.8599523
229	0x3f055ce1	0.52094847
230	0xbf268a3d	-0.65054685
231	0x3fd5061c	1.664249
232	0xbf88e0bc	-1.0693583
233	0xbeb189c6	-0.34675425
234	0xbfd39d4f	-1.6532382
235	0xbef83577	-0.4847829
236	0xbe8064b9	-0.25076845
237	0x3fc3311d	1.5249363
238	0xbebf40ad	-0.3735403
239	0xbfcabd2b	-1.583898
240	0x3ece6932	0.40314633
241	0xbf6122ce	-0.8794373
242	0x3da9560e	0.08268367
243	0xbf0b492c	-0.54408526
244	0xbecc2634	-0.39872897
245	0x3f189120	0.59596443
246	0x3f521bff	0.8207397
247	0x3dbf0e05	0.09328846
248	0x3cdc48b1	0.02689013
249	0x3f4225d6	0.75838983
250	0x3eeea2de	0.46608633
251	0xbe9d2415	-0.3069159
252	0xbfbe7e32	-1.4882262
253	0xbf640fa5	-0.8908637
254	0x3efcc814	0.49371397
255	0x3e70161c	0.23445934
