envs/wheeled/VertBenchModels/ppo_RL_iter34_level45.pt (torch, 142077 bytes, 36 tensors)

log_std f4 [2]
00000000: 8e27 dfbd f885 bcbe
-0.10896216 -0.3682096

features_extractor.network.0.weight f4 [64, 18]
00000000: 5f86 303e eeb4 9b3e a337 883d 1c74 ea3e
00000010: 4450 2ebe 9aa2 6bbe 1e14 1f3e b062 d23e
00000020: 9b97 48bf d272 c0bd 5f08 793e ffae a03e
00000030: 8223 1f3f 53b8 493f 2899 a4be 59eb babe
00000040: 8f48 503f a8c1 c53c 5907 0abe 092a cbbb
00000050: 568f bb3d 3367 3f3e e0ff 393e 7bb0 c63e
00000060: 7156 30bf 649e d83e ef8b db3e 6eae 1f3f
00000070: ad2d e53e 837a 64bb e103 acbe 70a1 e03d
00000080: a933 e03e 5236 40bf 71ab f53f aa97 95bd
00000090: 1440 153b c376 b83e 8732 8f3e ea3c 2cbf
000000a0: 364f 32bd 7edd c53d d991 d53d a79f 0c3f
000000b0: 6410 1b3e bcae 0dbd 0460 6ebe 0769 e2bc
000000c0: a9e1 613d 8e66 ee3d 37d2 9c3e a5e5 8b3e
000000d0: 711b 0540 4524 b2bc ede6 13be 6c70 8cbe
000000e0: b6e1 73be df59 b0be e46d ba3d 64de a7bd
000000f0: c977 0fbf 474b e8be 8f3c 0e3e 197d 94be
00000100: 8bcb 90be 3177 eabe 823d e5bd edea ec3e
00000110: 32b9 fb3e 86af 133d c442 bd3f d036 2e3e
00000120: d575 d93b 366f e6bc a8f7 5b3d 0986 75bd
00000130: 5f19 1ebf 89a3 0abf d15c 2b3e f8ea 283e
00000140: 3906 42be cb90 e33e b8fe 703e 5266 22bd
00000150: a294 c33e 62ca 183f a039 61be 1518 a53d
00000160: db65 02bf 79a6 e4bd 7d2c 733d 954c 4ebd
00000170: f7a5 25bf 8680 5abd aed3 afbe 28e5 97be
00000180: 8905 f2bd 42e0 b73c 28ec 553e b55f 12bf
00000190: 2f76 c5bd 6672 0d3e 4ff9 533f dc2c 68be
000001a0: 6e63 973e 7c21 903e f5ad f8bc 32a9 793a
000001b0: f10c 183e 58f5 f2bb 0604 44be 668b 843e
000001c0: 2ae2 ae3e 1bdb 69be 5bd3 99be ffe4 05be
000001d0: 0db7 a63c a36a adbe 02ca 913e a507 d83d
000001e0: 6a0f 703e 3855 323f 7fb3 143e 055e ee3e
000001f0: 51d3 0abe 257c b33d 6c3b 763e d0b3 043d
00000200: b64b 1fbf df2c 4bbf e4f1 ce3e 97f4 9bbe
00000210: c209 cc3e e444 aabd 6027 973c 119e 06bf
00000220: 5fb8 883d 84ad 003d 409d ab3e 1e36 febd
00000230: f304 71be ec51 8b3e b2f4 c7bf ff89 a93d
00000240: b50a d8be 950a 113e 6483 933c a6eb 393f
00000250: 363e 8bbf 98b4 e93e 48d3 aabe 5121 843e
00000260: 52e1 e53e 186d cdbe 4d8e 1ebf 61be 80be
00000270: 37d0 213f 1539 75be 33ea fcbe bee1 58be
00000280: e2f0 113f 1e47 9dbc 5715 3bbe ce57 38be
00000290: 1613 703f 946a 92be 437d ecbe a853 9bbe
000002a0: 56a9 1d3d 4e3c 5b3e 84ce 6abf 9ee8 09bf
000002b0: 223f af3c 3bc7 afbe d2fb 093f cf4a 893e
000002c0: 4ed0 7c3d eb3b 07bf b8e2 cebe a649 483e
000002d0: fac4 89be 57d8 b6be fed1 4b3f 1122 80be
000002e0: f112 4c3f 0b66 4f3e 7773 b53d 3b98 60bf
000002f0: 8235 a93e dff5 bdbe f1d3 42be 9b5f 473f
00000300: b55b 133e 3170 043d f648 383e bfec 613e
00000310: d766 edbe 1be9 92bc 8673 50be 605d c8be
00000320: b830 a3bc 5818 7e3e f20d 5b3f 3ef6 18bc
00000330: 3aca ecbe 1e55 b83d cab7 b83e 022e 0cbf
00000340: cbe8 243f 9bc1 173f 4047 e83d 50ff 8fbe
00000350: f176 05bf c989 3fbf bcb6 89be efb7 f23d
00000360: ff9d ad3d e02c 86bd d12b fcbc 7ecc 22be
00000370: 9a26 f23d 23e1 663e 53f2 653e 84a9 b03c
00000380: 8e64 0e3b 83c0 683e 0fbc adbd 645f 86bc
00000390: f28d 1ebe 36c2 b73d efda 743d 75b1 a5be
000003a0: 378f 2fbf f032 4b3e 4979 c9bd 291b 3b3f
000003b0: 53ba 7e3e adf9 ff3e 98c6 89bf 13b6 943e
000003c0: 58b9 b83d 96d0 8c3f 43e3 183f 5b13 9e3e
000003d0: cc31 dabd 1294 f43b 418b 333e 63d0 383e
000003e0: 700c 07bf 872f 65bf ceb5 00be 752b fdbd
000003f0: ffbc 13be dbd7 cdbe 26ae 37be 2728 86bd
0.17238759 0.30411476 0.06651237 0.4579171 -0.17022806 -0.23011246 0.15535018 0.41090918
-0.7835633 -0.093969 0.243196 0.3138351 0.62163556 0.7879688 -0.321481 -0.3650768
0.81360716 0.024140194 -0.13479365 -0.0062000793 0.091581985 0.18691711 0.18164015 0.3880652
-0.688819 0.42308342 0.42880198 0.62375534 0.4476141 -0.0034863062 -0.3359671 0.10968292
0.43789414 -0.75082886 1.9192945 -0.07304318 0.002277379 0.36028108 0.27968237 -0.6728045
-0.043532573 0.09661387 0.10428209 0.5493111 0.15142971 -0.034590468 -0.23278815 -0.027637972
0.055146847 0.116406545 0.3062913 0.27323642 2.0798 -0.02174581 -0.1444356 -0.2742952
-0.2381657 -0.34443566 0.09102991 -0.081967145 -0.5604215 -0.45369932 0.13890289 -0.29001692
-0.2828029 -0.4579406 -0.11193372 0.46272984 0.4916473 0.036056064 1.4786 0.17013097
0.006636361 -0.028129201 0.05370298 -0.05994228 -0.61757463 -0.54155785 0.16734625 0.16495883
-0.18947686 0.44446406 0.23534667 -0.03964836 0.38199335 0.5968381 -0.21994638 0.08061234
-0.5093667 -0.11164565 0.0593686 -0.050366003 -0.6470637 -0.053345226 -0.34341186 -0.2966702
-0.11817462 0.022445802 0.20890868 -0.5717729 -0.09641682 0.13813171 0.8280229 -0.22673362
0.29568046 0.28150547 -0.030356387 0.0009523808 0.14848687 -0.007414501 -0.1914216 0.25887603
0.34156924 -0.22837488 -0.30044064 -0.13075636 0.020350957 -0.3387042 0.28474432 0.10548333
0.2344338 0.69661283 0.14521597 0.46556106 -0.13557173 0.08763913 0.24046105 0.032398045
-0.622249 -0.7936534 0.40418923 -0.30460045 0.39851195 -0.08313921 0.018451393 -0.5258494
0.06675791 0.031415477 0.3351841 -0.12412666 -0.23537044 0.2721094 -1.562155 0.08278274
-0.4219567 0.14164193 0.018006988 0.72625196 -1.087836 0.45645595 -0.3336432 0.25806668
0.44898468 -0.40122294 -0.61935884 -0.25145248 0.63208336 -0.23947556 -0.4939743 -0.21179864
0.57008183 -0.01919895 -0.18269859 -0.18002245 0.9377912 -0.28596938 -0.46189317 -0.30337262
0.03849157 0.21409723 -0.9172137 -0.5387057 0.021392409 -0.34331688 0.5389987 0.26814887
0.061722092 -0.528258 -0.40407348 0.19559345 -0.26908094 -0.3571193 0.796173 -0.2502599
0.797164 0.2025377 0.08859914 -0.87732285 0.33048636 -0.37101647 -0.19026162 0.7788026
0.14390452 0.032333557 0.17996582 0.22062968 -0.46367523 -0.017933419 -0.20356569 -0.3913374
-0.019920692 0.24813974 0.85568154 -0.009336052 -0.46248037 0.0900061 0.3607772 -0.547577
0.64417714 0.59279794 0.11341715 -0.28124475 -0.52134615 -0.7481962 -0.26897228 0.11851489
0.08477401 -0.06551528 -0.030782612 -0.1589832 0.11823769 0.2254682 0.2245572 0.021565206
0.0021727416 0.22729687 -0.08483135 -0.016402908 -0.15483835 0.0897259 0.059779104 -0.3236195
-0.68577904 0.1984365 -0.098375864 0.7308832 0.24875765 0.49995175 -1.0763731 0.29045162
0.090197265 1.1001155 0.59721774 0.30874142 -0.10654029 0.0074639404 0.1753359 0.18048243
-0.52753353 -0.89525646 -0.12569353 -0.123618044 -0.14427565 -0.40203747 -0.17937526 -0.06550627

features_extractor.network.0.bias f4 [64]
00000000: 8073 aa3d d45e 873d 90cd b83c 14cf 6e3e
00000010: b0b4 53bd 2bc7 963e b1dc d73e 244a 48be
00000020: c187 023f dee9 673e 9ded be3e 94d8 3d3e
00000030: 082f e73e 5770 8f3e 9014 e63d e56b ac3e
00000040: 3cbc 5e3d c71a c33d 9f03 5f3e e086 d23c
00000050: 6001 d83e 3694 593e b338 b13e 9705 94be
00000060: bf82 f23d bd2c 813e 6acd bc3e 0315 4a3e
00000070: 5a2d 733e b88a 8e3e 1c4c 9b3e 95a1 b33e
00000080: 05ee 653d 6626 af3d 0bd9 5e3e c614 0b3e
00000090: ce3f 5ebd 9093 9d3e ee0d fd3d 55ca 493c
000000a0: 8f2d 873e 44ce 573d 75ff b83e e8d6 253e
000000b0: 3271 a13d 94e8 2bbe 6cd5 f33d 18d8 3a3e
000000c0: b922 863e d0cc 873d 30c3 fc3e ff95 313e
000000d0: 98a1 0f3e dc86 8cbe 35a6 663d 02af dd3e
000000e0: 237f c13e 80d1 af3d 6f9d ed3b 677a 833e
000000f0: bde0 9a3e 3ad7 343e 5008 123e 7488 053e
0.08322811 0.06609884 0.022558957 0.23321182 -0.05168599 0.29448828 0.42160562 -0.19559532
0.50988394 0.22647807 0.3729066 0.18539649 0.4515307 0.28015396 0.11234391 0.33676067
0.054378733 0.09526592 0.21778725 0.025699079 0.4218855 0.21247944 0.3461357 -0.28910515
0.11841344 0.25229445 0.36875468 0.19734578 0.23747769 0.2784021 0.30331504 0.35084215
0.056135196 0.08552246 0.21762483 0.13582143 -0.054260068 0.30776644 0.123561725 0.012316306
0.26401946 0.052686945 0.36132398 0.16195261 0.078829184 -0.1678794 0.11905941 0.18246496
0.26198366 0.06630862 0.49367666 0.17342375 0.14026487 -0.2744664 0.05631085 0.43297583
0.3779231 0.08584881 0.0072514336 0.25679323 0.30249587 0.17660227 0.14260983 0.13040334

features_extractor.network.2.weight f4 [128, 64]
00000000: e3fa adbd a5f1 a23d 60ad 14bf d3c6 4b3d
00000010: 49e8 f03d 7f06 1fbe 130d ec3c 84a6 273f
00000020: 9cc1 113f 93f8 873e c0b5 77be 8fba dcbe
00000030: 7a98 0e3c 891e c8bd 3014 b13e c845 56be
00000040: a005 113f eb3a dc3e bbf5 043d 0225 b43e
00000050: b7dd b3be 03a3 ac3e 777b 903d 7abf 4c3e
00000060: b520 cebe 6b9d 53bd 6acd 053e 2f95 5ebd
00000070: 2f69 2dbe 2c8a df3d 6e98 a3be 4f54 a9bc
00000080: cf67 3dbe 4fae 55be b086 7abe 7993 3abf
00000090: 48f9 28be ca79 0dbf 7dd8 3ebe 04f5 db3d
000000a0: 35ee 243e 19c4 61be 1b5b fabd 259d c13d
000000b0: 59d9 1dbf fff4 2e3e 66d2 ee3e df2a e03e
000000c0: c485 b6be 0e4a 0b3f 5e6d 0fbe 7af6 a53e
000000d0: 2278 9f3d 3ded 91be 81be 893e c7d7 0abe
000000e0: 77a4 3c3c f160 013f 8c98 2fbe 8456 e73e
000000f0: fb8d d4be cbc1 1d3f f37e fb3e 609c c73d
00000100: c29d e63d a501 39be e089 343c 4113 363e
00000110: de07 2b3e 9e29 d7bd 863b b6be b716 033f
00000120: d639 aa3d d6a8 423f 6e86 86bd e4fe 8bbc
00000130: b9c5 25bf 5863 b73d 14d4 2e3f ebdd b73e
00000140: 4547 cf3d 2312 a7bd 1bf1 1abe 5a8a a43e
00000150: dd9d fa3e 1379 15bf 7e12 fcbe a662 77bf
00000160: 7600 a3bc 4ef5 703b 1e43 a2bd 814d 8f3d
00000170: 986f 1cbd 42a9 67be db25 953e 5259 503e
00000180: 9ccd 4b3d ebd2 f53d 3d5b ce3d b713 783c
00000190: 7bf7 f23e 367b 0b3f 68eb a0bd 98ff 293f
000001a0: 1b5d ef3e 5d50 813d 719e e63e db62 81be
000001b0: 8e9b 2c3f f541 78bd 0e3e 0bbe 8902 ca3e
000001c0: 9fbe 9e3d e97e 50be e81a b6be bf15 5f3e
000001d0: 5a0d 903e f8f0 9d3e cc1e 023e 80eb abbf
000001e0: 81f2 93be 0fb8 423e ed21 113e 86cd 203f
000001f0: a109 e93e 1b07 a73e 2425 043f efd9 1f3e
00000200: 3a1b 6b3d 9a1d 8ebe e6e6 1fbf 220f 6fbe
00000210: edaf 3dbe a38d bc3e 4692 c43d 6748 f6be
00000220: 323e 28be 5b90 46be b3b3 cf3e dc3c 4b3e
00000230: 8355 5fbe 1de2 02bf 3d10 0c3e 6282 953d
00000240: 9fe7 41bd 2545 87be 0a4c 47be c157 06bf
00000250: 01af dd3e 394e 583e e727 1c3e c851 c73c
00000260: e77b 0c3b b07f b43e 98c8 163d 0ac4 973c
00000270: 5e0d d23d 07ef 1cbf 2126 803e fa2e 82bd
00000280: a545 f63d b212 39be 071d a73e fbd7 9c3e
00000290: f336 923e cf42 05bd a5c5 92bd 91b1 bcbe
000002a0: 9833 96be 4039 ed3d 7fd9 9ebe 9af7 c03d
000002b0: 39a8 74be 63ef cd3e 37ff ffbe 1ca0 133d
000002c0: 2b42 a33e f009 fabd d8b7 2e3f fde5 093f
000002d0: 2d7d 3b3e 9d1b 883e 9fa2 e0be 85c8 1f3f
000002e0: d16f 2bbf 342a d2bd 8214 a73e f4e3 8abe
000002f0: ca4c e03e c73b 91be d8d8 c3bd a5a8 ccbd
00000300: 2e35 02bd d132 903e 403d 84be 1579 1fbe
00000310: 913e 89be 4056 7b3d ec22 a13d 41d8 3c3e
00000320: caa1 1a3e 6e9e 91bd 08ad b6bf a309 67be
00000330: 9e77 073e 4256 2dbe 73ea 793d e1da d4bc
00000340: e535 b83d a638 75bf cf37 cebd cdda 48bf
00000350: 2c39 0cbe aacd 15be e5ef ce3e ae86 c0be
00000360: 5754 973e 61a6 dfbd e562 07bd ffa0 0cbf
00000370: 413c 103d cebf 62be 5a6c 38be 0583 da3d
00000380: 25a9 933e 6f55 88bd d823 013a 7980 bdbe
00000390: efdf 173b ee25 04be 8d71 83bf 180a 083e
000003a0: ac30 6abe d88b 84be 8e23 313c f863 4dbd
000003b0: 8f0e 923d 5235 2fbe b92a 36bf a2d1 17bf
000003c0: d1e5 a6be f73e 2fbe dbce d4be d8c9 9f3e
000003d0: 117b ac3d 4688 f6bc 0d8a 2abe 3241 f93d
000003e0: 0097 5bbf b480 93bf ee7b f6be 4c23 213e
000003f0: 82f5 60be d30e 83bd 5e03 0a3e 50b0 e63e
-0.084951185 0.07956246 -0.5807705 0.04975016 0.11763055 -0.15529822 0.028814828 0.6548846
0.5693605 0.26556835 -0.24190426 -0.43111083 0.008703345 -0.09771449 0.34585714 -0.20925057
0.5664921 0.430137 0.03246091 0.35184485 -0.35130093 0.33718118 0.07054799 0.19994918
-0.40259328 -0.051663797 0.1306664 -0.05434149 -0.16934656 0.10915026 -0.31952232 -0.020670084
-0.18496631 -0.20867275 -0.24465442 -0.72881275 -0.16501343 -0.5526396 -0.18637271 0.107400924
0.16106494 -0.22047462 -0.12224408 0.09453801 -0.6165977 0.17085646 0.46644896 0.43782708
-0.3564893 0.54409873 -0.14006564 0.3241461 0.077865854 -0.2850131 0.26903155 -0.13558875
0.011513821 0.50538546 -0.17148036 0.45183194 -0.41514573 0.6162383 0.49120292 0.09746623
0.11260559 -0.18067034 0.0110192 0.17780782 0.1670222 -0.10505985 -0.35592288 0.51206535
0.083118126 0.76038873 -0.06568609 -0.017089315 -0.64754826 0.08954495 0.68292356 0.35911497
0.101210155 -0.08157756 -0.15131037 0.32136804 0.48948565 -0.5838787 -0.49232858 -0.966349
-0.01989768 0.0036767307 -0.07922958 0.069972046 -0.03819236 -0.2262316 0.29130444 0.20346573
0.04975663 0.1200312 0.10075996 0.015141419 0.47454438 0.5448488 -0.078574 0.6640563
0.4675072 0.06314156 0.45042756 -0.25270733 0.6742486 -0.060609777 -0.1359789 0.3945506
0.07751202 -0.20360912 -0.35567403 0.21785639 0.28135186 0.30847907 0.1270706 -1.3431244
-0.28895953 0.19015525 0.14173098 0.62813604 0.4551516 0.3262261 0.5161917 0.15610479
0.057399012 -0.2775696 -0.624617 -0.23345616 -0.18524142 0.3682681 0.09598212 -0.48102114
-0.16429976 -0.19391005 0.40566787 0.19847435 -0.21809964 -0.5112627 0.1367807 0.07300259
-0.04734003 -0.2641994 -0.194626 -0.5247765 0.4329758 0.2112359 0.15249597 0.024330989
0.0021436156 0.35253668 0.036812395 0.018526096 0.10256456 -0.61302227 0.2502909 -0.06356616
0.120250024 -0.18073538 0.32639334 0.3063353 0.28557548 -0.032534417 -0.07166604 -0.36854222
-0.29336238 0.11583185 -0.3102531 0.09422226 -0.23892297 0.402217 -0.499994 0.036041364
0.3188642 -0.12208927 0.68249273 0.5386656 0.1830947 0.26583567 -0.4387407 0.62415344
-0.66967493 -0.10261956 0.32632834 -0.2712704 0.43808585 -0.2836592 -0.09562844 -0.09993104
-0.031788997 0.2816377 -0.2582798 -0.15573533 -0.26805547 0.06136155 0.07867989 0.1844187
0.1510078 -0.07110296 -1.4271555 -0.2256227 0.13229224 -0.16927436 0.061014604 -0.025983276
0.089946546 -0.95789564 -0.100692384 -0.78458863 -0.13693684 -0.14629236 0.404174 -0.37602752
0.29556534 -0.10920406 -0.033053298 -0.5493316 0.035213713 -0.2214348 -0.18010083 0.10669521
0.28839985 -0.0665692 0.00049263006 -0.3701208 0.0023174246 -0.12905094 -1.0269028 0.132851
-0.2287013 -0.25887942 0.0108117 -0.050144166 0.07131683 -0.17110184 -0.7115894 -0.5930425
-0.3259721 -0.17113863 -0.41564068 0.31208682 0.084219106 -0.030094277 -0.16654225 0.12170638
-0.8577728 -1.1523652 -0.48141426 0.15736121 -0.21968654 -0.06399312 0.13477847 0.4505639

features_extractor.network.2.bias f4 [128]
00000000: 02aa 68be f6f8 e7be a891 a73e 351f 0bbe
00000010: e5de 8cbd 678e 3d3e fddc c63e 5c6f c3bd
00000020: 52b2 863e 1dc5 cb3d 2fe3 e33e 1759 96bd
00000030: d95f 413e 85b1 7abd e8de c73e 1bac 4ebe
00000040: 0f50 8cbd d436 d3bd e8d2 67bc e014 863e
00000050: 43a1 0b3d 3d89 ae3d 1cd0 d23e 2e24 0b3d
00000060: 0e9f ca3d f3b9 ec3d d99f f03e 93f6 ed3c
00000070: 73df 5b3e 3b1c 163e b430 e13e 61fe fe3d
00000080: 357a abbd 67a6 383e 6ee2 b2bd 3d2f 273e
00000090: 1e12 993e 756c 1fbd aff4 423e 3ee2 b93e
000000a0: 37ee e93d 1672 863e 2a71 3cbd 1397 013f
000000b0: 6576 3d3e dcc1 3c3e 935a a43e d318 bcbd
000000c0: 1e60 803d feed 24be d92e 693e 2ead ddbc
000000d0: 67a7 d0bd 3f5f 0a3d 9a73 d9bc 8fe1 45be
000000e0: b9ef 873d 8f50 263f 670b 903e 34b3 bb3e
000000f0: 9623 c53d 7eae 523d abc0 563e f36c 933e
00000100: 4743 28bd 8f38 013e 6fa3 b83e b851 04be
00000110: ef7c 3fbe 2d73 423e 759d d4bd 9525 dabd
00000120: 7e6f 8b3d 7cf8 1bbd 5c01 263f be26 a93d
00000130: 2670 dc3c be3c a03d cbbe 1e3e 55db c53c
00000140: 516f 7b3e 649f bebd 53d3 cd3d 907b 963d
00000150: da43 ba3e 7b92 9d3e 280a a5bd 09e3 873e
00000160: d844 a73e 5204 a33e 2fe2 1d3e eb1e e13e
00000170: 5b1a 883b 13ae 6abe e53f 993d 7eb9 2bbe
00000180: 24e1 ea3e b30a 63bd 138d 55bd c3a1 d13e
00000190: ba3e afbd 5c4f ca3d 9341 ddbe d448 1f3e
000001a0: 37c2 273e e012 f8bd c31d 703e e398 493e
000001b0: 54bf 1a3e 68bf a0bd 5a2b f53d 6f66 773e
000001c0: ebc1 b8bd 9e86 883e 6697 373e 5ed7 a23e
000001d0: d2e6 88bc 2e94 6ebd 4ea6 be3c 6b6f 8e3e
000001e0: bafb cc3d 7ab4 0abe 7239 ad3e 892a 9b3e
000001f0: 866c 0dbc 69a2 1d3f 30d0 863e 8790 013f
-0.22721103 -0.4530713 0.32728314 -0.13586123 -0.06878451 0.18511353 0.38840476 -0.095427245
0.26307923 0.09949706 0.44509265 -0.07341211 0.18884219 -0.061204452 0.3903725 -0.2018284
-0.068512075 -0.10313192 -0.014149405 0.261878 0.034089338 0.0852227 0.411744 0.03397005
0.098936185 0.115589045 0.46996954 0.02904824 0.21471958 0.14659207 0.4398247 0.12450863
-0.083729185 0.18032227 -0.08734594 0.16326614 0.29896635 -0.038921792 0.19038652 0.36305422
0.11422389 0.26258916 -0.04600636 0.50621146 0.18502195 0.18433326 0.32100353 -0.09184422
0.06268333 -0.16106412 0.22771777 -0.027060118 -0.101881795 0.03378224 -0.026544381 -0.19324325
0.0663752 0.6496667 0.281337 0.3666016 0.09625928 0.05143594 0.20971934 0.2879406
-0.041079786 0.12619232 0.3606219 -0.12921798 -0.18700002 0.18989249 -0.10381595 -0.106516995
0.06808375 -0.03807877 0.64845824 0.082593426 0.026908945 0.07824086 0.15502469 0.024152437
0.24554183 -0.09307745 0.100500725 0.073477864 0.36379892 0.30775818 -0.08058578 0.26540402
0.3266971 0.31839234 0.15418313 0.439689 0.0041535324 -0.22917967 0.0748289 -0.16769978
0.45874894 -0.055430125 -0.052136492 0.40943727 -0.08556886 0.09878418 -0.43214092 0.15555125
0.16382681 -0.12112975 0.23448853 0.19687228 0.15112048 -0.07849008 0.11971159 0.24160169
-0.09021362 0.26665205 0.17928848 0.31804937 -0.016711626 -0.058246784 0.02327266 0.2781938
0.100089505 -0.13545409 0.3383289 0.3030589 -0.008631831 0.61575943 0.2633071 0.50611156

features_extractor.network.4.weight f4 [64, 128]
00000000: 28c6 76bd fda8 07bf b147 393f 1321 a13e
00000010: 48b2 eebd a6ac a13d 2b13 b13e bf69 24bf
00000020: 67e4 973f ae35 953e 571c 57be c830 19bf
00000030: 753d 1b3b 9f62 a23e dc17 68bf 97b2 ecbc
00000040: ce6e 803e 1c82 90be 93f9 c93d d2ce 62be
00000050: c97d 163f 097e 393d cf9c 3bbd ace5 f53d
00000060: 13a8 913d 7195 70be 2f83 903e 0d51 70bf
00000070: f8b0 57bf 972e e93e cff9 5cbe 1a41 34bf
00000080: e21c acbe d261 df3b 08de b53e d1e5 623c
00000090: cf01 65bf d6d0 aa3e 46fd d3be e2bd 463e
000000a0: ab99 bebe 4ab6 b8be e559 0abf 6fbf ee3d
000000b0: ddb1 3fbe d028 a73e 244d aa3e 75d3 cdbe
000000c0: b8bc 873e e3ad 23be 7041 bdbe 54bc 083f
000000d0: 60c7 20be d2ff 36bf a1be a9bd f32f 0abf
000000e0: c7ff 3c3e 0208 3d3e 65bd 993f 69cf 083d
000000f0: d1a6 7ebf 5d36 123c c445 f93e ede2 7dbf
00000100: 70a4 6d3f 68bd 24bf 369f e13e 4963 68bf
00000110: a8fd b9be 512f 933d 4507 acbe e808 e5be
00000120: 0401 debd cae2 323f 2617 f1be b4c1 053f
00000130: 4719 263f 397d 113e a492 ad3e 66f4 8dbe
00000140: ae31 a2be 194b 703e 79f0 0dbf 8e4e 6f3d
00000150: 3141 3ebe d2cd 363e 8dd3 adbf 0af2 603e
00000160: 4ad4 8d3e a13e 763e 42b6 813e bdfe a93d
00000170: befc 6dbf 46b0 29be d3f8 c5be 9e24 1d3f
00000180: 3046 81be d851 0cbf 451e 753e f3be c8bd
00000190: e937 e4bd 3f5a 89bd 4cbd 253d 6520 71bf
000001a0: 4c82 293f ab76 ecbe 9fef a53d ba5d 18bd
000001b0: 3aac 57bf 05e8 26bf 4d28 833e 0896 523f
000001c0: 0bb7 71be dc5f 0b3e adb0 7fbf bf47 c3bd
000001d0: 100a 093d 0b33 0d3e 3fe2 e8bf c10a 873e
000001e0: 718c 8f3e e4ce 41bf c0d3 f43e 9390 573f
000001f0: 2201 e13e 9190 81be 9682 393f 2917 88be
00000200: 0650 013f 7c81 bebd f0e1 813e 63aa 0ebf
00000210: b956 21be 326d 97be 49a1 ae3d 119d 553e
00000220: 8c2e 5e3d 0119 12bf cd4c cbbe 81a9 a93e
00000230: e684 f5bd 61c5 24be 3d09 be3e a37b abbd
00000240: 7201 07bf 3e2f d1be ffb0 153d 8d93 01be
00000250: ab4f 37be ce71 b1be ca63 293e 4966 41bf
00000260: 2ee0 a83e d62f 523e 079b 13be c34e 853e
00000270: b6c3 5a3d 2085 52bf 2a05 3b3e cbe8 a8be
00000280: d861 103d 6100 4fbe 761f 52be f523 33be
00000290: 6720 63bf 80ea e73d 7bb1 26be bf22 913d
000002a0: 560e 4c3e 008b 06be 40e9 61be 1907 50bd
000002b0: 5886 17bf 923b bdbe 4bd6 ebbe 1662 d3be
000002c0: a538 6bbe d3b9 36be 6932 07be a87d 28bf
000002d0: 3d8a 253e 5393 983e ca6d 9abe 22e1 0fbf
000002e0: a016 1cbf 4dbb ccbe 8d58 15bf 862c 10be
000002f0: db93 8bbe 6633 d93c 32a6 67bc e5c2 3c3e
00000300: b8f3 563e 6bc8 7d3d 3df7 a13e 253a 81bd
00000310: 3333 cb3e 6cfd 793e 92b3 323f 148e 67bd
00000320: 5174 95be b1e8 93be 9673 843e 11a2 2a3f
00000330: 179c 823c 518a e8be b6dc debe 055d a4be
00000340: f688 e5bd d8d8 483e a052 983e 07cf 823e
00000350: 4a49 14bf b075 11bf 96c2 3cbe e4c8 b03e
00000360: 925d 80be a6ab cf3b 9683 893e 1621 113e
00000370: b000 b33d cfde 94be 4a84 5bbe bbbf 45bc
00000380: f19c 1ebe 1ee4 05bf 2af7 92bc b09b 12bf
00000390: 32e9 963d b383 1fbe 20c7 a93d 7683 d03c
000003a0: 7223 a0bd 56a8 063f e1af 6abe c90f 5a3d
000003b0: b842 723e a9e2 90bd 9a57 e33b c362 d0be
000003c0: 1a6f 843c 2d2a c53e c6c7 adbe 524d c5bb
000003d0: 650a 9a3d 94e5 133e b50c fdbe 2bd3 61be
000003e0: 06fd 6a3e 72c2 80bd f29f 82be 31a1 c53e
000003f0: d42e 67be 3445 d93e 092d a9bd 8240 273d
-0.06024757 -0.5299223 0.7237502 0.31470546 -0.11655098 0.07894258 0.34584936 -0.64223856
1.1866578 0.29142517 -0.21006905 -0.5984006 0.0023687754 0.31715867 -0.90661407 -0.028893752
0.25084537 -0.28224266 0.09862056 -0.22149208 0.5878568 0.045286212 -0.04580384 0.12006697
0.07112136 -0.23494507 0.28225085 -0.93873674 -0.8425441 0.45543358 -0.2157967 -0.7041184
-0.33615786 0.006817081 0.3552096 0.013848738 -0.89455885 0.33362454 -0.4140417 0.19408372
-0.37226614 -0.36076576 -0.5404342 0.11657607 -0.18720193 0.32648325 0.3326198 -0.4020039
0.26511168 -0.15984301 -0.36963987 0.53412366 -0.15701056 -0.714841 -0.08288313 -0.53979415
0.18456946 0.18460086 1.2010924 0.033400927 -0.9947329 0.008924094 0.4868604 -0.99174386
0.92829037 -0.6435151 0.4406678 -0.907765 -0.36326337 0.07186759 -0.33599296 -0.44733357
-0.108400375 0.698773 -0.47087973 0.5224869 0.6488232 0.14207925 0.3390094 -0.27725524
-0.31678528 0.23466147 -0.5544506 0.058424525 -0.18579556 0.17851952 -1.3580185 0.2196733
0.27701026 0.24047329 0.25334364 0.083005406 -0.9296378 -0.16571149 -0.386664 0.61384
-0.2524886 -0.54812384 0.23937328 -0.09802046 -0.111434765 -0.06706666 0.04046373 -0.94190055
0.6621444 -0.46184286 0.08102345 -0.03719876 -0.8424717 -0.65197784 0.25616685 0.8226018
-0.23604982 0.13610786 -0.9987896 -0.09535169 0.033456862 0.13789003 -1.8194045 0.26375392
0.28036836 -0.75706315 0.47817802 0.8420498 0.43946177 -0.25305608 0.72464883 -0.2658017
0.5051273 -0.09302041 0.2536769 -0.5572874 -0.15755738 -0.29575497 0.085268565 0.20860697
0.05424361 -0.570694 -0.39707032 0.33137134 -0.11988239 -0.16090919 0.37116423 -0.08373191
-0.5273658 -0.40856355 0.03654575 -0.12653942 -0.17901485 -0.3465714 0.16541973 -0.755467
0.32983536 0.2052606 -0.14414607 0.26036653 0.0534093 -0.8223438 0.18263689 -0.32990107
0.03524956 -0.20214988 -0.20519814 -0.17494185 -0.8872132 0.11324024 -0.16278641 0.070867054
0.19927344 -0.13138962 -0.22061634 -0.05078802 -0.5918937 -0.3695951 -0.4606193 -0.4128577
-0.22970827 -0.17844324 -0.13202824 -0.65816736 0.16166015 0.297999 -0.30161887 -0.562029
-0.60972023 -0.3998665 -0.5833824 -0.14079484 -0.27261242 0.026513766 -0.014138745 0.18433721
0.20991409 0.06195871 0.3163394 -0.06309918 0.396875 0.24413079 0.6980525 -0.05653198
-0.29190305 -0.28888467 0.25869435 0.66653544 0.01594357 -0.45418027 -0.43527764 -0.32102218
-0.11207764 0.1961397 0.29750538 0.25548574 -0.5792433 -0.568202 -0.18433604 0.34528267
-0.25071388 0.0063376008 0.26858205 0.14172778 0.087403655 -0.2907624 -0.21437183 -0.012069638
-0.15489556 -0.52301204 -0.017940123 -0.5726881 0.07368697 -0.15577583 0.08289933 0.02545331
-0.07819261 0.5260061 -0.22918655 0.05323771 0.23658264 -0.07074482 0.006937933 -0.4070035
0.016166259 0.3850874 -0.33941478 -0.00602118 0.07521514 0.14443046 -0.49423757 -0.2205321
0.22948083 -0.062870875 -0.25512654 0.38599542 -0.22576457 0.4243561 -0.08260543 0.040833004

features_extractor.network.4.bias f4 [64]
00000000: 40aa 9b3e 101e f4bb bf68 c43d 4829 70bd
00000010: 9194 593c 66f3 cd3c fc81 8fbd 968a 87bc
00000020: 22fc 943e 221f a0bd 1591 d43d a4ef 953e
00000030: 4f72 10be 593e 143e 6f85 f83d 6cb7 363d
00000040: 4276 fa3d 1fb7 813d 95e8 13bd ce36 a33d
00000050: a944 863e bb42 853c baa7 2b3f 86f8 ee3c
00000060: b6f6 db3d b3ce cfbd 76c6 a4bd 8960 813e
00000070: 68fc 10be cca4 10be 2671 b7bd c8bd cbbd
00000080: dce0 ecbd 407b 2b3d 19e9 3ebc e19c 6cbd
00000090: fa95 cdbc dd5d ab3e 3afc 013b 4334 923e
000000a0: ac84 14be 5f69 d4be 6c53 9f3e f441 6c3e
000000b0: b31b d1bc 8490 833d 4850 39bd e9a0 22be
000000c0: 7486 69bd a5d2 6e3c 0a26 963e 8587 253e
000000d0: a543 3ebd cf90 db3d 706f 6e3c e60c 6ebc
000000e0: 9644 3c3d d5f5 fdbc c3ad d1bd f9e9 0dbe
000000f0: e84a fabd 6744 643d f778 f03c d102 fbbc
0.30403328 -0.007449873 0.09590291 -0.05863312 0.01328005 0.025140475 -0.070072144 -0.016545575
0.29098612 -0.07818438 0.10379235 0.29284394 -0.14106105 0.14476909 0.121348254 0.04460852
0.12229587 0.06333756 -0.03611048 0.079694375 0.2622426 0.016267171 0.67052805 0.02917124
0.10740416 -0.101468466 -0.08045666 0.25268963 -0.14158785 -0.14125365 -0.08957128 -0.09948307
-0.11566326 0.041865587 -0.0116522545 -0.0577668 -0.025095928 0.3347005 0.0019834177 0.28555498
-0.14503735 -0.41486642 0.31118333 0.23072034 -0.025525903 0.064240485 -0.045242578 -0.15881695
-0.05701299 0.014576589 0.29325897 0.16164978 -0.04645123 0.107209794 0.014552936 -0.014529442
0.045963846 -0.03100101 -0.102382205 -0.13858785 -0.122213185 0.055729296 0.029354556 -0.030640991

features_extractor.network.6.weight f4 [32, 64]
00000000: 3afc d93e 0882 b1be d5d9 4f3e 8eab 423d
00000010: c1ee 38bd 5bd2 1cbf e190 54be b0b4 943e
00000020: c459 033f a7f9 493e 14bd 06be 3302 3e3f
00000030: 6529 883e 0f30 b03e bbf1 0f3d 7068 fd3e
00000040: c072 593e a939 eb3c 3e7f dfbe 7c16 e5be
00000050: 8f98 8b3e 28fb 5d3e 65e0 f13e dc5c 0bbe
00000060: e1d3 dfbd 1814 0bbf f99a 283f b54c d9be
00000070: 4dc3 24bc 39bc 7c3d 32f1 94be cb13 bc3e
00000080: 9f15 bd3e 1fdd d43c 7f43 2cbe 6dee 58be
00000090: f171 713e 1478 88be 679c ebbc eb3d 51bc
000000a0: eb71 2f3e 22ac 64bf 5ba3 adbd 4948 8b3e
000000b0: b678 bb3e 4ff7 5bbf 147c 5cbe f1d7 b43e
000000c0: 21a5 89be d100 d1bd fab2 b73e ecfe fd3d
000000d0: 4e64 403f be82 8ebe 595e 04be 00f3 34bd
000000e0: daae 49bd 7d12 a3be 767f bb3d c7a6 033f
000000f0: 8592 083f 9ca6 143e 8987 abbe fb29 cebe
00000100: 6b6b 92bc 563a 293e 5026 2cbe 243d 043e
00000110: fac0 5fbe 75b8 303d ad2a 103c 6342 a73e
00000120: f9e1 0cbf 9aac 68bd d961 afbe 8bdd 86bd
00000130: abc2 8cbe 9693 04be 208e c53c 487d b83c
00000140: 01d4 cdbe a42a 63be 58b2 17bd bc19 07bf
00000150: 1ea1 293e d63c e3bc b77e 3cbe 779e f0be
00000160: e059 cdbc f689 043e 0153 c3bd d582 ca3d
00000170: 3e1a b23d 3250 47bd 2189 563d c457 0d3f
00000180: c056 44bd a582 1ebd 0e2b 043e dad6 48bc
00000190: 106a 0a3e 81ea 2a3e 55da 14bf a306 933e
000001a0: 9e95 54be 03a2 0b3e 6f84 68be 5a19 20bf
000001b0: 0e49 29be 14be cbbe 68bd 093e 815f 1abf
000001c0: fa9d 2abe f241 263d 7b5e f83d accb c5be
000001d0: 868c 833e 2f49 0fbd 173d 0dbe 353f dabe
000001e0: 4fe5 eabd c82f a13d 25ea 7bbd d6d7 46be
000001f0: ab44 013e 11ac b0bf 46a5 023f 7b39 733e
00000200: f359 823e 657e 28bf 971b 4a3d c570 cebe
00000210: 47b7 833f 2648 1bbf 58d6 36be e266 b2be
00000220: 3dec 5e3f 0bad ecbe 7745 293f 32d3 32be
00000230: ec47 c3bd 7362 7fbf 9c17 d43e c0b1 083f
00000240: 0ead b1be 4c7e 18bf 2666 0fbf cb61 66bd
00000250: 59a4 f3be 130b 133f bd9e 22bf 37ed 173f
00000260: b3e4 513f da95 c03c ddf5 d53e a372 e1be
00000270: 53b4 f0be 1bfc 983e f756 cabe 3c73 633e
00000280: 29ee ee3e 242e fe3e 3c8c 7c3f 97b3 e8bd
00000290: 9da4 d53d 19ac 9cbc 2c09 1b3f 0b56 3f3d
000002a0: 46ac 663f 5704 593f 8bd7 11bd 5ff0 86be
000002b0: 1905 893f fae8 a2be 83e1 b1bc db77 1fbe
000002c0: 2e3a c63e 0414 18bf 219d 4ebe dd4f c2be
000002d0: 267f eabe 413a dc3e 1742 24bf 8e57 ba3c
000002e0: 2826 d4be e5e0 9fbe 17cd 063f e7f5 f03e
000002f0: 81b1 953e 1639 9fbe cd31 6b3f 05c4 113e
00000300: cd50 50bf 81aa 6ebf 7325 2fbe 8248 fabe
00000310: 9acc 193f 8b83 0abf 1231 70be bd98 16be
00000320: 3b69 26be 4998 04bf 8e87 1e3e 15de 813c
00000330: 0c85 04bc ba59 61be e176 d0be 935c a7be
00000340: 9017 9abe 892e 1fbf 3da1 0fbf c147 0c3f
00000350: 683b e3be 8852 b53e 8848 80be 4958 df3e
00000360: c171 313e 5964 883e bb5d be3e 4eb4 24bc
00000370: 9429 d8bb 89bd ec3e abb4 12bf b98b 643c
00000380: 6f17 553c 5556 263f a61f 0b3f f735 13bf
00000390: 40c0 f93e b1a6 24bf 9825 99be 659d 53bd
000003a0: 7135 a73e f024 173f 0549 cd3b f0ed 22be
000003b0: 4f1f 6a3f e38c 65be 01ce 23bf 949e 04bd
000003c0: 1b26 f33e 07cc dabd f982 8dbe 3278 b33e
000003d0: f27f 3bbf bc13 233f 5c6b e3be ec81 053e
000003e0: 847f 0ebf 4477 e8be ca0a 453f c6bc 3a3e
000003f0: 8223 3a3f a28c 48be 9974 1c3b e1c6 063f
0.42575246 -0.34669518 0.2029794 0.04752689 -0.04514957 -0.61258477 -0.20758392 0.29044104
0.51308846 0.19724141 -0.13158065 0.74222106 0.26594082 0.34411666 0.03514264 0.49493742
0.2123518 0.028714018 -0.43651766 -0.44743717 0.2726483 0.2167784 0.47241512 -0.13609642
-0.109290846 -0.54327536 0.6586147 -0.42441335 -0.010056329 0.06170294 -0.29090267 0.3673385
0.36930558 0.025984345 -0.16822623 -0.21184702 0.23578621 -0.26654112 -0.028761102 -0.01277111
0.171333 -0.89325154 -0.08478423 0.27203587 0.36615533 -0.8592424 -0.21531707 0.35321
-0.26883796 -0.10205234 0.35878736 0.12402138 0.7515305 -0.27834123 -0.12926616 -0.044177055
-0.049239017 -0.31850043 0.091551706 0.5142636 0.5334857 0.14516681 -0.33501843 -0.40266404
-0.017873487 0.1652616 -0.1681149 0.12913948 -0.21850958 0.043144662 0.008799237 0.32667837
-0.55032307 -0.05680523 -0.3425434 -0.06585225 -0.2749227 -0.12946925 0.024115622 0.022520676
-0.4020081 -0.22184235 -0.037035316 -0.5277364 0.16565368 -0.02773897 -0.18407713 -0.469959
-0.02506727 0.12943253 -0.09537316 0.098882355 0.086964116 -0.048660465 0.05237687 0.55212045
-0.047934294 -0.03869881 0.12907049 -0.012258256 0.13517022 0.16691019 -0.5814565 0.28716
-0.207602 0.13636021 -0.2270677 -0.62538683 -0.16531774 -0.39793456 0.13451159 -0.6030198
-0.16661826 0.040590234 0.12127396 -0.38631952 0.25693148 -0.034981903 -0.13792835 -0.42626348
-0.114695184 0.07870442 -0.061502595 -0.19418272 0.12623851 -1.380251 0.5103344 0.23752396
0.2545925 -0.6581786 0.049342718 -0.4032041 1.0290307 -0.60656965 -0.17855203 -0.34844118
0.8707922 -0.4622577 0.6612162 -0.17463377 -0.095352024 -0.99759597 0.41424263 0.53396225
-0.34702343 -0.59567714 -0.5601524 -0.056245606 -0.47586325 0.5743877 -0.63523465 0.59346336
0.8198959 0.023508955 0.4178914 -0.44032773 -0.47012576 0.2987984 -0.39519474 0.22211927
0.46666077 0.49644578 0.9865148 -0.11362379 0.10431788 -0.019125031 0.6056087 0.046712916
0.9010662 0.8477225 -0.03560595 -0.26355264 1.0704681 -0.31818372 -0.021713978 -0.15573065
0.38716263 -0.5940554 -0.20177127 -0.37951556 -0.45800132 0.43013194 -0.64163345 0.022746827
-0.4143536 -0.31226268 0.5265669 0.4706261 0.29236987 -0.3109824 0.91872865 0.14234932
-0.8137329 -0.9322892 -0.1710413 -0.48883444 0.6007782 -0.5410697 -0.23456219 -0.14706703
-0.1625108 -0.5179487 0.15481398 0.015852967 -0.0080883615 -0.22006884 -0.40715697 -0.32687816
-0.30096102 -0.6218038 -0.56105405 0.5479699 -0.4438126 0.3541453 -0.25055337 0.43622044
0.1732855 0.2663906 0.37180886 -0.010052754 -0.0065967534 0.46238354 -0.5730693 0.013949328
0.013006075 0.6497548 0.54345167 -0.5750422 0.48779488 -0.6431685 -0.29911494 -0.051663775
0.3265796 0.5904074 0.006264808 -0.15911078 0.91454023 -0.22417025 -0.6398621 -0.032377794
0.4749001 -0.106834464 -0.27638987 0.3505264 -0.73242104 0.6370199 -0.44417846 0.13037843
-0.55663323 -0.45403492 0.7696959 0.18236074 0.7271043 -0.19584897 0.0023873209 0.52647215

features_extractor.network.6.bias f4 [32]
00000000: 9fa5 b43e b2e4 483e 2bfa c33b 3a9a 5fbe
00000010: e3e8 cbbd 537c 993c 6fe9 3fbe 9e08 463e
00000020: 955d 71bc e7ea c13e 3819 b0bd 076b 36bd
00000030: a27a f23e b039 783e eb19 03bf 08e9 09be
00000040: 8ca8 4c3e ef3e debe d6c9 673e d77b 9539
00000050: b3ec 713d 959e bf3e 5af4 bbbd 07cf ab3d
00000060: ed44 1b3d 9409 60be 4642 9b3d 14b9 c5be
00000070: 0d49 a9bd 6f24 203d dd13 363f 65b2 613e
0.3528261 0.1961849 0.00598075 -0.21836177 -0.09956529 0.01873604 -0.18741392 0.19339225
-0.014731784 0.3787453 -0.0859856 -0.044535663 0.47359186 0.24240756 -0.5121142 -0.134678
0.1998617 -0.4340739 0.22635588 0.00028511763 0.059063625 0.37425676 -0.09177466 0.08389097
0.03790753 -0.21878654 0.07581 -0.38617766 -0.082658865 0.039097246 0.7112406 0.22040708

pi_features_extractor.network.0.weight f4 [64, 18]
00000000: 5f86 303e eeb4 9b3e a337 883d 1c74 ea3e
00000010: 4450 2ebe 9aa2 6bbe 1e14 1f3e b062 d23e
00000020: 9b97 48bf d272 c0bd 5f08 793e ffae a03e
00000030: 8223 1f3f 53b8 493f 2899 a4be 59eb babe
00000040: 8f48 503f a8c1 c53c 5907 0abe 092a cbbb
00000050: 568f bb3d 3367 3f3e e0ff 393e 7bb0 c63e
00000060: 7156 30bf 649e d83e ef8b db3e 6eae 1f3f
00000070: ad2d e53e 837a 64bb e103 acbe 70a1 e03d
00000080: a933 e03e 5236 40bf 71ab f53f aa97 95bd
00000090: 1440 153b c376 b83e 8732 8f3e ea3c 2cbf
000000a0: 364f 32bd 7edd c53d d991 d53d a79f 0c3f
000000b0: 6410 1b3e bcae 0dbd 0460 6ebe 0769 e2bc
000000c0: a9e1 613d 8e66 ee3d 37d2 9c3e a5e5 8b3e
000000d0: 711b 0540 4524 b2bc ede6 13be 6c70 8cbe
000000e0: b6e1 73be df59 b0be e46d ba3d 64de a7bd
000000f0: c977 0fbf 474b e8be 8f3c 0e3e 197d 94be
00000100: 8bcb 90be 3177 eabe 823d e5bd edea ec3e
00000110: 32b9 fb3e 86af 133d c442 bd3f d036 2e3e
00000120: d575 d93b 366f e6bc a8f7 5b3d 0986 75bd
00000130: 5f19 1ebf 89a3 0abf d15c 2b3e f8ea 283e
00000140: 3906 42be cb90 e33e b8fe 703e 5266 22bd
00000150: a294 c33e 62ca 183f a039 61be 1518 a53d
00000160: db65 02bf 79a6 e4bd 7d2c 733d 954c 4ebd
00000170: f7a5 25bf 8680 5abd aed3 afbe 28e5 97be
00000180: 8905 f2bd 42e0 b73c 28ec 553e b55f 12bf
00000190: 2f76 c5bd 6672 0d3e 4ff9 533f dc2c 68be
000001a0: 6e63 973e 7c21 903e f5ad f8bc 32a9 793a
000001b0: f10c 183e 58f5 f2bb 0604 44be 668b 843e
000001c0: 2ae2 ae3e 1bdb 69be 5bd3 99be ffe4 05be
000001d0: 0db7 a63c a36a adbe 02ca 913e a507 d83d
000001e0: 6a0f 703e 3855 323f 7fb3 143e 055e ee3e
000001f0: 51d3 0abe 257c b33d 6c3b 763e d0b3 043d
00000200: b64b 1fbf df2c 4bbf e4f1 ce3e 97f4 9bbe
00000210: c209 cc3e e444 aabd 6027 973c 119e 06bf
00000220: 5fb8 883d 84ad 003d 409d ab3e 1e36 febd
00000230: f304 71be ec51 8b3e b2f4 c7bf ff89 a93d
00000240: b50a d8be 950a 113e 6483 933c a6eb 393f
00000250: 363e 8bbf 98b4 e93e 48d3 aabe 5121 843e
00000260: 52e1 e53e 186d cdbe 4d8e 1ebf 61be 80be
00000270: 37d0 213f 1539 75be 33ea fcbe bee1 58be
00000280: e2f0 113f 1e47 9dbc 5715 3bbe ce57 38be
00000290: 1613 703f 946a 92be 437d ecbe a853 9bbe
000002a0: 56a9 1d3d 4e3c 5b3e 84ce 6abf 9ee8 09bf
000002b0: 223f af3c 3bc7 afbe d2fb 093f cf4a 893e
000002c0: 4ed0 7c3d eb3b 07bf b8e2 cebe a649 483e
000002d0: fac4 89be 57d8 b6be fed1 4b3f 1122 80be
000002e0: f112 4c3f 0b66 4f3e 7773 b53d 3b98 60bf
000002f0: 8235 a93e dff5 bdbe f1d3 42be 9b5f 473f
00000300: b55b 133e 3170 043d f648 383e bfec 613e
00000310: d766 edbe 1be9 92bc 8673 50be 605d c8be
00000320: b830 a3bc 5818 7e3e f20d 5b3f 3ef6 18bc
00000330: 3aca ecbe 1e55 b83d cab7 b83e 022e 0cbf
00000340: cbe8 243f 9bc1 173f 4047 e83d 50ff 8fbe
00000350: f176 05bf c989 3fbf bcb6 89be efb7 f23d
00000360: ff9d ad3d e02c 86bd d12b fcbc 7ecc 22be
00000370: 9a26 f23d 23e1 663e 53f2 653e 84a9 b03c
00000380: 8e64 0e3b 83c0 683e 0fbc adbd 645f 86bc
00000390: f28d 1ebe 36c2 b73d efda 743d 75b1 a5be
000003a0: 378f 2fbf f032 4b3e 4979 c9bd 291b 3b3f
000003b0: 53ba 7e3e adf9 ff3e 98c6 89bf 13b6 943e
000003c0: 58b9 b83d 96d0 8c3f 43e3 183f 5b13 9e3e
000003d0: cc31 dabd 1294 f43b 418b 333e 63d0 383e
000003e0: 700c 07bf 872f 65bf ceb5 00be 752b fdbd
000003f0: ffbc 13be dbd7 cdbe 26ae 37be 2728 86bd
0.17238759 0.30411476 0.06651237 0.4579171 -0.17022806 -0.23011246 0.15535018 0.41090918
-0.7835633 -0.093969 0.243196 0.3138351 0.62163556 0.7879688 -0.321481 -0.3650768
0.81360716 0.024140194 -0.13479365 -0.0062000793 0.091581985 0.18691711 0.18164015 0.3880652
-0.688819 0.42308342 0.42880198 0.62375534 0.4476141 -0.0034863062 -0.3359671 0.10968292
0.43789414 -0.75082886 1.9192945 -0.07304318 0.002277379 0.36028108 0.27968237 -0.6728045
-0.043532573 0.09661387 0.10428209 0.5493111 0.15142971 -0.034590468 -0.23278815 -0.027637972
0.055146847 0.116406545 0.3062913 0.27323642 2.0798 -0.02174581 -0.1444356 -0.2742952
-0.2381657 -0.34443566 0.09102991 -0.081967145 -0.5604215 -0.45369932 0.13890289 -0.29001692
-0.2828029 -0.4579406 -0.11193372 0.46272984 0.4916473 0.036056064 1.4786 0.17013097
0.006636361 -0.028129201 0.05370298 -0.05994228 -0.61757463 -0.54155785 0.16734625 0.16495883
-0.18947686 0.44446406 0.23534667 -0.03964836 0.38199335 0.5968381 -0.21994638 0.08061234
-0.5093667 -0.11164565 0.0593686 -0.050366003 -0.6470637 -0.053345226 -0.34341186 -0.2966702
-0.11817462 0.022445802 0.20890868 -0.5717729 -0.09641682 0.13813171 0.8280229 -0.22673362
0.29568046 0.28150547 -0.030356387 0.0009523808 0.14848687 -0.007414501 -0.1914216 0.25887603
0.34156924 -0.22837488 -0.30044064 -0.13075636 0.020350957 -0.3387042 0.28474432 0.10548333
0.2344338 0.69661283 0.14521597 0.46556106 -0.13557173 0.08763913 0.24046105 0.032398045
-0.622249 -0.7936534 0.40418923 -0.30460045 0.39851195 -0.08313921 0.018451393 -0.5258494
0.06675791 0.031415477 0.3351841 -0.12412666 -0.23537044 0.2721094 -1.562155 0.08278274
-0.4219567 0.14164193 0.018006988 0.72625196 -1.087836 0.45645595 -0.3336432 0.25806668
0.44898468 -0.40122294 -0.61935884 -0.25145248 0.63208336 -0.23947556 -0.4939743 -0.21179864
0.57008183 -0.01919895 -0.18269859 -0.18002245 0.9377912 -0.28596938 -0.46189317 -0.30337262
0.03849157 0.21409723 -0.9172137 -0.5387057 0.021392409 -0.34331688 0.5389987 0.26814887
0.061722092 -0.528258 -0.40407348 0.19559345 -0.26908094 -0.3571193 0.796173 -0.2502599
0.797164 0.2025377 0.08859914 -0.87732285 0.33048636 -0.37101647 -0.19026162 0.7788026
0.14390452 0.032333557 0.17996582 0.22062968 -0.46367523 -0.017933419 -0.20356569 -0.3913374
-0.019920692 0.24813974 0.85568154 -0.009336052 -0.46248037 0.0900061 0.3607772 -0.547577
0.64417714 0.59279794 0.11341715 -0.28124475 -0.52134615 -0.7481962 -0.26897228 0.11851489
0.08477401 -0.06551528 -0.030782612 -0.1589832 0.11823769 0.2254682 0.2245572 0.021565206
0.0021727416 0.22729687 -0.08483135 -0.016402908 -0.15483835 0.0897259 0.059779104 -0.3236195
-0.68577904 0.1984365 -0.098375864 0.7308832 0.24875765 0.49995175 -1.0763731 0.29045162
0.090197265 1.1001155 0.59721774 0.30874142 -0.10654029 0.0074639404 0.1753359 0.18048243
-0.52753353 -0.89525646 -0.12569353 -0.123618044 -0.14427565 -0.40203747 -0.17937526 -0.06550627

pi_features_extractor.network.0.bias f4 [64]
00000000: 8073 aa3d d45e 873d 90cd b83c 14cf 6e3e
00000010: b0b4 53bd 2bc7 963e b1dc d73e 244a 48be
00000020: c187 023f dee9 673e 9ded be3e 94d8 3d3e
00000030: 082f e73e 5770 8f3e 9014 e63d e56b ac3e
00000040: 3cbc 5e3d c71a c33d 9f03 5f3e e086 d23c
00000050: 6001 d83e 3694 593e b338 b13e 9705 94be
00000060: bf82 f23d bd2c 813e 6acd bc3e 0315 4a3e
00000070: 5a2d 733e b88a 8e3e 1c4c 9b3e 95a1 b33e
00000080: 05ee 653d 6626 af3d 0bd9 5e3e c614 0b3e
00000090: ce3f 5ebd 9093 9d3e ee0d fd3d 55ca 493c
000000a0: 8f2d 873e 44ce 573d 75ff b83e e8d6 253e
000000b0: 3271 a13d 94e8 2bbe 6cd5 f33d 18d8 3a3e
000000c0: b922 863e d0cc 873d 30c3 fc3e ff95 313e
000000d0: 98a1 0f3e dc86 8cbe 35a6 663d 02af dd3e
000000e0: 237f c13e 80d1 af3d 6f9d ed3b 677a 833e
000000f0: bde0 9a3e 3ad7 343e 5008 123e 7488 053e
0.08322811 0.06609884 0.022558957 0.23321182 -0.05168599 0.29448828 0.42160562 -0.19559532
0.50988394 0.22647807 0.3729066 0.18539649 0.4515307 0.28015396 0.11234391 0.33676067
0.054378733 0.09526592 0.21778725 0.025699079 0.4218855 0.21247944 0.3461357 -0.28910515
0.11841344 0.25229445 0.36875468 0.19734578 0.23747769 0.2784021 0.30331504 0.35084215
0.056135196 0.08552246 0.21762483 0.13582143 -0.054260068 0.30776644 0.123561725 0.012316306
0.26401946 0.052686945 0.36132398 0.16195261 0.078829184 -0.1678794 0.11905941 0.18246496
0.26198366 0.06630862 0.49367666 0.17342375 0.14026487 -0.2744664 0.05631085 0.43297583
0.3779231 0.08584881 0.0072514336 0.25679323 0.30249587 0.17660227 0.14260983 0.13040334

pi_features_extractor.network.2.weight f4 [128, 64]
00000000: e3fa adbd a5f1 a23d 60ad 14bf d3c6 4b3d
00000010: 49e8 f03d 7f06 1fbe 130d ec3c 84a6 273f
00000020: 9cc1 113f 93f8 873e c0b5 77be 8fba dcbe
00000030: 7a98 0e3c 891e c8bd 3014 b13e c845 56be
00000040: a005 113f eb3a dc3e bbf5 043d 0225 b43e
00000050: b7dd b3be 03a3 ac3e 777b 903d 7abf 4c3e
00000060: b520 cebe 6b9d 53bd 6acd 053e 2f95 5ebd
00000070: 2f69 2dbe 2c8a df3d 6e98 a3be 4f54 a9bc
00000080: cf67 3dbe 4fae 55be b086 7abe 7993 3abf
00000090: 48f9 28be ca79 0dbf 7dd8 3ebe 04f5 db3d
000000a0: 35ee 243e 19c4 61be 1b5b fabd 259d c13d
000000b0: 59d9 1dbf fff4 2e3e 66d2 ee3e df2a e03e
000000c0: c485 b6be 0e4a 0b3f 5e6d 0fbe 7af6 a53e
000000d0: 2278 9f3d 3ded 91be 81be 893e c7d7 0abe
000000e0: 77a4 3c3c f160 013f 8c98 2fbe 8456 e73e
000000f0: fb8d d4be cbc1 1d3f f37e fb3e 609c c73d
00000100: c29d e63d a501 39be e089 343c 4113 363e
00000110: de07 2b3e 9e29 d7bd 863b b6be b716 033f
00000120: d639 aa3d d6a8 423f 6e86 86bd e4fe 8bbc
00000130: b9c5 25bf 5863 b73d 14d4 2e3f ebdd b73e
00000140: 4547 cf3d 2312 a7bd 1bf1 1abe 5a8a a43e
00000150: dd9d fa3e 1379 15bf 7e12 fcbe a662 77bf
00000160: 7600 a3bc 4ef5 703b 1e43 a2bd 814d 8f3d
00000170: 986f 1cbd 42a9 67be db25 953e 5259 503e
00000180: 9ccd 4b3d ebd2 f53d 3d5b ce3d b713 783c
00000190: 7bf7 f23e 367b 0b3f 68eb a0bd 98ff 293f
000001a0: 1b5d ef3e 5d50 813d 719e e63e db62 81be
000001b0: 8e9b 2c3f f541 78bd 0e3e 0bbe 8902 ca3e
000001c0: 9fbe 9e3d e97e 50be e81a b6be bf15 5f3e
000001d0: 5a0d 903e f8f0 9d3e cc1e 023e 80eb abbf
000001e0: 81f2 93be 0fb8 423e ed21 113e 86cd 203f
000001f0: a109 e93e 1b07 a73e 2425 043f efd9 1f3e
00000200: 3a1b 6b3d 9a1d 8ebe e6e6 1fbf 220f 6fbe
00000210: edaf 3dbe a38d bc3e 4692 c43d 6748 f6be
00000220: 323e 28be 5b90 46be b3b3 cf3e dc3c 4b3e
00000230: 8355 5fbe 1de2 02bf 3d10 0c3e 6282 953d
00000240: 9fe7 41bd 2545 87be 0a4c 47be c157 06bf
00000250: 01af dd3e 394e 583e e727 1c3e c851 c73c
00000260: e77b 0c3b b07f b43e 98c8 163d 0ac4 973c
00000270: 5e0d d23d 07ef 1cbf 2126 803e fa2e 82bd
00000280: a545 f63d b212 39be 071d a73e fbd7 9c3e
00000290: f336 923e cf42 05bd a5c5 92bd 91b1 bcbe
000002a0: 9833 96be 4039 ed3d 7fd9 9ebe 9af7 c03d
000002b0: 39a8 74be 63ef cd3e 37ff ffbe 1ca0 133d
000002c0: 2b42 a33e f009 fabd d8b7 2e3f fde5 093f
000002d0: 2d7d 3b3e 9d1b 883e 9fa2 e0be 85c8 1f3f
000002e0: d16f 2bbf 342a d2bd 8214 a73e f4e3 8abe
000002f0: ca4c e03e c73b 91be d8d8 c3bd a5a8 ccbd
00000300: 2e35 02bd d132 903e 403d 84be 1579 1fbe
00000310: 913e 89be 4056 7b3d ec22 a13d 41d8 3c3e
00000320: caa1 1a3e 6e9e 91bd 08ad b6bf a309 67be
00000330: 9e77 073e 4256 2dbe 73ea 793d e1da d4bc
00000340: e535 b83d a638 75bf cf37 cebd cdda 48bf
00000350: 2c39 0cbe aacd 15be e5ef ce3e ae86 c0be
00000360: 5754 973e 61a6 dfbd e562 07bd ffa0 0cbf
00000370: 413c 103d cebf 62be 5a6c 38be 0583 da3d
00000380: 25a9 933e 6f55 88bd d823 013a 7980 bdbe
00000390: efdf 173b ee25 04be 8d71 83bf 180a 083e
000003a0: ac30 6abe d88b 84be 8e23 313c f863 4dbd
000003b0: 8f0e 923d 5235 2fbe b92a 36bf a2d1 17bf
000003c0: d1e5 a6be f73e 2fbe dbce d4be d8c9 9f3e
000003d0: 117b ac3d 4688 f6bc 0d8a 2abe 3241 f93d
000003e0: 0097 5bbf b480 93bf ee7b f6be 4c23 213e
000003f0: 82f5 60be d30e 83bd 5e03 0a3e 50b0 e63e
-0.084951185 0.07956246 -0.5807705 0.04975016 0.11763055 -0.15529822 0.028814828 0.6548846
0.5693605 0.26556835 -0.24190426 -0.43111083 0.008703345 -0.09771449 0.34585714 -0.20925057
0.5664921 0.430137 0.03246091 0.35184485 -0.35130093 0.33718118 0.07054799 0.19994918
-0.40259328 -0.051663797 0.1306664 -0.05434149 -0.16934656 0.10915026 -0.31952232 -0.020670084
-0.18496631 -0.20867275 -0.24465442 -0.72881275 -0.16501343 -0.5526396 -0.18637271 0.107400924
0.16106494 -0.22047462 -0.12224408 0.09453801 -0.6165977 0.17085646 0.46644896 0.43782708
-0.3564893 0.54409873 -0.14006564 0.3241461 0.077865854 -0.2850131 0.26903155 -0.13558875
0.011513821 0.50538546 -0.17148036 0.45183194 -0.41514573 0.6162383 0.49120292 0.09746623
0.11260559 -0.18067034 0.0110192 0.17780782 0.1670222 -0.10505985 -0.35592288 0.51206535
0.083118126 0.76038873 -0.06568609 -0.017089315 -0.64754826 0.08954495 0.68292356 0.35911497
0.101210155 -0.08157756 -0.15131037 0.32136804 0.48948565 -0.5838787 -0.49232858 -0.966349
-0.01989768 0.0036767307 -0.07922958 0.069972046 -0.03819236 -0.2262316 0.29130444 0.20346573
0.04975663 0.1200312 0.10075996 0.015141419 0.47454438 0.5448488 -0.078574 0.6640563
0.4675072 0.06314156 0.45042756 -0.25270733 0.6742486 -0.060609777 -0.1359789 0.3945506
0.07751202 -0.20360912 -0.35567403 0.21785639 0.28135186 0.30847907 0.1270706 -1.3431244
-0.28895953 0.19015525 0.14173098 0.62813604 0.4551516 0.3262261 0.5161917 0.15610479
0.057399012 -0.2775696 -0.624617 -0.23345616 -0.18524142 0.3682681 0.09598212 -0.48102114
-0.16429976 -0.19391005 0.40566787 0.19847435 -0.21809964 -0.5112627 0.1367807 0.07300259
-0.04734003 -0.2641994 -0.194626 -0.5247765 0.4329758 0.2112359 0.15249597 0.024330989
0.0021436156 0.35253668 0.036812395 0.018526096 0.10256456 -0.61302227 0.2502909 -0.06356616
0.120250024 -0.18073538 0.32639334 0.3063353 0.28557548 -0.032534417 -0.07166604 -0.36854222
-0.29336238 0.11583185 -0.3102531 0.09422226 -0.23892297 0.402217 -0.499994 0.036041364
0.3188642 -0.12208927 0.68249273 0.5386656 0.1830947 0.26583567 -0.4387407 0.62415344
-0.66967493 -0.10261956 0.32632834 -0.2712704 0.43808585 -0.2836592 -0.09562844 -0.09993104
-0.031788997 0.2816377 -0.2582798 -0.15573533 -0.26805547 0.06136155 0.07867989 0.1844187
0.1510078 -0.07110296 -1.4271555 -0.2256227 0.13229224 -0.16927436 0.061014604 -0.025983276
0.089946546 -0.95789564 -0.100692384 -0.78458863 -0.13693684 -0.14629236 0.404174 -0.37602752
0.29556534 -0.10920406 -0.033053298 -0.5493316 0.035213713 -0.2214348 -0.18010083 0.10669521
0.28839985 -0.0665692 0.00049263006 -0.3701208 0.0023174246 -0.12905094 -1.0269028 0.132851
-0.2287013 -0.25887942 0.0108117 -0.050144166 0.07131683 -0.17110184 -0.7115894 -0.5930425
-0.3259721 -0.17113863 -0.41564068 0.31208682 0.084219106 -0.030094277 -0.16654225 0.12170638
-0.8577728 -1.1523652 -0.48141426 0.15736121 -0.21968654 -0.06399312 0.13477847 0.4505639

pi_features_extractor.network.2.bias f4 [128]
00000000: 02aa 68be f6f8 e7be a891 a73e 351f 0bbe
00000010: e5de 8cbd 678e 3d3e fddc c63e 5c6f c3bd
00000020: 52b2 863e 1dc5 cb3d 2fe3 e33e 1759 96bd
00000030: d95f 413e 85b1 7abd e8de c73e 1bac 4ebe
00000040: 0f50 8cbd d436 d3bd e8d2 67bc e014 863e
00000050: 43a1 0b3d 3d89 ae3d 1cd0 d23e 2e24 0b3d
00000060: 0e9f ca3d f3b9 ec3d d99f f03e 93f6 ed3c
00000070: 73df 5b3e 3b1c 163e b430 e13e 61fe fe3d
00000080: 357a abbd 67a6 383e 6ee2 b2bd 3d2f 273e
00000090: 1e12 993e 756c 1fbd aff4 423e 3ee2 b93e
000000a0: 37ee e93d 1672 863e 2a71 3cbd 1397 013f
000000b0: 6576 3d3e dcc1 3c3e 935a a43e d318 bcbd
000000c0: 1e60 803d feed 24be d92e 693e 2ead ddbc
000000d0: 67a7 d0bd 3f5f 0a3d 9a73 d9bc 8fe1 45be
000000e0: b9ef 873d 8f50 263f 670b 903e 34b3 bb3e
000000f0: 9623 c53d 7eae 523d abc0 563e f36c 933e
00000100: 4743 28bd 8f38 013e 6fa3 b83e b851 04be
00000110: ef7c 3fbe 2d73 423e 759d d4bd 9525 dabd
00000120: 7e6f 8b3d 7cf8 1bbd 5c01 263f be26 a93d
00000130: 2670 dc3c be3c a03d cbbe 1e3e 55db c53c
00000140: 516f 7b3e 649f bebd 53d3 cd3d 907b 963d
00000150: da43 ba3e 7b92 9d3e 280a a5bd 09e3 873e
00000160: d844 a73e 5204 a33e 2fe2 1d3e eb1e e13e
00000170: 5b1a 883b 13ae 6abe e53f 993d 7eb9 2bbe
00000180: 24e1 ea3e b30a 63bd 138d 55bd c3a1 d13e
00000190: ba3e afbd 5c4f ca3d 9341 ddbe d448 1f3e
000001a0: 37c2 273e e012 f8bd c31d 703e e398 493e
000001b0: 54bf 1a3e 68bf a0bd 5a2b f53d 6f66 773e
000001c0: ebc1 b8bd 9e86 883e 6697 373e 5ed7 a23e
000001d0: d2e6 88bc 2e94 6ebd 4ea6 be3c 6b6f 8e3e
000001e0: bafb cc3d 7ab4 0abe 7239 ad3e 892a 9b3e
000001f0: 866c 0dbc 69a2 1d3f 30d0 863e 8790 013f
-0.22721103 -0.4530713 0.32728314 -0.13586123 -0.06878451 0.18511353 0.38840476 -0.095427245
0.26307923 0.09949706 0.44509265 -0.07341211 0.18884219 -0.061204452 0.3903725 -0.2018284
-0.068512075 -0.10313192 -0.014149405 0.261878 0.034089338 0.0852227 0.411744 0.03397005
0.098936185 0.115589045 0.46996954 0.02904824 0.21471958 0.14659207 0.4398247 0.12450863
-0.083729185 0.18032227 -0.08734594 0.16326614 0.29896635 -0.038921792 0.19038652 0.36305422
0.11422389 0.26258916 -0.04600636 0.50621146 0.18502195 0.18433326 0.32100353 -0.09184422
0.06268333 -0.16106412 0.22771777 -0.027060118 -0.101881795 0.03378224 -0.026544381 -0.19324325
0.0663752 0.6496667 0.281337 0.3666016 0.09625928 0.05143594 0.20971934 0.2879406
-0.041079786 0.12619232 0.3606219 -0.12921798 -0.18700002 0.18989249 -0.10381595 -0.106516995
0.06808375 -0.03807877 0.64845824 0.082593426 0.026908945 0.07824086 0.15502469 0.024152437
0.24554183 -0.09307745 0.100500725 0.073477864 0.36379892 0.30775818 -0.08058578 0.26540402
0.3266971 0.31839234 0.15418313 0.439689 0.0041535324 -0.22917967 0.0748289 -0.16769978
0.45874894 -0.055430125 -0.052136492 0.40943727 -0.08556886 0.09878418 -0.43214092 0.15555125
0.16382681 -0.12112975 0.23448853 0.19687228 0.15112048 -0.07849008 0.11971159 0.24160169
-0.09021362 0.26665205 0.17928848 0.31804937 -0.016711626 -0.058246784 0.02327266 0.2781938
0.100089505 -0.13545409 0.3383289 0.3030589 -0.008631831 0.61575943 0.2633071 0.50611156
