sim2real/RL-VertiBench/ppo_checkpoint_iter102_level18.pt (torch, 142102 bytes, 36 tensors)

log_std f4 [2]
0	0xbe63fd37	-0.22264563
1	0xbf5b5f29	-0.8569208

features_extractor.network.0.weight f4 [64, 18]
0	0xbe66e018	-0.22546422
1	0x3f22780d	0.6346443
2	0xbe788a5c	-0.2427153
3	0xbe2c6a3f	-0.16837405
4	0xbdbffec7	-0.09374767
5	0xbd6756ce	-0.056479268
6	0xbe59e16b	-0.21277396
7	0x3ebfa727	0.37432215
8	0x3f284efa	0.6574551
9	0x3f09e0fc	0.53858924
10	0x3d57b92c	0.052666828
11	0x3e93edcb	0.2889236
12	0xbe9d8ec5	-0.30772987
13	0x3f0aec29	0.542666
14	0x3dc76b87	0.09737306
15	0x3df69135	0.12039415
16	0x3ebabd59	0.36472586
17	0xbebba59c	-0.36649787
18	0x3f2858c1	0.6576043
19	0xbd881693	-0.06644931
20	0x3eaa6df7	0.33287022
21	0x3ed633b5	0.41836324
22	0xbe08e8db	-0.13370077
23	0x3edabfd6	0.42724484
24	0xbf1e3b71	-0.6180945
25	0xbf6c12d6	-0.9221624
26	0xbfcaf6e9	-1.5856601
27	0xbdfbec03	-0.12300875
28	0x3f151e7c	0.5824964
29	0x3ed1612b	0.40894446
30	0xbf527f8f	-0.8222589
31	0xbf15cf62	-0.58519566
32	0x3f4c4098	0.7978606
33	0x3e14c9ee	0.14530155
34	0x3f2fb55a	0.68636096
35	0x3e0c5819	0.13705482
36	0x3d0630b3	0.032761287
37	0x3d5056f9	0.050864194
38	0x3eac2481	0.336216
39	0x3f6b01cc	0.91799617
40	0x3e0f3d22	0.13988164
41	0x3f1fa95a	0.62367785
42	0x3f14d8a4	0.5814307
43	0xbc7e9302	-0.015537979
44	0xbbc74a94	-0.0060818885
45	0xbebc3852	-0.3676172
46	0xbe1cd608	-0.15316021
47	0xbeaa8a53	-0.33308658
48	0xbb2d00c0	-0.0026398152
49	0xbd605078	-0.05476424
50	0x3e22a8be	0.15884683
51	0xbeda304b	-0.4261497
52	0x40507136	3.2569098
53	0x3e30c3b9	0.17262162
54	0x3ecc3872	0.39886814
55	0xbf23dd33	-0.640094
56	0x3eb8939a	0.3605011
57	0xbe6c8b0c	-0.23099917
58	0x3e51f62a	0.2050406
59	0x3f4b05a9	0.7930551
60	0xbdbf6913	-0.09346213
61	0xbe8f673c	-0.2800845
62	0xbeb9fb4a	-0.3632453
63	0x3ed4f6e9	0.41594627
64	0xbe832d7b	-0.25620636
65	0x3f8e0044	1.1093831
66	0x3f2bb770	0.6707678
67	0x3fab1bd0	1.3367863
68	0x3f095383	0.53643054
69	0x3e5e3d97	0.21703182
70	0xbf53a395	-0.8267148
71	0xbd1db01b	-0.038498025
72	0x3e4729df	0.19449566
73	0x3f7017b7	0.93786186
74	0x3e29fe6c	0.1660096
75	0x3d0b20c8	0.03396681
76	0xbf5ba35a	-0.8579613
77	0xbdf3c218	-0.11902255
78	0xbe3fc151	-0.18726088
79	0xbf07aa82	-0.5299455
80	0xbe264021	-0.162354
81	0x3c854167	0.016266538
82	0xbef5be7c	-0.4799689
83	0xbe11489f	-0.14187859
84	0x3d9f13a5	0.07767419
85	0xbce37a0f	-0.027768163
86	0xbf0a008f	-0.539071
87	0xbf20b053	-0.6276905
88	0xc009cf6a	-2.1532845
89	0x3eb207eb	0.34771666
90	0xbf91f2f4	-1.1402268
91	0x3d1b988b	0.037987273
92	0xbf849dca	-1.0360653
93	0xbc570dd8	-0.013125859
94	0x3f9e1337	1.2349614
95	0xbddfc3e4	-0.10926035
96	0x3e91315d	0.28357974
97	0xbec1e1fe	-0.3786773
98	0xbe8cb324	-0.27480423
99	0xbbd9f539	-0.0066515473
100	0x3e1a7d95	0.15086968
101	0xbe84e4c5	-0.25955787
102	0xbf501493	-0.81281394
103	0x3f3d8161	0.7402554
104	0x3e3f6dd6	0.18694243
105	0xbd1bca7e	-0.03803491
106	0xbdf6c6a6	-0.12049608
107	0xbe89418f	-0.2680783
108	0xbe14f3b5	-0.14546092
109	0x3ed62e9f	0.41832444
110	0x3e9b03d8	0.3027637
111	0x3e94d6d3	0.29070148
112	0x3e9156a2	0.28386408
113	0x3ef9723b	0.48719963
114	0x3f17d20c	0.5930488
115	0xbfcbc4bc	-1.5919414
116	0x3f4fceec	0.8117511
117	0x3f07d707	0.5306248
118	0xbe432a73	-0.19059162
119	0x3d5b4db7	0.05354091
120	0xbf1de492	-0.61676896
121	0x3f2d71af	0.6775159
122	0x3f663b7e	0.8993453
123	0x3f9d4113	1.2285484
124	0xbf32b5ef	-0.6980886
125	0x3de5446e	0.111946926
126	0x3e8925c8	0.26786637
127	0xbe5c10f2	-0.21490839
128	0xbc96091d	-0.018314892
129	0x3e9f4371	0.3110614
130	0x3e9bfa3a	0.30464345
131	0x3d13657f	0.035985466
132	0xbe961867	-0.29315493
133	0xbe4bd035	-0.19903643
134	0x3cb5502d	0.022132957
135	0xbde2c9c9	-0.11073644
136	0x3df6d9cd	0.12053261
137	0xbe7cf7d4	-0.24703914
138	0x3d8dd1cf	0.069247834
139	0xbdcc7fa4	-0.09985283
140	0x3ece7a20	0.4032755
141	0x3def80b6	0.116944715
142	0xbdc42b09	-0.09578521
143	0xc02a5dc3	-2.6619728
144	0xbdec30c3	-0.11532738
145	0xbf18b814	-0.5965588
146	0xbfb455d0	-1.4088688
147	0xbeda4702	-0.426323
148	0xbf121b75	-0.57073146
149	0x3ecf690b	0.4050983
150	0x3fbcb61b	1.4743074
151	0xbea1a4d6	-0.31571072
152	0x3dfc4c77	0.12319272
153	0x3cca3bda	0.024686743
154	0xbf006471	-0.5015326
155	0xbe76ff5f	-0.24120854
156	0x3ef66f24	0.4813167
157	0xbf63ad2b	-0.8893611
158	0xbe6c7934	-0.2309311
159	0x3f3bce8d	0.73362046
160	0xbd567552	-0.05235798
161	0x3dcdc63f	0.10047578
162	0x3f8d8245	1.105538
163	0xbf482130	-0.7817564
164	0xbf6c905d	-0.9240778
165	0xbfa2aef4	-1.2709641
166	0xbe4f2871	-0.20230271
167	0xbf997786	-1.1989601
168	0xbef433bd	-0.47695723
169	0x3f3db1dd	0.7409952
170	0x3e54eec6	0.2079421
171	0xbfb8afc0	-1.4428635
172	0x3f392007	0.72314495
173	0xbe3212b1	-0.17389943
174	0x3f2d7f1e	0.6777209
175	0xbeabcc64	-0.33554375
176	0x3e8f40cb	0.2797912
177	0x3f4a7b13	0.79094046
178	0xbf0909bd	-0.53530484
179	0xbdff02f0	-0.12451732
180	0xbe78287c	-0.24234194
181	0xc0100238	-2.2501354
182	0x3f97027d	1.1797634
183	0x3e4eb6b5	0.20186885
184	0xbf73d2a9	-0.95243317
185	0x3ee8a769	0.45440224
186	0x3ed0497c	0.40681064
187	0xbf554331	-0.8330565
188	0x3e5b313f	0.21405505
189	0xbeb2f54e	-0.34952778
190	0x3f2a09e4	0.6642134
191	0xbe25310b	-0.1613199
192	0xbf1cb1a4	-0.6120856
193	0xbe850974	-0.25983775
194	0xbd3b9dcd	-0.045804787
195	0x3e9ea06d	0.3098177
196	0x3e8ef91f	0.2792444
197	0xbc024b4a	-0.007952521
198	0x3c0740a2	0.008255156
199	0x3d9c0a37	0.07619136
200	0x3da4a367	0.08038979
201	0x3d5dbc38	0.054134578
202	0x3d8ab3d1	0.067725785
203	0xbcf65cf1	-0.030073615
204	0x3d3181e4	0.043336764
205	0xbd06d2bf	-0.032915827
206	0xbdbb821c	-0.09155676
207	0x3a8b3b0d	0.0010622457
208	0xbd28006a	-0.04101602
209	0x3be87d76	0.0070950342
210	0x3dc037bb	0.0938563
211	0xbc61798b	-0.013761888
212	0xbc0513cd	-0.008122397
213	0xbc974daf	-0.01846966
214	0x3e626b3e	0.22111222
215	0xbf827bc5	-1.0194021
216	0x3d6a189e	0.057152383
217	0xbe9b8ce8	-0.3038094
218	0x3e0f013e	0.13965318
219	0xbfbef96a	-1.4919865
220	0xbeeba4cc	-0.46024168
221	0x3ddf13a7	0.1089242
222	0x3e8f3826	0.27972525
223	0xbed9fa8c	-0.42573965
224	0x3f465db5	0.77486736
225	0xbf37cb63	-0.7179472
226	0x3e251c8d	0.16124173
227	0x3c8f8d9f	0.017523585
228	0xbda19291	-0.078892834
229	0x3e0e4f1e	0.13897368
230	0x3f2d2ab7	0.676433
231	0x3fef6cba	1.8705056
232	0xbea249ea	-0.31697017
233	0x3e1bf4a1	0.15230037
234	0x3d5e75a8	0.054311424
235	0x3ca550bf	0.020180104
236	0xbe836202	-0.25660712
237	0x3d32f6eb	0.04369251
238	0x3daa28e1	0.08308578
239	0xbddd8ee7	-0.10818272
240	0x3e3ab61e	0.18233535
241	0x3e8d5ea4	0.27611268
242	0x3cf5072c	0.029910646
243	0xbeaa5be6	-0.33273238
244	0xbdffec0d	-0.12496195
245	0x3caa876e	0.020816531
246	0x3c98dc51	0.018659743
247	0xbdf667e8	-0.12031537
248	0x3ea20a37	0.31648418
249	0xbe08f916	-0.13376269
250	0xbf8e7410	-1.112917
251	0xbdedd7a3	-0.11613395
252	0x3de5fb97	0.112296276
253	0xbe771fc1	-0.24133207
254	0xbf760218	-0.96096945
255	0x3e792ba5	0.24333055

features_extractor.network.0.bias f4 [64]
0	0x3f1e1317	0.6174788
1	0x3e201db6	0.15636334
2	0xbb6aaae4	-0.0035807425
3	0x3f631093	0.88697165
4	0x3f281be1	0.6566754
5	0x3e1a3de8	0.15062678
6	0xbd7c02e5	-0.061526198
7	0x3ee00481	0.43753436
8	0x3e710d3d	0.23540206
9	0xbe463415	-0.19355805
10	0x3ee6dc65	0.45090023
11	0x3f682985	0.90688354
12	0x3e7a0d46	0.24419126
13	0x3f67db52	0.9056903
14	0x3ec7ab03	0.3899766
15	0x3e7ef347	0.2489749
16	0x3ead8039	0.3388689
17	0x3f8c0825	1.0939986
18	0x3eba67d5	0.36407343
19	0x3f313dc4	0.6923487
20	0x3e60ce47	0.21953689
21	0x3e3eecf0	0.18645072
22	0x3f2e2aa2	0.680338
23	0x3bf60425	0.0075078183
24	0x3f0891ef	0.53347677
25	0x3e717b69	0.23582233
26	0xbdb1c01e	-0.086792216
27	0x3f9dd906	1.2331855
28	0x3f1771f5	0.5915826
29	0x3f53b011	0.8269053
30	0x3ee410b2	0.44543988
31	0xbf2726a9	-0.65293366
32	0x3e9ceb83	0.3064843
33	0x3e7b298a	0.24527565
34	0x3f473f6d	0.77831155
35	0xbe4568fe	-0.19278333
36	0x3dab91e7	0.08377438
37	0x3f0d5819	0.5521255
38	0x3e8c5b30	0.2741332
39	0xbf2fd504	-0.6868441
40	0x3edd0d8a	0.43174392
41	0x3e946781	0.28985217
42	0x3e9750ca	0.29553825
43	0x3dc1ad4a	0.094568804
44	0x3f81e510	1.0148029
45	0x3e371fd2	0.17883232
46	0x3ee14386	0.4399683
47	0x3e83e8fe	0.25763696
48	0x3ec2ea67	0.3806946
49	0x3e825e1a	0.2546242
50	0x3ea7cdbd	0.32774153
51	0x3edfffbb	0.43749794
52	0xbe19bdd6	-0.15013823
53	0x3f3cacdf	0.7370128
54	0x3f42b4c5	0.7605708
55	0x3e8953bd	0.268217
56	0x3f4c7bf4	0.7987664
57	0x3f7b61a9	0.9819589
58	0x3ed5e65a	0.41777307
59	0x3d5e199c	0.05422364
60	0x3ec0ffee	0.3769526
61	0x3e23786a	0.15963903
62	0xbe1f9c12	-0.1558688
63	0x3e6c86b6	0.23098263

features_extractor.network.2.weight f4 [128, 64]
0	0x3c1438af	0.009046718
1	0x3e83db06	0.2575304
2	0x3f44e92e	0.76918304
3	0xbef20f01	-0.47277072
4	0x3efff6ac	0.49992883
5	0x3edcee8e	0.43150753
6	0xbe022ffd	-0.12713619
7	0xbed4d7a8	-0.41570783
8	0x3f11c95b	0.5694787
9	0xbeabfc63	-0.33590993
10	0xbb028382	-0.001991481
11	0x3ea71d7f	0.3263969
12	0xbf938ab5	-1.1526705
13	0x3e4ffd05	0.20311363
14	0xbe8cf221	-0.2752848
15	0x3e5d2085	0.21594436
16	0xbd8ecd24	-0.06972721
17	0xbef8f0e2	-0.4862128
18	0xbf890a8f	-1.0706347
19	0xbf71210c	-0.9419105
20	0x3e51d883	0.20492749
21	0x3f4e720b	0.80642766
22	0xbdc2dc1d	-0.095146395
23	0x3ea23c76	0.31686753
24	0xbdc909dd	-0.098163344
25	0xbea0695e	-0.3133039
26	0x3f013886	0.5047687
27	0xbec309ca	-0.38093406
28	0x3f517ed0	0.81834126
29	0xbf00ac1a	-0.50262606
30	0xbf49b8c1	-0.7879754
31	0x3f00191e	0.50038326
32	0x3e9a2e31	0.30113366
33	0xbfc8ce7b	-1.5688013
34	0xbed84f65	-0.42248073
35	0xbf6185de	-0.8809489
36	0xbedc5615	-0.43034425
37	0xbf848975	-1.0354449
38	0x3e85a1db	0.26100048
39	0x3f8f923e	1.1216505
40	0xbd8779c0	-0.06615019
41	0xbf09edb2	-0.5387832
42	0x3da4b3c6	0.080421016
43	0x3fac1397	1.3443478
44	0xbd16cdf6	-0.036817513
45	0x3de1f1ad	0.11032424
46	0x3f928612	1.1447165
47	0x3d31955e	0.04335534
48	0x3ea1b150	0.3158059
49	0x3e9f62e0	0.31130123
50	0x3f09df10	0.5385599
51	0xbef4eb5c	-0.47835815
52	0x3efd11cd	0.49427643
53	0xbe36a467	-0.17836152
54	0xbefe7a47	-0.49702665
55	0x3cdbca45	0.026829848
56	0x3e905d66	0.28196257
57	0x3dc58fa3	0.09646537
58	0x3f1d0a87	0.6134419
59	0x3e880cf3	0.2657238
60	0xbe578add	-0.21049066
61	0x3ee03077	0.43786976
62	0x3f181589	0.5940786
63	0x3e912665	0.28349605
64	0x3ebdf31a	0.37099534
65	0x3d42e877	0.047584977
66	0xbf72c147	-0.9482617
67	0x3ed92965	0.42414394
68	0x3cebb622	0.028773371
69	0xbe4f49f1	-0.2024305
70	0x3f154175	0.58303005
71	0xbe4f2641	-0.20229436
72	0x3eddf49c	0.43350685
73	0xbf765fa4	-0.96239686
74	0xbe1bbaee	-0.15208027
75	0x3dcbabbd	0.09944866
76	0xbf531eee	-0.8246907
77	0x3ea31327	0.3185055
78	0xbe6fc384	-0.23414427
79	0x3f01cb4c	0.5070083
80	0x3e882f33	0.2659851
81	0x3c6c377f	0.014417528
82	0xbeb441f4	-0.35206568
83	0x3d7600b5	0.060059268
84	0x3f2662c1	0.64994437
85	0x3f16f716	0.58970773
86	0x3f0c375f	0.5477199
87	0x3f350e36	0.7072481
88	0x3dd85f7d	0.10565088
89	0xbd26bd4a	-0.040707864
90	0x3f9bd9ca	1.2175839
91	0x3f004f0d	0.5012062
92	0x3f281a2e	0.6566495
93	0xbec492f4	-0.38393366
94	0x3e4ee0d3	0.20202951
95	0xbf1585de	-0.5840739
96	0xbd89225f	-0.06696009
97	0xbf14d982	-0.5814439
98	0x3ee066b2	0.4382835
99	0x3ed03a6d	0.40669575
100	0xbf618d23	-0.8810598
101	0xbeed4faf	-0.46349856
102	0xbe674282	-0.22583964
103	0xbf9b9001	-1.2153322
104	0xbc8767bc	-0.016528957
105	0x3dd8d5f1	0.10587681
106	0xbf232102	-0.6372224
107	0xbfa54d5c	-1.2914233
108	0x3ea7fba7	0.32809183
109	0xbf16d942	-0.5892526
110	0xbf056782	-0.52111065
111	0xbd9bc1f7	-0.07605355
112	0x3e6cde73	0.23131733
113	0xbf4d9b6a	-0.8031527
114	0x3f335967	0.7005829
115	0x3f3ab231	0.7292815
116	0x3f8a3ac1	1.079918
117	0x3ee0988b	0.4386638
118	0x3f83ddc0	1.0302048
119	0x3e8547bf	0.260313
120	0x3efbd850	0.4918847
121	0xbf493a8e	-0.7860497
122	0x3f65131b	0.8948228
123	0xbf060ea3	-0.52366084
124	0x3e38a008	0.18029797
125	0x3e9c872f	0.30571887
126	0xbe7eedfc	-0.24895471
127	0xbe7e6887	-0.24844562
128	0xbf735454	-0.9505055
129	0xbdb03841	-0.086044796
130	0xbe53925b	-0.20661299
131	0x3e984dca	0.29746848
132	0x3f4970c1	0.78687674
133	0xbe8e064c	-0.2773918
134	0x3f90dddc	1.1317706
135	0xbf1f924f	-0.62332624
136	0xbe2587b0	-0.16165042
137	0x3f2c8991	0.6739741
138	0xbf51a969	-0.81899124
139	0xbe23ad06	-0.15983972
140	0xbe11f3e3	-0.14253192
141	0x3e9a6999	0.3015869
142	0x3ea39220	0.31947422
143	0x3efb5ddb	0.49095044
144	0x3f56a585	0.8384631
145	0x3ed3c5ea	0.41361934
146	0xbf2e01ee	-0.67971694
147	0xbf8f86a4	-1.1212964
148	0x3f3b0998	0.73061514
149	0xbf1ad23e	-0.60477054
150	0x3f0820c8	0.5317502
151	0x3e3c2849	0.18374743
152	0x3f0a4a07	0.54019207
153	0xbd5489d1	-0.051889244
154	0xbed6345c	-0.41836822
155	0x3e8adf6e	0.27123588
156	0x3e86e958	0.26349902
157	0x3ea4700c	0.32116735
158	0xbec40d23	-0.38291273
159	0x3f70dc21	0.9408589
160	0x3e96ae42	0.29429823
161	0x3e1798c2	0.14804366
162	0x3ed6dfd9	0.41967657
163	0x3f192a60	0.59830284
164	0x3efa1ea9	0.48851517
165	0xbc2d1f61	-0.010566563
166	0xbe5e5089	-0.21710409
167	0x3e223bcc	0.15843123
168	0x3c72e66d	0.014825446
169	0xbe309d99	-0.17247619
170	0x3f1a90db	0.6037728
171	0x3d236b89	0.039897475
172	0xbe87104b	-0.26379618
173	0xbe10d4fd	-0.14143749
174	0x3d310daf	0.04322594
175	0x3f398aa7	0.7247719
176	0x3e94427d	0.28956977
177	0xbddba135	-0.10724107
178	0x3f583359	0.8445335
179	0xbf7b6cf9	-0.98213154
180	0xbe80c633	-0.25151214
181	0xbdc07144	-0.09396604
182	0x3f1f7eaf	0.6230268
183	0x3f771c7d	0.96527845
184	0xbecc28d6	-0.39874905
185	0xbf1442c0	-0.5791435
186	0x3ede8feb	0.43469176
187	0x3f846743	1.0344013
188	0xbecf19ae	-0.4044928
189	0xbf1c3f82	-0.61034405
190	0x3e214779	0.15749921
191	0xbf3b2c82	-0.7311479
192	0xbca8d630	-0.020609945
193	0x3f4018a5	0.75037605
194	0x3fd3a0fc	1.6533504
195	0x3ea7ad14	0.32749236
196	0xbe662e5e	-0.22478625
197	0xbefe4747	-0.49663755
198	0xbf1153b8	-0.5676837
199	0x3de9e45e	0.11420511
200	0xbeedae34	-0.4642197
201	0xbfe89d82	-1.8173068
202	0x3b8e914c	0.004350817
203	0x3e51d40a	0.20491043
204	0xbfd0f504	-1.6324773
205	0xbe1c3e7e	-0.15258214
206	0xbe56f92c	-0.20993489
207	0x3e2f8c97	0.17143475
208	0x3f137a95	0.5760892
209	0x3ec83cca	0.39108878
210	0xbeca4844	-0.3950826
211	0x3dda718f	0.10666191
212	0x3f60de02	0.8783876
213	0x3ee26a1b	0.44221577
214	0x3eb50c5f	0.35361
215	0xbf5056b5	-0.81382304
216	0x3ec66b41	0.38753703
217	0xbf16e35d	-0.5894068
218	0x3e8a58ac	0.27020776
219	0xbe376b78	-0.1791209
220	0x3ecde425	0.40213123
221	0x3f0b7da1	0.5448857
222	0x3f15f8fd	0.5858305
223	0xbf0339be	-0.5125998
224	0x3f2907dc	0.6602762
225	0x3e458bdc	0.19291633
226	0xbdaecbef	-0.08534991
227	0x3d39c236	0.04535123
228	0xbf25ca48	-0.6476178
229	0xbe770067	-0.24121247
230	0x3a56b98b	0.00081911
231	0x3feb1cde	1.8368185
232	0x3d5b8d6e	0.053601675
233	0xbf2d7352	-0.6775409
234	0xbf0cf953	-0.5506794
235	0xbd6576ec	-0.056021616
236	0xbeb344f5	-0.35013548
237	0x3f829aeb	1.0203527
238	0xbe8a3361	-0.26992324
239	0xc00b129f	-2.1730115
240	0x3e76734d	0.24067421
241	0xbde56147	-0.11200195
242	0xbe533d20	-0.20628786
243	0xbf2d544f	-0.6770677
244	0xbd8321af	-0.06402909
245	0x3d1f092a	0.0388271
246	0x3fbcb94e	1.474405
247	0xbc277d90	-0.0102228075
248	0xbe8b5540	-0.27213478
249	0x3ee7cec0	0.45274925
250	0x3f1a547b	0.60285157
251	0xbe1bf6b6	-0.15230832
252	0xbf84b8e4	-1.0368924
253	0xbf0499ab	-0.5179698
254	0x3e77e740	0.24209309
255	0xbd780aa6	-0.06055703

features_extractor.network.2.bias f4 [128]
0	0x3d1e842f	0.03870028
1	0x3e722280	0.23645973
2	0xbe55c687	-0.20876513
3	0x3e4ee313	0.2020381
4	0x3f09fba7	0.53899616
5	0x3e442beb	0.19157378
6	0x3eaad4fd	0.33365622
7	0x3ed02273	0.40651283
8	0x3e268fd5	0.16265805
9	0x3effda89	0.49971417
10	0x3e2fa6b1	0.17153431
11	0x3be2c045	0.006919893
12	0x3ec0ac71	0.37631562
13	0x3e94796a	0.28998882
14	0x3d4972e4	0.049181834
15	0x3f3a9f85	0.7289966
16	0xbe361dd8	-0.17784822
17	0x3f30c4cd	0.69050294
18	0x3f509dae	0.814906
19	0x3f9dc290	1.2325001
20	0x3ef07625	0.46965137
21	0x3f31a8d8	0.6939826
22	0xbe1616c0	-0.14657116
23	0x3e9867e5	0.29766765
24	0x3f95ea27	1.1712083
25	0x3f045dfc	0.5170591
26	0x3f4f47ba	0.8096882
27	0x3f2197d8	0.6312232
28	0x3daa4d93	0.08315577
29	0x3ef102c2	0.47072417
30	0x3d3c896c	0.046029493
31	0x3e08d4f9	0.13362493
32	0x3f0c68a8	0.5484719
33	0x3e93724d	0.28798142
34	0x3d1eca33	0.03876705
35	0xbe4970a5	-0.19671877
36	0xbda20649	-0.07911355
37	0x3f5f6d38	0.8727603
38	0x3efd1426	0.49429435
39	0x3e85dcc4	0.26144993
40	0xbe96dbbf	-0.29464528
41	0x3f512bd3	0.81707495
42	0x3d9ccd8f	0.07656395
43	0xbd2a4b7d	-0.041575897
44	0x3f5f4e73	0.8722908
45	0x3e954374	0.29153025
46	0xbe8b4437	-0.2720048
47	0x3ebac508	0.36478448
48	0xbdd02111	-0.10162557
49	0xbd8b428d	-0.06799803
50	0x3f94e8b5	1.1633517
51	0x3dd8cd35	0.10586015
52	0x3dcae4b8	0.09906906
53	0x3f034af8	0.5128627
54	0x3ed12289	0.4084666
55	0x3ef82b55	0.4847056
56	0xbd9b5f29	-0.0758651
57	0x3ec27123	0.3797694
58	0x3e60c3d6	0.21949705
59	0x3e9a2e78	0.30113578
60	0x3f09d60c	0.53842235
61	0x3e99971e	0.29998106
62	0x3db6e712	0.08930792
63	0xbe03e92b	-0.12881915
64	0x3f81485b	1.0100206
65	0xbd6c2928	-0.057656437
66	0x3f493abe	0.7860526
67	0x3ee0fc18	0.43942332
68	0x3f22aa29	0.63540894
69	0xbc8ac91d	-0.016941601
70	0xbe14136d	-0.14460535
71	0xbe2106d9	-0.15725268
72	0x3f0d1f64	0.55126023
73	0xbee3c1be	-0.4448375
74	0x3f35b78f	0.70983213
75	0x3e935290	0.28773928
76	0x3c6cc45d	0.0144511135
77	0x3ede0957	0.433665
78	0xbe0a145c	-0.13484329
79	0x3e8130a7	0.2523243
80	0x3f11aa53	0.5690052
81	0x3ed2913d	0.41126433
82	0x3f11f99b	0.5702149
83	0x3ddbf44f	0.107399575
84	0x3f3a6ce0	0.7282238
85	0x3f5decc9	0.8668943
86	0xbd1cd114	-0.03828533
87	0x3f56007f	0.83594507
88	0xbe0f4265	-0.13990171
89	0x3f62bfdf	0.8857402
90	0x3c453e18	0.01203873
91	0x3d516462	0.051121123
92	0x3db0a5dc	0.08625385
93	0xbdf4d915	-0.119554676
94	0xbebd73b5	-0.3700234
95	0x3eb43c8b	0.3520244
96	0x3cecdcee	0.028913941
97	0x3c5b150e	0.013371719
98	0x3eeeb63b	0.46623406
99	0xbcfa9754	-0.030589737
100	0x3e7a5fbd	0.24450584
101	0x3db8b71a	0.09019299
102	0xbd19b598	-0.037526697
103	0x3f891129	1.0708362
104	0x3f4644a8	0.7744851
105	0x3ef212d7	0.4728
106	0x3c07939e	0.008274941
107	0xbe3cf7fe	-0.18453977
108	0x3f762021	0.96142775
109	0x3eebd5ba	0.46061498
110	0x3f03365c	0.5125482
111	0x3f852cfc	1.0404353
112	0x3f32eb48	0.6989026
113	0x3d51a7f7	0.051185574
114	0x3e5afe0a	0.2138597
115	0x3c6c89bf	0.014437138
116	0x3e8b8f4e	0.2725777
117	0x3f701311	0.93779093
118	0x3d92295c	0.07136795
119	0x3e5f7615	0.21822388
120	0xbebbb98d	-0.36665002
121	0x3e6fd02e	0.23419258
122	0x3dcf6626	0.10126905
123	0xbef2f84e	-0.47455066
124	0x3ed4c856	0.41559094
125	0x3eeffd5c	0.46872985
126	0x3f5ef9b6	0.8709978
127	0x3e836415	0.25662294

features_extractor.network.4.weight f4 [64, 128]
0	0x3d4647f0	0.04840845
1	0x3d1a838d	0.037723113
2	0xbcde445e	-0.02713221
3	0xbe8a718b	-0.2703975
4	0xbe48dff1	-0.19616677
5	0xbe32d975	-0.17465766
6	0xbe5d8300	-0.21632004
7	0x3e410ab9	0.18851747
8	0xbe2f0ade	-0.17093989
9	0xbdd332fe	-0.1031246
10	0x3e050ac2	0.12992385
11	0xbde98dce	-0.11404
12	0x3de0fbb4	0.109855086
13	0x3db096d9	0.08622522
14	0xbebc1661	-0.36735824
15	0xbf109ece	-0.56492317
16	0xbd969085	-0.07351784
17	0xbdc88728	-0.09791404
18	0xbdf29807	-0.11845403
19	0x3b137a9f	0.0022503508
20	0xbdcb1ae0	-0.099172354
21	0x3d8e5794	0.06950298
22	0xbf06faa2	-0.52726185
23	0xbe4d5f7f	-0.2005596
24	0x3dbc9394	0.09207836
25	0x3dfd28a9	0.12361271
26	0xbe73cc19	-0.23808326
27	0x3e886cf8	0.26645637
28	0xbd8ca9a8	-0.06868297
29	0x3d6a7920	0.05724442
30	0xbe14604d	-0.14489861
31	0xbc3fe43e	-0.011712132
32	0x3d8d03e5	0.068855084
33	0xbdda6fa4	-0.10665825
34	0x3ea64303	0.32473
35	0xbd34cf87	-0.044143226
36	0xbbe257c8	-0.006907437
37	0xbdb9403c	-0.09045455
38	0xbe93f2da	-0.2889622
39	0x3d49a1b3	0.049226474
40	0xbe5740fd	-0.21020885
41	0xbe322be9	-0.17399563
42	0xbad45c12	-0.0016201755
43	0xbe303d56	-0.17210898
44	0x3df5c176	0.1199979
45	0xbd5bdbc1	-0.05367637
46	0x3f21fdbc	0.6327779
47	0x3d936709	0.07197387
48	0x3cffca9d	0.031224543
49	0xbccfe593	-0.025378024
50	0xbdedaca7	-0.116051964
51	0x3deb9b83	0.11504271
52	0x3e03bb20	0.12864351
53	0xbf018ac0	-0.5060234
54	0xbe0afa33	-0.13572006
55	0xbe56d555	-0.20979817
56	0xbabeeac9	-0.0014565821
57	0xbe68314d	-0.22675057
58	0xbdfee7d7	-0.12446564
59	0x3ca537ba	0.020168174
60	0x3d354bf0	0.044261873
61	0xbc97d4e3	-0.01853413
62	0x3e706eaa	0.23479715
63	0xbe3c26fd	-0.18374248
64	0x3b673156	0.003527721
65	0x3e0935ca	0.13399425
66	0x3e1e4dd6	0.1545938
67	0xbf19130b	-0.5979468
68	0xbea66c5c	-0.32504547
69	0xbd4580cf	-0.048218545
70	0xbd3b351f	-0.045704957
71	0x3e90dd7e	0.28293985
72	0x3e35e803	0.17764287
73	0x3e125d91	0.14293505
74	0xbd69f3cb	-0.057117265
75	0xbe6199fa	-0.22031394
76	0xbe25789a	-0.16159287
77	0xbd8fd813	-0.07023635
78	0xbe970554	-0.29496253
79	0xbcf61a96	-0.030041974
80	0x3cb7296b	0.022358617
81	0x3da18354	0.07886377
82	0xbe34caa5	-0.17655428
83	0xbd7952e9	-0.060870085
84	0xbb769a8e	-0.0037628743
85	0xbec97a94	-0.39351332
86	0xbf064391	-0.5244685
87	0xbe414b6a	-0.18876424
88	0xbeaea2ec	-0.34108675
89	0x3e1bb96c	0.15207452
90	0x3d44d6aa	0.048056282
91	0xbd899b3f	-0.06719064
92	0xbe842d3d	-0.25815764
93	0xbde1a50c	-0.11017808
94	0xbe4e74c5	-0.20161732
95	0xbece710f	-0.40320632
96	0xbe2b986b	-0.16757362
97	0xbe14f740	-0.14547443
98	0x3e9988d1	0.29987195
99	0xbcc2a1d9	-0.023758816
100	0xbeb2d2ef	-0.34926555
101	0xbe55ab57	-0.20866142
102	0xbf057c01	-0.5214234
103	0xbe001e8a	-0.1251165
104	0xbd6d9e49	-0.05801228
105	0x3d4098c6	0.047020696
106	0x3dddd632	0.1083187
107	0x3e8849f7	0.2661893
108	0x3ded4d9b	0.11587068
109	0xbe46c38d	-0.19410534
110	0x3db4fb03	0.08836939
111	0x3e72c47e	0.23707768
112	0x3d6ba369	0.057528887
113	0xbeb81c20	-0.35958958
114	0x3e423690	0.18966126
115	0x3da6ef70	0.08151138
116	0xbe1611de	-0.14655253
117	0x3c657a04	0.014006142
118	0xbde5ef11	-0.11227239
119	0x3db1ef7f	0.086882584
120	0xbdc4a36d	-0.096014835
121	0xbe221172	-0.15826967
122	0xbf2599f3	-0.6468803
123	0x3da81625	0.08207349
124	0x3e768f38	0.24078071
125	0x3e3be91f	0.18350647
126	0x3e7fc9c6	0.24979314
127	0xbef9fa75	-0.48823896
128	0xbdda1bc7	-0.10649829
129	0xbea27a05	-0.3173372
130	0xbd968237	-0.07349055
131	0xbee47dff	-0.44627377
132	0x3e429d99	0.19005431
133	0xbea5901f	-0.32336518
134	0xbd844e7a	-0.06460281
135	0x3cf9d231	0.030495735
136	0x3dc648ca	0.09681852
137	0x3db2f72a	0.08738549
138	0x3f20d9d0	0.62832355
139	0xbe1726a3	-0.14760832
140	0xbec7026f	-0.38869044
141	0xbf06242d	-0.5239895
142	0xbe8d92bf	-0.2765102
143	0x3cf25f06	0.029586326
144	0x3dde4873	0.10853662
145	0xbea70938	-0.3262422
146	0xbd449ee4	-0.048003092
147	0x3d717ab7	0.05895492
148	0x3e36960d	0.17830677
149	0x3d577e4b	0.052610677
150	0xbd042984	-0.032266155
151	0xbf2ed342	-0.68291104
152	0x3e4c54c3	0.19954209
153	0xbe07b4f9	-0.1325263
154	0x3e27c367	0.16383134
155	0xbb4d4913	-0.0031324073
156	0xbd3c4900	-0.045968056
157	0xbef78180	-0.48340988
158	0xbf408747	-0.75206417
159	0xbef0ce86	-0.47032565
160	0x3cc98f9a	0.024604607
161	0x3c99aba0	0.018758595
162	0x3cafcac8	0.021458998
163	0x3ddb80d4	0.107179314
164	0xbf434ba3	-0.7628729
165	0x3cb9897c	0.022648565
166	0x3dec7d4e	0.115473375
167	0x3e9856b8	0.2975366
168	0xbdfe34cc	-0.12412414
169	0xbe659936	-0.22421727
170	0xbd5b3e10	-0.053525984
171	0xbf0f9c63	-0.56098
172	0xbe705085	-0.23468216
173	0xbe1e7da7	-0.1547762
174	0xbe76760e	-0.24068472
175	0x3e06a6b0	0.13149524
176	0x3d801a02	0.062549606
177	0x3ece3d26	0.40281028
178	0xbf0f1619	-0.55893093
179	0xbe19a889	-0.15005697
180	0x3d408ab8	0.047007293
181	0xbc3fa3e9	-0.011696794
182	0x3d5b77ef	0.053581174
183	0xbeaf401c	-0.342286
184	0xbef08b52	-0.46981293
185	0xbdb4fbb1	-0.08837069
186	0xbeb06486	-0.34451693
187	0xbe3296d0	-0.17440343
188	0xbf1c2db1	-0.6100722
189	0x3e8f375d	0.27971926
190	0xbf47dc28	-0.78070307
191	0xbeb6fe85	-0.35741058
192	0x3e1bac73	0.15202503
193	0x3da8710e	0.082246885
194	0x3cda6c9b	0.026663115
195	0xbec37a88	-0.3817942
196	0x3ca31105	0.019905576
197	0x3e59773c	0.2123689
198	0xbe86ab5b	-0.2630261
199	0x3eeb1eac	0.45921838
200	0xbf193e83	-0.5986101
201	0x3f024873	0.508918
202	0xbe56d62a	-0.20980135
203	0xbc904645	-0.017611632
204	0xbe843fb9	-0.25829867
205	0xbe922a29	-0.2854779
206	0x3ea75eac	0.32689416
207	0xbea92028	-0.33032346
208	0x3d727be5	0.059200186
209	0xbf4a90ae	-0.79127014
210	0x3e1b0385	0.15138061
211	0xbe7d7c4c	-0.24754447
212	0x3eb0febb	0.34569344
213	0xbe3d692c	-0.18497151
214	0xbe204149	-0.15649904
215	0x3e9fa25b	0.31178555
216	0x3d01ed25	0.0317203
217	0xbd8fe593	-0.0702621
218	0x3f1166ce	0.5679749
219	0xbda3608b	-0.079773985
220	0xbf33e781	-0.7027512
221	0xbebb30c6	-0.3656065
222	0xbed14de5	-0.4087974
223	0xbe83d699	-0.25749663
224	0xbde592e1	-0.112096556
225	0xbf101776	-0.562858
226	0xbeb179cf	-0.34663245
227	0xbe35ee17	-0.17766605
228	0x3daa1ea2	0.08306624
229	0xbc3fc64e	-0.011704994
230	0x3ddd458e	0.10804282
231	0xbe53f047	-0.20697127
232	0xbd22e904	-0.039773002
233	0x3d62e73f	0.055396315
234	0x3e2a285d	0.1661696
235	0x3d100707	0.03516295
236	0x3ec42b3b	0.38314232
237	0x3e05ac80	0.13054085
238	0x3e329027	0.17437802
239	0xbe9ba377	-0.3039815
240	0xbe8b657a	-0.27225858
241	0xbe198275	-0.14991172
242	0xbebcfe63	-0.36912832
243	0xbdbd5361	-0.09244419
244	0xbea22dd1	-0.3167558
245	0xbe7cbfa8	-0.24682486
246	0xbed94701	-0.42436984
247	0xbdaf8f37	-0.08572238
248	0x3eac571e	0.33660215
249	0xbdaa6815	-0.08320633
250	0x3ce6f78f	0.028194217
251	0x3d16308e	0.0366674
252	0xbe4bf7ae	-0.19918701
253	0x3e5f74d0	0.21821904
254	0x3e4d5e9d	0.20055623
255	0x3d8553e9	0.06510145

features_extractor.network.4.bias f4 [64]
0	0xbdbc2c4b	-0.09188136
1	0x3aa2973a	0.0012404688
2	0x3ee06b0d	0.43831673
3	0xbeb3e6b4	-0.3513695
4	0x3e88b05d	0.26697055
5	0x3f423156	0.7585653
6	0x3eeb7b4e	0.45992512
7	0x3f4562b2	0.7710372
8	0xbde5c728	-0.11219627
9	0x3bf6e174	0.0075342003
10	0x3e58da2a	0.21176973
11	0x3f2da2dd	0.67826635
12	0xbd2506c8	-0.04028967
13	0x3edc1244	0.42982686
14	0x3f036e87	0.51340526
15	0x3f0d857d	0.5528181
16	0x3e73b25a	0.23798504
17	0xbd8f175a	-0.06986876
18	0xbd64297f	-0.055703636
19	0x3eca2a78	0.39485526
20	0x3e573a29	0.2101828
21	0x3d61fde2	0.055173762
22	0xbca104bf	-0.019655583
23	0x3e2dcd3e	0.16972825
24	0xbe3672b7	-0.17817198
25	0xbe3da17f	-0.18518637
26	0xbd964a42	-0.07338382
27	0x3e653599	0.22383727
28	0x3f8db235	1.107001
29	0x3de00bf0	0.10939777
30	0xbdd47513	-0.10373893
31	0x3e80644b	0.25076517
32	0xbdf63c33	-0.12023201
33	0xbe07d118	-0.13263357
34	0xbe4a9e23	-0.19786887
35	0xbe38887f	-0.18020819
36	0xbdd1beb0	-0.10241449
37	0x3ef5359e	0.4789247
38	0x3eb85672	0.36003453
39	0x3f252858	0.64514685
40	0x3dce7b54	0.10082117
41	0xbe4dbc90	-0.20091462
42	0x3dcadfe0	0.09905982
43	0xbe6915ce	-0.22762224
44	0xbdbbc9ca	-0.091693476
45	0x3e89c7c7	0.2691023
46	0xbd4942c5	-0.049135942
47	0x3ea3fad7	0.32027313
48	0x3ec00445	0.37503257
49	0xbd0cfc4f	-0.034420308
50	0x3e6ad9f1	0.229347
51	0x3e9ee90e	0.31037182
52	0xbe37c0d8	-0.17944658
53	0xbd685600	-0.05672264
54	0x3f0076b2	0.50181115
55	0x3d968e6b	0.07351383
56	0x3bcdc599	0.006279659
57	0x3cf2c3d5	0.029634396
58	0xbe7d4a13	-0.24735288
59	0x3ed8acd9	0.42319372
60	0xbe17a18c	-0.14807719
61	0x3d98f21d	0.074680544
62	0xbd261d17	-0.040555086
63	0xbe25d6ab	-0.1619517

features_extractor.network.6.weight f4 [32, 64]
0	0xbd8ab999	-0.06773681
1	0xbf043c3d	-0.51654416
2	0xbf028a8b	-0.5099265
3	0x3d6bc8a5	0.057564396
4	0x3f1c0612	0.6094676
5	0xbf014d4d	-0.50508577
6	0xbdcad981	-0.09904767
7	0xbdec42d6	-0.115361854
8	0xbe555ba7	-0.20835744
9	0xbe72cbe1	-0.23710586
10	0x3e7238ba	0.23654452
11	0x3e92209f	0.28540513
12	0xbe83815c	-0.2568463
13	0x3ec481b9	0.3838022
14	0xbde1d685	-0.110272445
15	0xbd9183b1	-0.07105196
16	0xbe3d9541	-0.18513967
17	0x3daaff0a	0.08349426
18	0xbf850d57	-1.0394696
19	0x3e343419	0.17597999
20	0x3d10b373	0.035327386
21	0x3e9f5620	0.31120396
22	0xbe53d503	-0.20686726
23	0x3eb7ab9e	0.3587312
24	0xbef5c35e	-0.48000616
25	0xbe2c7ede	-0.16845271
26	0x3e6f0d6a	0.23344961
27	0xbed00af1	-0.40633348
28	0xbfac0701	-1.3439637
29	0xbe9ee255	-0.31032053
30	0xbf8b714e	-1.0893953
31	0x3e4e1eda	0.20128956
32	0x3c6385c8	0.013886876
33	0x3ec8f435	0.39248815
34	0x3dbdede8	0.09273893
35	0x3b8984eb	0.0041967533
36	0x3edd05eb	0.43168578
37	0xbf72c786	-0.948357
38	0xbecb154f	-0.39664695
39	0xbeefdc64	-0.46847832
40	0xbf48d125	-0.7844413
41	0xbf21065b	-0.6290032
42	0xbe876f10	-0.2645192
43	0x3f0df279	0.5544811
44	0xbe5bf48c	-0.21480006
45	0xbebc1a02	-0.36738592
46	0x3f3fe737	0.7496218
47	0x3e5cf440	0.21577549
48	0xbd2bafe9	-0.041915808
49	0xbe7a3023	-0.24432425
50	0xbe9ddada	-0.30831033
51	0xbd232172	-0.039826818
52	0xbed15732	-0.40886837
53	0x3d839596	0.06425016
54	0x3e7eae4b	0.24871175
55	0xbe62b3f4	-0.22138959
56	0xbf295b6d	-0.6615513
57	0xbd9c2bae	-0.07625519
58	0xbf27e181	-0.65578467
59	0x3ebf42e4	0.3735572
60	0x3f52114a	0.8205763
61	0xbe182cbb	-0.14860813
62	0xbdc9b821	-0.09849573
63	0xbfa9d0f6	-1.3266895
64	0xbdfc2926	-0.12312536
65	0x3e08d020	0.13360643
66	0x3d684b12	0.056712218
67	0xbeb8bf22	-0.36083323
68	0xbefaa2aa	-0.48952228
69	0xbf73017d	-0.94924146
70	0xbf4b798c	-0.7948234
71	0xbe1d9ad0	-0.15391088
72	0xbec473c9	-0.38369587
73	0x3ebf9ae0	0.37422848
74	0x3c1735db	0.009229149
75	0x3eb092ec	0.34487092
76	0xbe8123e4	-0.25222695
77	0xbfa9d02d	-1.3266655
78	0x3d4fd475	0.050739724
79	0xbe27baec	-0.16379899
80	0xbe1239c6	-0.14279851
81	0x3e1fdeff	0.1561241
82	0xbd89a7c2	-0.067214504
83	0xbf2c6351	-0.67339045
84	0xbdb4eda5	-0.088343896
85	0xbdbeae9c	-0.09310648
86	0xbebeecf9	-0.3729017
87	0xbdb0b913	-0.0862905
88	0x3f29bc29	0.66302735
89	0xbf1e81db	-0.61916894
90	0x3ed754dc	0.4205693
91	0xbef9cf36	-0.48790902
92	0xbeb3be2c	-0.35106027
93	0x3eac6d28	0.3367703
94	0x3d8ccd08	0.06875044
95	0xbee9d89a	-0.45673066
96	0x3e4f440c	0.20240802
97	0x3e0754fb	0.13216011
98	0xbe90dff0	-0.2829585
99	0x3fab3592	1.3375723
100	0x3e3543ed	0.17701693
101	0xbdc5e6b4	-0.09663144
102	0xbf2dc7ad	-0.67882806
103	0x3e18fefb	0.14941017
104	0xbe62b86e	-0.22140667
105	0x3f89cf9c	1.0766482
106	0x3e50d38f	0.20393203
107	0xbe71db82	-0.23618892
108	0xbf8a74f4	-1.0816941
109	0xbd156410	-0.03647238
110	0xbd076400	-0.03305435
111	0xbe893c79	-0.2680395
112	0xbd9ecff1	-0.077545054
113	0xbd4987d3	-0.049201798
114	0x3ee8c18c	0.45460165
115	0xbf394a5e	-0.723791
116	0x3e0fd98d	0.14047833
117	0xbe425a18	-0.1897968
118	0xbec5421b	-0.38526997
119	0x3b7f323f	0.003893986
120	0xbcccf49d	-0.025018984
121	0xbdb099db	-0.086230956
122	0xbd7bea25	-0.061502595
123	0xbe2de617	-0.16982304
124	0x3dd1ffbc	0.102538556
125	0xbe94ae6d	-0.29039326
126	0x3edd803f	0.43261907
127	0x3f114b6f	0.5675573
128	0xbb221bef	-0.0024735888
129	0xbe688141	-0.22705556
130	0x3e94c89e	0.2905931
131	0xbdae83d0	-0.08521235
132	0xbb845636	-0.0040385975
133	0xbdb59477	-0.08866208
134	0x3e9c25bd	0.30497542
135	0xbc0b751d	-0.008511809
136	0xbe82d85b	-0.2555569
137	0x3e3d3e9e	0.18480918
138	0x3ccafc08	0.024778381
139	0xbeac2585	-0.33622375
140	0xbe4767c2	-0.19473174
141	0xbd632e87	-0.055464294
142	0x3f17181f	0.5902118
143	0x3ecdbe6d	0.40184346
144	0x3ec4dd34	0.38450015
145	0xbd6da20c	-0.058015868
146	0xbf7ba624	-0.98300385
147	0x3eb9ad14	0.3626486
148	0xbeddc05d	-0.43310824
149	0x3f2fcac0	0.68668747
150	0xbcf6a93a	-0.03010999
151	0x3b113359	0.002215585
152	0x3dec57de	0.11540197
153	0xbebf10d4	-0.37317526
154	0x3ec92102	0.39282995
155	0xbf61ebb8	-0.88250303
156	0xbd9820c6	-0.07428126
157	0xbe615279	-0.22004117
158	0xbe662234	-0.22473985
159	0x3e763a25	0.24045618
160	0x3f0fd258	0.56180334
161	0xbdbd8161	-0.09253193
162	0x3ec3cb03	0.38240823
163	0x3ec26c25	0.37973133
164	0xbf1119b3	-0.5667984
165	0xbf3ccf27	-0.7375359
166	0x3dba9d3f	0.091120236
167	0xbe81ade7	-0.2532799
168	0xbf8446d8	-1.033412
169	0x3fba09d5	1.453425
170	0x3e8b9e79	0.27269343
171	0x3d846bc5	0.06465868
172	0x3e8a2082	0.26977926
173	0xbe98ff9e	-0.2988252
174	0x3ef82a32	0.48469692
175	0xbf06a6be	-0.5259818
176	0xbeb32c62	-0.349948
177	0xbf99fbcd	-1.2029969
178	0xbf210ec5	-0.6291316
179	0x3e1ca0cf	0.15295719
180	0x3cc30a4f	0.023808626
181	0xbe1cacbc	-0.15300268
182	0xbf4c0103	-0.79689044
183	0xbf862beb	-1.0482153
184	0xbf251c27	-0.6449608
185	0xbe0f4119	-0.13989677
186	0xbf32b670	-0.6980963
187	0xbed9432e	-0.42434067
188	0x3f3c0b5e	0.73454845
189	0xbf1d737a	-0.6150433
190	0x3e89778d	0.26849023
191	0x3d89a994	0.067217976
192	0xbf59b1ee	-0.85037124
193	0x3edcf383	0.43154535
194	0x3ebab81d	0.36468592
195	0xbf7af186	-0.98024786
196	0xbe4de28e	-0.20105955
197	0x3e5e95d6	0.21736845
198	0xbfabb316	-1.3414028
199	0x3ec8751a	0.3915184
200	0x3f9c5ea9	1.2216388
201	0xbfb674ed	-1.4254433
202	0x3ecc90b9	0.39954165
203	0xbf04628e	-0.5171288
204	0x3f4a55ea	0.79037344
205	0xbf340e50	-0.7033434
206	0xbea7bdc7	-0.32761976
207	0xbea0123c	-0.31263912
208	0xbe2bdb8d	-0.1678297
209	0x3ee574f1	0.44815782
210	0xbe827894	-0.2548262
211	0x3de80d50	0.11330664
212	0x3e3148ee	0.17312977
213	0xbebf7962	-0.37397295
214	0x3f20dd2a	0.6283747
215	0xbe27e316	-0.1639522
216	0xbfa1ef72	-1.2651198
217	0x3d486124	0.048920766
218	0xbf0c5b54	-0.54826856
219	0x3c7af2f5	0.0153167145
220	0xbecaa995	-0.39582506
221	0x3f2e95e1	0.6819745
222	0x3f16cb42	0.58903897
223	0x3f6a6717	0.9156355
224	0xbe5395ae	-0.20662567
225	0x3eb9ed12	0.36313683
226	0xbf0a66d1	-0.54063135
227	0xbf2f4068	-0.6845765
228	0xbf021b42	-0.5082284
229	0x3d81bd59	0.06334943
230	0xbe8c7d2b	-0.27439246
231	0xbf9eda8a	-1.2410443
232	0x3e6be358	0.23035944
233	0xbf38393c	-0.7196233
234	0x3e4a8d55	0.19780476
235	0xbee0197b	-0.4376944
236	0xbf62399b	-0.8836915
237	0x3e7694f2	0.24080256
238	0xbf403cb7	-0.75092643
239	0x3e99a94c	0.30011976
240	0x3e85f9d5	0.2616717
241	0x3d1e8424	0.038700238
242	0xbf831f8f	-1.0244006
243	0x3f020618	0.5079055
244	0x3f01bd09	0.5067907
245	0x3ab53e9e	0.0013827865
246	0xbc817540	-0.01580298
247	0x3e1900c7	0.14941703
248	0x3f35d7e1	0.7103253
249	0x3ed88cc2	0.4229489
250	0x3f6d27ad	0.92638665
251	0xbe16b377	-0.14716898
252	0xbed89c48	-0.42306733
253	0x3f2e7d1e	0.68159664
254	0xbe7de8fe	-0.2479591
255	0xbdf029e7	-0.11726742

features_extractor.network.6.bias f4 [32]
0	0xbf535078	-0.8254466
1	0xbe35ebc5	-0.1776572
2	0x3f17a984	0.59243035
3	0x3e910f17	0.28331825
4	0x3f32e242	0.6987649
5	0x3ea5347f	0.32266614
6	0xbc79131f	-0.015202313
7	0xbe2a44ad	-0.1662776
8	0x3e8c016b	0.27344832
9	0x3ebf82e4	0.3740455
10	0x3f455602	0.7708436
11	0x3f380478	0.7188182
12	0xbe8a5bec	-0.27023256
13	0xbf593e00	-0.8486023
14	0xbf27888c	-0.6544273
15	0xbf2cca28	-0.67495966
16	0x3e1ead0c	0.154957
17	0xbf0989f0	-0.537261
18	0x3e60103b	0.21881191
19	0xbee93149	-0.45545414
20	0x3f07f29a	0.53104556
21	0xbebdecda	-0.37094766
22	0xbe929451	-0.2862878
23	0xbe37fd2e	-0.17967674
24	0xbea6e7db	-0.32598767
25	0xbe821521	-0.25406745
26	0xbf3da40d	-0.74078447
27	0x3dcb6c70	0.09932792
28	0x3ec1f438	0.37881637
29	0xbf1b94f1	-0.6077414
30	0x3e115bfa	0.14195243
31	0x3f6f53b3	0.9348709

pi_features_extractor.network.0.weight f4 [64, 18]
0	0xbe66e018	-0.22546422
1	0x3f22780d	0.6346443
2	0xbe788a5c	-0.2427153
3	0xbe2c6a3f	-0.16837405
4	0xbdbffec7	-0.09374767
5	0xbd6756ce	-0.056479268
6	0xbe59e16b	-0.21277396
7	0x3ebfa727	0.37432215
8	0x3f284efa	0.6574551
9	0x3f09e0fc	0.53858924
10	0x3d57b92c	0.052666828
11	0x3e93edcb	0.2889236
12	0xbe9d8ec5	-0.30772987
13	0x3f0aec29	0.542666
14	0x3dc76b87	0.09737306
15	0x3df69135	0.12039415
16	0x3ebabd59	0.36472586
17	0xbebba59c	-0.36649787
18	0x3f2858c1	0.6576043
19	0xbd881693	-0.06644931
20	0x3eaa6df7	0.33287022
21	0x3ed633b5	0.41836324
22	0xbe08e8db	-0.13370077
23	0x3edabfd6	0.42724484
24	0xbf1e3b71	-0.6180945
25	0xbf6c12d6	-0.9221624
26	0xbfcaf6e9	-1.5856601
27	0xbdfbec03	-0.12300875
28	0x3f151e7c	0.5824964
29	0x3ed1612b	0.40894446
30	0xbf527f8f	-0.8222589
31	0xbf15cf62	-0.58519566
32	0x3f4c4098	0.7978606
33	0x3e14c9ee	0.14530155
34	0x3f2fb55a	0.68636096
35	0x3e0c5819	0.13705482
36	0x3d0630b3	0.032761287
37	0x3d5056f9	0.050864194
38	0x3eac2481	0.336216
39	0x3f6b01cc	0.91799617
40	0x3e0f3d22	0.13988164
41	0x3f1fa95a	0.62367785
42	0x3f14d8a4	0.5814307
43	0xbc7e9302	-0.015537979
44	0xbbc74a94	-0.0060818885
45	0xbebc3852	-0.3676172
46	0xbe1cd608	-0.15316021
47	0xbeaa8a53	-0.33308658
48	0xbb2d00c0	-0.0026398152
49	0xbd605078	-0.05476424
50	0x3e22a8be	0.15884683
51	0xbeda304b	-0.4261497
52	0x40507136	3.2569098
53	0x3e30c3b9	0.17262162
54	0x3ecc3872	0.39886814
55	0xbf23dd33	-0.640094
56	0x3eb8939a	0.3605011
57	0xbe6c8b0c	-0.23099917
58	0x3e51f62a	0.2050406
59	0x3f4b05a9	0.7930551
60	0xbdbf6913	-0.09346213
61	0xbe8f673c	-0.2800845
62	0xbeb9fb4a	-0.3632453
63	0x3ed4f6e9	0.41594627
64	0xbe832d7b	-0.25620636
65	0x3f8e0044	1.1093831
66	0x3f2bb770	0.6707678
67	0x3fab1bd0	1.3367863
68	0x3f095383	0.53643054
69	0x3e5e3d97	0.21703182
70	0xbf53a395	-0.8267148
71	0xbd1db01b	-0.038498025
72	0x3e4729df	0.19449566
73	0x3f7017b7	0.93786186
74	0x3e29fe6c	0.1660096
75	0x3d0b20c8	0.03396681
76	0xbf5ba35a	-0.8579613
77	0xbdf3c218	-0.11902255
78	0xbe3fc151	-0.18726088
79	0xbf07aa82	-0.5299455
80	0xbe264021	-0.162354
81	0x3c854167	0.016266538
82	0xbef5be7c	-0.4799689
83	0xbe11489f	-0.14187859
84	0x3d9f13a5	0.07767419
85	0xbce37a0f	-0.027768163
86	0xbf0a008f	-0.539071
87	0xbf20b053	-0.6276905
88	0xc009cf6a	-2.1532845
89	0x3eb207eb	0.34771666
90	0xbf91f2f4	-1.1402268
91	0x3d1b988b	0.037987273
92	0xbf849dca	-1.0360653
93	0xbc570dd8	-0.013125859
94	0x3f9e1337	1.2349614
95	0xbddfc3e4	-0.10926035
96	0x3e91315d	0.28357974
97	0xbec1e1fe	-0.3786773
98	0xbe8cb324	-0.27480423
99	0xbbd9f539	-0.0066515473
100	0x3e1a7d95	0.15086968
101	0xbe84e4c5	-0.25955787
102	0xbf501493	-0.81281394
103	0x3f3d8161	0.7402554
104	0x3e3f6dd6	0.18694243
105	0xbd1bca7e	-0.03803491
106	0xbdf6c6a6	-0.12049608
107	0xbe89418f	-0.2680783
108	0xbe14f3b5	-0.14546092
109	0x3ed62e9f	0.41832444
110	0x3e9b03d8	0.3027637
111	0x3e94d6d3	0.29070148
112	0x3e9156a2	0.28386408
113	0x3ef9723b	0.48719963
114	0x3f17d20c	0.5930488
115	0xbfcbc4bc	-1.5919414
116	0x3f4fceec	0.8117511
117	0x3f07d707	0.5306248
118	0xbe432a73	-0.19059162
119	0x3d5b4db7	0.05354091
120	0xbf1de492	-0.61676896
121	0x3f2d71af	0.6775159
122	0x3f663b7e	0.8993453
123	0x3f9d4113	1.2285484
124	0xbf32b5ef	-0.6980886
125	0x3de5446e	0.111946926
126	0x3e8925c8	0.26786637
127	0xbe5c10f2	-0.21490839
128	0xbc96091d	-0.018314892
129	0x3e9f4371	0.3110614
130	0x3e9bfa3a	0.30464345
131	0x3d13657f	0.035985466
132	0xbe961867	-0.29315493
133	0xbe4bd035	-0.19903643
134	0x3cb5502d	0.022132957
135	0xbde2c9c9	-0.11073644
136	0x3df6d9cd	0.12053261
137	0xbe7cf7d4	-0.24703914
138	0x3d8dd1cf	0.069247834
139	0xbdcc7fa4	-0.09985283
140	0x3ece7a20	0.4032755
141	0x3def80b6	0.116944715
142	0xbdc42b09	-0.09578521
143	0xc02a5dc3	-2.6619728
144	0xbdec30c3	-0.11532738
145	0xbf18b814	-0.5965588
146	0xbfb455d0	-1.4088688
147	0xbeda4702	-0.426323
148	0xbf121b75	-0.57073146
149	0x3ecf690b	0.4050983
150	0x3fbcb61b	1.4743074
151	0xbea1a4d6	-0.31571072
152	0x3dfc4c77	0.12319272
153	0x3cca3bda	0.024686743
154	0xbf006471	-0.5015326
155	0xbe76ff5f	-0.24120854
156	0x3ef66f24	0.4813167
157	0xbf63ad2b	-0.8893611
158	0xbe6c7934	-0.2309311
159	0x3f3bce8d	0.73362046
160	0xbd567552	-0.05235798
161	0x3dcdc63f	0.10047578
162	0x3f8d8245	1.105538
163	0xbf482130	-0.7817564
164	0xbf6c905d	-0.9240778
165	0xbfa2aef4	-1.2709641
166	0xbe4f2871	-0.20230271
167	0xbf997786	-1.1989601
168	0xbef433bd	-0.47695723
169	0x3f3db1dd	0.7409952
170	0x3e54eec6	0.2079421
171	0xbfb8afc0	-1.4428635
172	0x3f392007	0.72314495
173	0xbe3212b1	-0.17389943
174	0x3f2d7f1e	0.6777209
175	0xbeabcc64	-0.33554375
176	0x3e8f40cb	0.2797912
177	0x3f4a7b13	0.79094046
178	0xbf0909bd	-0.53530484
179	0xbdff02f0	-0.12451732
180	0xbe78287c	-0.24234194
181	0xc0100238	-2.2501354
182	0x3f97027d	1.1797634
183	0x3e4eb6b5	0.20186885
184	0xbf73d2a9	-0.95243317
185	0x3ee8a769	0.45440224
186	0x3ed0497c	0.40681064
187	0xbf554331	-0.8330565
188	0x3e5b313f	0.21405505
189	0xbeb2f54e	-0.34952778
190	0x3f2a09e4	0.6642134
191	0xbe25310b	-0.1613199
192	0xbf1cb1a4	-0.6120856
193	0xbe850974	-0.25983775
194	0xbd3b9dcd	-0.045804787
195	0x3e9ea06d	0.3098177
196	0x3e8ef91f	0.2792444
197	0xbc024b4a	-0.007952521
198	0x3c0740a2	0.008255156
199	0x3d9c0a37	0.07619136
200	0x3da4a367	0.08038979
201	0x3d5dbc38	0.054134578
202	0x3d8ab3d1	0.067725785
203	0xbcf65cf1	-0.030073615
204	0x3d3181e4	0.043336764
205	0xbd06d2bf	-0.032915827
206	0xbdbb821c	-0.09155676
207	0x3a8b3b0d	0.0010622457
208	0xbd28006a	-0.04101602
209	0x3be87d76	0.0070950342
210	0x3dc037bb	0.0938563
211	0xbc61798b	-0.013761888
212	0xbc0513cd	-0.008122397
213	0xbc974daf	-0.01846966
214	0x3e626b3e	0.22111222
215	0xbf827bc5	-1.0194021
216	0x3d6a189e	0.057152383
217	0xbe9b8ce8	-0.3038094
218	0x3e0f013e	0.13965318
219	0xbfbef96a	-1.4919865
220	0xbeeba4cc	-0.46024168
221	0x3ddf13a7	0.1089242
222	0x3e8f3826	0.27972525
223	0xbed9fa8c	-0.42573965
224	0x3f465db5	0.77486736
225	0xbf37cb63	-0.7179472
226	0x3e251c8d	0.16124173
227	0x3c8f8d9f	0.017523585
228	0xbda19291	-0.078892834
229	0x3e0e4f1e	0.13897368
230	0x3f2d2ab7	0.676433
231	0x3fef6cba	1.8705056
232	0xbea249ea	-0.31697017
233	0x3e1bf4a1	0.15230037
234	0x3d5e75a8	0.054311424
235	0x3ca550bf	0.020180104
236	0xbe836202	-0.25660712
237	0x3d32f6eb	0.04369251
238	0x3daa28e1	0.08308578
239	0xbddd8ee7	-0.10818272
240	0x3e3ab61e	0.18233535
241	0x3e8d5ea4	0.27611268
242	0x3cf5072c	0.029910646
243	0xbeaa5be6	-0.33273238
244	0xbdffec0d	-0.12496195
245	0x3caa876e	0.020816531
246	0x3c98dc51	0.018659743
247	0xbdf667e8	-0.12031537
248	0x3ea20a37	0.31648418
249	0xbe08f916	-0.13376269
250	0xbf8e7410	-1.112917
251	0xbdedd7a3	-0.11613395
252	0x3de5fb97	0.112296276
253	0xbe771fc1	-0.24133207
254	0xbf760218	-0.96096945
255	0x3e792ba5	0.24333055

pi_features_extractor.network.0.bias f4 [64]
0	0x3f1e1317	0.6174788
1	0x3e201db6	0.15636334
2	0xbb6aaae4	-0.0035807425
3	0x3f631093	0.88697165
4	0x3f281be1	0.6566754
5	0x3e1a3de8	0.15062678
6	0xbd7c02e5	-0.061526198
7	0x3ee00481	0.43753436
8	0x3e710d3d	0.23540206
9	0xbe463415	-0.19355805
10	0x3ee6dc65	0.45090023
11	0x3f682985	0.90688354
12	0x3e7a0d46	0.24419126
13	0x3f67db52	0.9056903
14	0x3ec7ab03	0.3899766
15	0x3e7ef347	0.2489749
16	0x3ead8039	0.3388689
17	0x3f8c0825	1.0939986
18	0x3eba67d5	0.36407343
19	0x3f313dc4	0.6923487
20	0x3e60ce47	0.21953689
21	0x3e3eecf0	0.18645072
22	0x3f2e2aa2	0.680338
23	0x3bf60425	0.0075078183
24	0x3f0891ef	0.53347677
25	0x3e717b69	0.23582233
26	0xbdb1c01e	-0.086792216
27	0x3f9dd906	1.2331855
28	0x3f1771f5	0.5915826
29	0x3f53b011	0.8269053
30	0x3ee410b2	0.44543988
31	0xbf2726a9	-0.65293366
32	0x3e9ceb83	0.3064843
33	0x3e7b298a	0.24527565
34	0x3f473f6d	0.77831155
35	0xbe4568fe	-0.19278333
36	0x3dab91e7	0.08377438
37	0x3f0d5819	0.5521255
38	0x3e8c5b30	0.2741332
39	0xbf2fd504	-0.6868441
40	0x3edd0d8a	0.43174392
41	0x3e946781	0.28985217
42	0x3e9750ca	0.29553825
43	0x3dc1ad4a	0.094568804
44	0x3f81e510	1.0148029
45	0x3e371fd2	0.17883232
46	0x3ee14386	0.4399683
47	0x3e83e8fe	0.25763696
48	0x3ec2ea67	0.3806946
49	0x3e825e1a	0.2546242
50	0x3ea7cdbd	0.32774153
51	0x3edfffbb	0.43749794
52	0xbe19bdd6	-0.15013823
53	0x3f3cacdf	0.7370128
54	0x3f42b4c5	0.7605708
55	0x3e8953bd	0.268217
56	0x3f4c7bf4	0.7987664
57	0x3f7b61a9	0.9819589
58	0x3ed5e65a	0.41777307
59	0x3d5e199c	0.05422364
60	0x3ec0ffee	0.3769526
61	0x3e23786a	0.15963903
62	0xbe1f9c12	-0.1558688
63	0x3e6c86b6	0.23098263

pi_features_extractor.network.2.weight f4 [128, 64]
0	0x3c1438af	0.009046718
1	0x3e83db06	0.2575304
2	0x3f44e92e	0.76918304
3	0xbef20f01	-0.47277072
4	0x3efff6ac	0.49992883
5	0x3edcee8e	0.43150753
6	0xbe022ffd	-0.12713619
7	0xbed4d7a8	-0.41570783
8	0x3f11c95b	0.5694787
9	0xbeabfc63	-0.33590993
10	0xbb028382	-0.001991481
11	0x3ea71d7f	0.3263969
12	0xbf938ab5	-1.1526705
13	0x3e4ffd05	0.20311363
14	0xbe8cf221	-0.2752848
15	0x3e5d2085	0.21594436
16	0xbd8ecd24	-0.06972721
17	0xbef8f0e2	-0.4862128
18	0xbf890a8f	-1.0706347
19	0xbf71210c	-0.9419105
20	0x3e51d883	0.20492749
21	0x3f4e720b	0.80642766
22	0xbdc2dc1d	-0.095146395
23	0x3ea23c76	0.31686753
24	0xbdc909dd	-0.098163344
25	0xbea0695e	-0.3133039
26	0x3f013886	0.5047687
27	0xbec309ca	-0.38093406
28	0x3f517ed0	0.81834126
29	0xbf00ac1a	-0.50262606
30	0xbf49b8c1	-0.7879754
31	0x3f00191e	0.50038326
32	0x3e9a2e31	0.30113366
33	0xbfc8ce7b	-1.5688013
34	0xbed84f65	-0.42248073
35	0xbf6185de	-0.8809489
36	0xbedc5615	-0.43034425
37	0xbf848975	-1.0354449
38	0x3e85a1db	0.26100048
39	0x3f8f923e	1.1216505
40	0xbd8779c0	-0.06615019
41	0xbf09edb2	-0.5387832
42	0x3da4b3c6	0.080421016
43	0x3fac1397	1.3443478
44	0xbd16cdf6	-0.036817513
45	0x3de1f1ad	0.11032424
46	0x3f928612	1.1447165
47	0x3d31955e	0.04335534
48	0x3ea1b150	0.3158059
49	0x3e9f62e0	0.31130123
50	0x3f09df10	0.5385599
51	0xbef4eb5c	-0.47835815
52	0x3efd11cd	0.49427643
53	0xbe36a467	-0.17836152
54	0xbefe7a47	-0.49702665
55	0x3cdbca45	0.026829848
56	0x3e905d66	0.28196257
57	0x3dc58fa3	0.09646537
58	0x3f1d0a87	0.6134419
59	0x3e880cf3	0.2657238
60	0xbe578add	-0.21049066
61	0x3ee03077	0.43786976
62	0x3f181589	0.5940786
63	0x3e912665	0.28349605
64	0x3ebdf31a	0.37099534
65	0x3d42e877	0.047584977
66	0xbf72c147	-0.9482617
67	0x3ed92965	0.42414394
68	0x3cebb622	0.028773371
69	0xbe4f49f1	-0.2024305
70	0x3f154175	0.58303005
71	0xbe4f2641	-0.20229436
72	0x3eddf49c	0.43350685
73	0xbf765fa4	-0.96239686
74	0xbe1bbaee	-0.15208027
75	0x3dcbabbd	0.09944866
76	0xbf531eee	-0.8246907
77	0x3ea31327	0.3185055
78	0xbe6fc384	-0.23414427
79	0x3f01cb4c	0.5070083
80	0x3e882f33	0.2659851
81	0x3c6c377f	0.014417528
82	0xbeb441f4	-0.35206568
83	0x3d7600b5	0.060059268
84	0x3f2662c1	0.64994437
85	0x3f16f716	0.58970773
86	0x3f0c375f	0.5477199
87	0x3f350e36	0.7072481
88	0x3dd85f7d	0.10565088
89	0xbd26bd4a	-0.040707864
90	0x3f9bd9ca	1.2175839
91	0x3f004f0d	0.5012062
92	0x3f281a2e	0.6566495
93	0xbec492f4	-0.38393366
94	0x3e4ee0d3	0.20202951
95	0xbf1585de	-0.5840739
96	0xbd89225f	-0.06696009
97	0xbf14d982	-0.5814439
98	0x3ee066b2	0.4382835
99	0x3ed03a6d	0.40669575
100	0xbf618d23	-0.8810598
101	0xbeed4faf	-0.46349856
102	0xbe674282	-0.22583964
103	0xbf9b9001	-1.2153322
104	0xbc8767bc	-0.016528957
105	0x3dd8d5f1	0.10587681
106	0xbf232102	-0.6372224
107	0xbfa54d5c	-1.2914233
108	0x3ea7fba7	0.32809183
109	0xbf16d942	-0.5892526
110	0xbf056782	-0.52111065
111	0xbd9bc1f7	-0.07605355
112	0x3e6cde73	0.23131733
113	0xbf4d9b6a	-0.8031527
114	0x3f335967	0.7005829
115	0x3f3ab231	0.7292815
116	0x3f8a3ac1	1.079918
117	0x3ee0988b	0.4386638
118	0x3f83ddc0	1.0302048
119	0x3e8547bf	0.260313
120	0x3efbd850	0.4918847
121	0xbf493a8e	-0.7860497
122	0x3f65131b	0.8948228
123	0xbf060ea3	-0.52366084
124	0x3e38a008	0.18029797
125	0x3e9c872f	0.30571887
126	0xbe7eedfc	-0.24895471
127	0xbe7e6887	-0.24844562
128	0xbf735454	-0.9505055
129	0xbdb03841	-0.086044796
130	0xbe53925b	-0.20661299
131	0x3e984dca	0.29746848
132	0x3f4970c1	0.78687674
133	0xbe8e064c	-0.2773918
134	0x3f90dddc	1.1317706
135	0xbf1f924f	-0.62332624
136	0xbe2587b0	-0.16165042
137	0x3f2c8991	0.6739741
138	0xbf51a969	-0.81899124
139	0xbe23ad06	-0.15983972
140	0xbe11f3e3	-0.14253192
141	0x3e9a6999	0.3015869
142	0x3ea39220	0.31947422
143	0x3efb5ddb	0.49095044
144	0x3f56a585	0.8384631
145	0x3ed3c5ea	0.41361934
146	0xbf2e01ee	-0.67971694
147	0xbf8f86a4	-1.1212964
148	0x3f3b0998	0.73061514
149	0xbf1ad23e	-0.60477054
150	0x3f0820c8	0.5317502
151	0x3e3c2849	0.18374743
152	0x3f0a4a07	0.54019207
153	0xbd5489d1	-0.051889244
154	0xbed6345c	-0.41836822
155	0x3e8adf6e	0.27123588
156	0x3e86e958	0.26349902
157	0x3ea4700c	0.32116735
158	0xbec40d23	-0.38291273
159	0x3f70dc21	0.9408589
160	0x3e96ae42	0.29429823
161	0x3e1798c2	0.14804366
162	0x3ed6dfd9	0.41967657
163	0x3f192a60	0.59830284
164	0x3efa1ea9	0.48851517
165	0xbc2d1f61	-0.010566563
166	0xbe5e5089	-0.21710409
167	0x3e223bcc	0.15843123
168	0x3c72e66d	0.014825446
169	0xbe309d99	-0.17247619
170	0x3f1a90db	0.6037728
171	0x3d236b89	0.039897475
172	0xbe87104b	-0.26379618
173	0xbe10d4fd	-0.14143749
174	0x3d310daf	0.04322594
175	0x3f398aa7	0.7247719
176	0x3e94427d	0.28956977
177	0xbddba135	-0.10724107
178	0x3f583359	0.8445335
179	0xbf7b6cf9	-0.98213154
180	0xbe80c633	-0.25151214
181	0xbdc07144	-0.09396604
182	0x3f1f7eaf	0.6230268
183	0x3f771c7d	0.96527845
184	0xbecc28d6	-0.39874905
185	0xbf1442c0	-0.5791435
186	0x3ede8feb	0.43469176
187	0x3f846743	1.0344013
188	0xbecf19ae	-0.4044928
189	0xbf1c3f82	-0.61034405
190	0x3e214779	0.15749921
191	0xbf3b2c82	-0.7311479
192	0xbca8d630	-0.020609945
193	0x3f4018a5	0.75037605
194	0x3fd3a0fc	1.6533504
195	0x3ea7ad14	0.32749236
196	0xbe662e5e	-0.22478625
197	0xbefe4747	-0.49663755
198	0xbf1153b8	-0.5676837
199	0x3de9e45e	0.11420511
200	0xbeedae34	-0.4642197
201	0xbfe89d82	-1.8173068
202	0x3b8e914c	0.004350817
203	0x3e51d40a	0.20491043
204	0xbfd0f504	-1.6324773
205	0xbe1c3e7e	-0.15258214
206	0xbe56f92c	-0.20993489
207	0x3e2f8c97	0.17143475
208	0x3f137a95	0.5760892
209	0x3ec83cca	0.39108878
210	0xbeca4844	-0.3950826
211	0x3dda718f	0.10666191
212	0x3f60de02	0.8783876
213	0x3ee26a1b	0.44221577
214	0x3eb50c5f	0.35361
215	0xbf5056b5	-0.81382304
216	0x3ec66b41	0.38753703
217	0xbf16e35d	-0.5894068
218	0x3e8a58ac	0.27020776
219	0xbe376b78	-0.1791209
220	0x3ecde425	0.40213123
221	0x3f0b7da1	0.5448857
222	0x3f15f8fd	0.5858305
223	0xbf0339be	-0.5125998
224	0x3f2907dc	0.6602762
225	0x3e458bdc	0.19291633
226	0xbdaecbef	-0.08534991
227	0x3d39c236	0.04535123
228	0xbf25ca48	-0.6476178
229	0xbe770067	-0.24121247
230	0x3a56b98b	0.00081911
231	0x3feb1cde	1.8368185
232	0x3d5b8d6e	0.053601675
233	0xbf2d7352	-0.6775409
234	0xbf0cf953	-0.5506794
235	0xbd6576ec	-0.056021616
236	0xbeb344f5	-0.35013548
237	0x3f829aeb	1.0203527
238	0xbe8a3361	-0.26992324
239	0xc00b129f	-2.1730115
240	0x3e76734d	0.24067421
241	0xbde56147	-0.11200195
242	0xbe533d20	-0.20628786
243	0xbf2d544f	-0.6770677
244	0xbd8321af	-0.06402909
245	0x3d1f092a	0.0388271
246	0x3fbcb94e	1.474405
247	0xbc277d90	-0.0102228075
248	0xbe8b5540	-0.27213478
249	0x3ee7cec0	0.45274925
250	0x3f1a547b	0.60285157
251	0xbe1bf6b6	-0.15230832
252	0xbf84b8e4	-1.0368924
253	0xbf0499ab	-0.5179698
254	0x3e77e740	0.24209309
255	0xbd780aa6	-0.06055703
