sim2real/RL-VertiBench/ppo_checkpoint_stage3_iter19.pt (torch, 142052 bytes, 36 tensors)

log_std f4 [2]
0	0xbdeb2c27	-0.11483031
1	0xbec5061e	-0.3848123

features_extractor.network.0.weight f4 [64, 18]
0	0x3e596fa7	0.21233998
1	0x3e61e135	0.22058566
2	0xbede1e81	-0.43382648
3	0xbf2a29f2	-0.66470253
4	0xbead06a0	-0.33794117
5	0xbec0848e	-0.3760113
6	0xbb97722f	-0.004621766
7	0x3ec1930e	0.37807506
8	0xbe905aff	-0.28194425
9	0x3eb69654	0.35661566
10	0x3f0328f3	0.5123436
11	0x3f3c7613	0.73617667
12	0xbf137512	-0.5760051
13	0xbe4e2d28	-0.20134413
14	0xbe2c4664	-0.16823727
15	0xbf11a05c	-0.56885314
16	0x3f32b42d	0.69806176
17	0xbe6a5d61	-0.22887184
18	0xbf171a28	-0.59024286
19	0xbec20dd4	-0.37901175
20	0xbd5293ad	-0.051410366
21	0x3f2ec134	0.68263555
22	0x3dfd0cd9	0.12355966
23	0x3e1f613b	0.15564434
24	0x3e4d1306	0.20026788
25	0xbe6cd987	-0.23129855
26	0xbe6d11a3	-0.23151259
27	0x3dd56311	0.10419286
28	0xbed564a8	-0.41678357
29	0x3f314629	0.6924768
30	0xbe23e34d	-0.16004677
31	0x3ca6f599	0.020380782
32	0xbd8771ef	-0.06613528
33	0xbec5f3de	-0.38662618
34	0x4006b4c6	2.1047835
35	0x3e450b17	0.19242512
36	0x3e765b5a	0.24058285
37	0x3e903e11	0.28172353
38	0x3ea31c19	0.31857374
39	0x3c0ec12b	0.008713047
40	0xbe2cba1d	-0.16867872
41	0xbd8970e3	-0.067109846
42	0xbcf83e54	-0.030303158
43	0xbed0e3dd	-0.40798846
44	0xbda634a4	-0.08115509
45	0xbe9a0a3d	-0.30085936
46	0xbc20b4c5	-0.009808724
47	0xbe0295a2	-0.12752393
48	0x3e90901d	0.2823495
49	0x3ccc171d	0.024913365
50	0xbe01fe3b	-0.12694637
51	0x3e89351c	0.26798332
52	0x3fd61821	1.6726114
53	0x3e573e87	0.21019946
54	0x3eb17506	0.34659594
55	0x3e2e4b3f	0.17020892
56	0xbe896bb0	-0.26839972
57	0xbe778429	-0.24171509
58	0xbe91bf04	-0.28466046
59	0xbe48feff	-0.19628523
60	0xbd7108ea	-0.05884639
61	0xbf28c14d	-0.65919954
62	0xbe88034c	-0.26565015
63	0x3e9414d4	0.2892214
64	0x3d102bb5	0.035197932
65	0x3c4fa374	0.012673248
66	0xbd8ef0bc	-0.0697951
67	0xba9c62dc	-0.0011931318
68	0xbe30d10f	-0.1726725
69	0xbe818596	-0.2529723
70	0x3fac9015	1.348147
71	0x3b50a8b0	0.0031838827
72	0x3e99e275	0.30055586
73	0xbc862107	-0.01637317
74	0xbe2aec2a	-0.16691652
75	0xbef9b219	-0.4876869
76	0xbecf209a	-0.4045456
77	0x3f6ce825	0.92541724
78	0x3db18b5a	0.08669157
79	0xbd87dad8	-0.06633538
80	0xbe5fd62e	-0.21859047
81	0x3e0f7264	0.1400848
82	0x3e9ef1b2	0.31043774
83	0xbe2782ff	-0.16358565
84	0xbec51370	-0.38491392
85	0xbdd526a3	-0.1040776
86	0xbeec11c7	-0.46107313
87	0xbecd1ffd	-0.40063468
88	0x3e57e979	0.21085157
89	0x3ea175c1	0.31535152
90	0x3e5c6b94	0.21525413
91	0x3e276122	0.16345647
92	0xbec34877	-0.38141224
93	0x3d3d6145	0.04623534
94	0xbd9707bc	-0.07374522
95	0xbf04c4dd	-0.5186289
96	0x3cd2aa85	0.025716076
97	0x3ebbd6e7	0.36687395
98	0xbeb336cf	-0.35002753
99	0x3f09efd2	0.5388156
100	0x3f3647ef	0.7120351
101	0xbf316433	-0.69293517
102	0xbe9ad455	-0.3024012
103	0xbe7047e1	-0.2346492
104	0xbd0d092e	-0.034432583
105	0x3f012965	0.5045379
106	0x3e6756de	0.22591731
107	0xbd285e97	-0.041105833
108	0x3e9033da	0.2816456
109	0x3df31db0	0.11870897
110	0xbdbbbee4	-0.09167269
111	0xbe4da20a	-0.20081344
112	0x3dc988f6	0.09840576
113	0x3edea257	0.4348323
114	0xbed981c4	-0.42481816
115	0xbebd6e24	-0.36998093
116	0xbf0e7fdb	-0.5566384
117	0xbf043d24	-0.51655793
118	0x3e651e65	0.22374876
119	0x3e69e214	0.22840148
120	0xbf4f8aa2	-0.8107091
121	0xbf2c3929	-0.6727472
122	0x3e94a857	0.29034683
123	0x3d12b147	0.035813596
124	0xbfa7265f	-1.3058585
125	0x3cf70518	0.030153796
126	0xbe0e268d	-0.13881893
127	0xbea36b9c	-0.31918037
128	0xbdd688b5	-0.104752935
129	0xbd22fcbd	-0.03979181
130	0x3e0c3f58	0.13696039
131	0x3eaf671a	0.34258348
132	0x3db46f7e	0.08810328
133	0xbebf40a2	-0.37353998
134	0xbe176022	-0.14782766
135	0x3f1b5320	0.60673714
136	0xbe8f6eba	-0.28014165
137	0xbe2fbb88	-0.17161381
138	0x3e2b2593	0.16713552
139	0x3a90cd49	0.0011047508
140	0xbeda279c	-0.42608345
141	0x3ea23e37	0.3168809
142	0xbfc53727	-1.5407456
143	0x3dcea1de	0.100894675
144	0xbe151477	-0.14558588
145	0xbfa34275	-1.2754656
146	0xbe347764	-0.17623669
147	0x3f39c401	0.72564703
148	0x3cb74650	0.022372395
149	0xbf011710	-0.50425816
150	0xbe0e016d	-0.13867731
151	0x3f20cbb7	0.62810844
152	0x3e0c8b0b	0.13724916
153	0x3de9585a	0.11393805
154	0xbeb5b2cc	-0.35487974
155	0x3c175570	0.0092366785
156	0x3e25a508	0.16176236
157	0x3e6c8b3b	0.23099987
158	0x3d2a8ab4	0.041636184
159	0xbc93e411	-0.018053086
160	0xbefee042	-0.4978047
161	0x3ebce317	0.36892006
162	0x3e30025f	0.17188405
163	0x3e5e6fa3	0.21722274
164	0x3e89dc2a	0.26925784
165	0xbec831ba	-0.39100438
166	0x3ea7b60a	0.32756072
167	0x3cd79ecd	0.02632084
168	0xbf68c2c8	-0.9092221
169	0xbf866901	-1.0500795
170	0xbd269081	-0.040665153
171	0xbeccded3	-0.4001375
172	0xbeeda682	-0.46416098
173	0x3e6afebd	0.22948737
174	0x3eb2538c	0.34829366
175	0x3f738cb4	0.9513657
176	0xbed5ef4f	-0.4178414
177	0xbd954966	-0.0728939
178	0xbf73c660	-0.9522457
179	0x3dae94b7	0.08524459
180	0xbe8588dd	-0.2608098
181	0x3ca30443	0.019899493
182	0xbd9d2ae4	-0.07674196
183	0xbe9700ba	-0.29492742
184	0xbe8aab97	-0.27084038
185	0xbed4a353	-0.41530856
186	0x3e0d187d	0.13778873
187	0x3e5a022c	0.21289891
188	0xbef05428	-0.46939206
189	0xbf0362a2	-0.51322377
190	0x3e31ddbb	0.1736974
191	0x3e7dd16b	0.24786918
192	0x3f221ae7	0.633223
193	0xbe37ba67	-0.179422
194	0x3ead9c96	0.33908528
195	0xbf82dcd4	-1.0223641
196	0xbebe91a7	-0.372205
197	0xbd66eb23	-0.056376588
198	0xbd8bf792	-0.0683433
199	0x3e7d8450	0.24757504
200	0x3d307da5	0.043088574
201	0xbf15f012	-0.58569443
202	0x3df962ba	0.12177034
203	0x3e335142	0.17511466
204	0x3e1a4f18	0.15069234
205	0xbef25fae	-0.47338623
206	0xbe30434b	-0.1721317
207	0x3e26b30f	0.16279243
208	0xbed988f5	-0.42487302
209	0x3f1cbd83	0.6122667
210	0x3f155c9f	0.58344454
211	0x3e7149bf	0.23563288
212	0xbee73189	-0.4515498
213	0xbeae6a1f	-0.3406534
214	0xbea1d566	-0.31608123
215	0x3df025c0	0.1172595
216	0xbe20c9d5	-0.15701993
217	0x3ecf56cb	0.40495905
218	0x3f02a780	0.51036835
219	0xbf8968be	-1.073509
220	0x3d077dc9	0.033078942
221	0xbea396ec	-0.31951082
222	0xbe283f7e	-0.1643047
223	0xbeecc573	-0.46244392
224	0x3d94975e	0.072554335
225	0x3e716003	0.23571782
226	0xbe6269b0	-0.22110629
227	0xbe8ba68d	-0.27275506
228	0xbdd3d640	-0.10343599
229	0x3e95dda4	0.2927066
230	0xbdc7fa55	-0.09764544
231	0x3e667846	0.22506818
232	0xbeb4c962	-0.35309893
233	0x3e436c11	0.19084193
234	0xbde57dc6	-0.1120563
235	0xbf1cd44c	-0.6126144
236	0x3d8e6efd	0.06954763
237	0x3e04de09	0.12975325
238	0xbf32b8ce	-0.6981324
239	0x3ee910ef	0.45520732
240	0xbf510944	-0.81654763
241	0xbdca6980	-0.09883404
242	0xbf6776c9	-0.90415627
243	0xbe04bd3d	-0.12962814
244	0xbe805c6d	-0.25070515
245	0x3e8c546e	0.27408165
246	0xbea41fa2	-0.32055384
247	0x3e1fd379	0.15608014
248	0xbe8517a2	-0.25994593
249	0xbf4d14a9	-0.8010965
250	0x3f3854b7	0.72004265
251	0x3ddf5ac9	0.10905988
252	0xbc5efc66	-0.013609981
253	0xbed0d3b8	-0.4078653
254	0x3ecda88b	0.4016765
255	0xbd2d5082	-0.042313106

features_extractor.network.0.bias f4 [64]
0	0xbd3af710	-0.045645773
1	0x3c10c228	0.008835353
2	0x3c077eb3	0.008269954
3	0xbd8cbcee	-0.06871973
4	0x3e9357f5	0.28778043
5	0x3e9f458f	0.31107756
6	0xbe22fc5c	-0.1591658
7	0x3e526bae	0.20548889
8	0x3eab500e	0.33459514
9	0x3e9f243d	0.31082335
10	0x3cbce118	0.023056552
11	0x3dc8bfce	0.09802209
12	0x3eabd082	0.33557516
13	0x3ea37e25	0.31932178
14	0x3e4d21ca	0.20032421
15	0x3f01dc32	0.50726616
16	0x3d49867d	0.049200524
17	0x3ef3066b	0.47465834
18	0x3eab733c	0.33486354
19	0x3e6bfbe2	0.23045304
20	0x3dda3596	0.10654752
21	0x3d8b70b5	0.068086065
22	0x3e68cb74	0.22733861
23	0x3ca8a7b9	0.020587789
24	0xbe80b635	-0.25139013
25	0xbe8436ec	-0.25823152
26	0xbe22e5a6	-0.15907916
27	0x3e2e3dae	0.17015716
28	0x3d4b3d98	0.049619287
29	0x3f03d92a	0.5150324
30	0x3ed81155	0.42200723
31	0xbeafc8a2	-0.34332758
32	0x3e6154c5	0.22004993
33	0xbdf6edb8	-0.1205706
34	0xbebb9df8	-0.36643958
35	0xbd4072a0	-0.046984315
36	0x3ec34519	0.38138655
37	0xbd9b0bd1	-0.07570613
38	0xbd4e1f73	-0.05032296
39	0xbc09c331	-0.008408354
40	0x3e8db3d8	0.27676272
41	0x3ef3c7f4	0.4761349
42	0x3eadc51a	0.3393944
43	0xbe37f4c2	-0.17964461
44	0x3ecea495	0.4035994
45	0x3ea663de	0.32498068
46	0x3d97d5c0	0.074138165
47	0x3e106e2f	0.14104532
48	0x3ef62dfb	0.48081955
49	0x3e5e0a50	0.21683621
50	0x3e4bf3bf	0.199172
51	0x3d2c9ef9	0.042143796
52	0xbea0048d	-0.31253472
53	0xbdeb011b	-0.1147482
54	0x3f002f8b	0.50072545
55	0xbd2ec85e	-0.042671554
56	0x3f0ebbe2	0.55755436
57	0x3ec83708	0.39104486
58	0x3e815ed2	0.25267655
59	0xbe3a8d6e	-0.18218014
60	0xbd18e6b0	-0.037329376
61	0x3ef06b2d	0.4695677
62	0x3e949703	0.29021463
63	0x3d101c1c	0.035183057

features_extractor.network.2.weight f4 [128, 64]
0	0x3b99fdde	0.004699453
1	0x3ee623af	0.449491
2	0x3da134e6	0.07871418
3	0xbe39c467	-0.18141328
4	0x3eb1dae6	0.3473732
5	0x3df8726e	0.12131201
6	0xbf70059d	-0.93758565
7	0xbe708a5a	-0.23490277
8	0x3ea2d849	0.31805637
9	0xbf8174bd	-1.0113751
10	0xbc222f1e	-0.009898929
11	0x3ea8f75d	0.33001223
12	0xbdf5e30e	-0.12006198
13	0x3f15511b	0.5832688
14	0x3e1b8b8b	0.1518995
15	0x3e97f2a0	0.29677296
16	0x3eaaf294	0.33388197
17	0xbee00c9b	-0.43759617
18	0x3e86681b	0.262513
19	0x3f041c86	0.51606023
20	0xbeb0e003	-0.34545907
21	0xbeec14a1	-0.4610949
22	0x3ed6408e	0.41846126
23	0xbf3ee347	-0.7456555
24	0xbe072c7e	-0.13200566
25	0xbc3690c1	-0.01114291
26	0xbda2ea25	-0.07954816
27	0x3e96b2b4	0.29433215
28	0x3e8ddfe1	0.2770987
29	0x3e29084f	0.16507076
30	0xbd923c04	-0.07140353
31	0x3f45e673	0.7730476
32	0xbbaa3cdb	-0.005195243
33	0xbea02b78	-0.31283164
34	0x3e324bf8	0.17411792
35	0xbee4a9f9	-0.4466093
36	0xbd8aff7c	-0.06787011
37	0x3eddb232	0.43300015
38	0xbe0eae67	-0.13933717
39	0xbe8d52ab	-0.27602133
40	0x3e804125	0.250497
41	0xbecf41df	-0.40479943
42	0x3e04494c	0.12918586
43	0xbef5699f	-0.47932145
44	0x3e510dac	0.20415372
45	0xbed40027	-0.41406366
46	0xbd25e4dc	-0.04050146
47	0x3f0345a0	0.51278114
48	0xbf14bf2f	-0.58104223
49	0xbea884f7	-0.32913944
50	0xbf73712d	-0.9509457
51	0x3e38deb6	0.18053707
52	0xbef4a645	-0.47783104
53	0xbf3e12c1	-0.74247366
54	0x3e67e3ab	0.22645442
55	0xbe07a27d	-0.13245578
56	0xbd6c9bdd	-0.05776583
57	0x3e2d7d36	0.16942295
58	0xbda08052	-0.07836975
59	0x3f0a4413	0.54010123
60	0x3e8640d9	0.2622135
61	0x3e83cf1c	0.2574395
62	0x3f1ae070	0.60498714
63	0x3e6d4864	0.23172146
64	0x3e6d8694	0.23195869
65	0xbd4dc936	-0.050240718
66	0xbec44a78	-0.38338065
67	0xbc5ff98e	-0.013670338
68	0xbe68ddf1	-0.22740914
69	0x3d9d1049	0.07669122
70	0xbf10d53f	-0.5657539
71	0xbe7cba94	-0.24680549
72	0xbea3368c	-0.31877553
73	0xbec3db89	-0.3825343
74	0xbe60bbe0	-0.21946669
75	0x3ea5aa73	0.32356605
76	0xbc6f811d	-0.014618185
77	0xbee2fefc	-0.44335163
78	0x3c50898b	0.012728105
79	0xbdaa0316	-0.0830137
80	0xbc9a00c2	-0.01879919
81	0xbce21268	-0.027596667
82	0xb9f77f8d	-0.00047206544
83	0xbf5762cc	-0.8413513
84	0x3d3121fd	0.043245304
85	0xbec85d2b	-0.39133582
86	0x3e82a4f3	0.2551647
87	0xbe43316b	-0.1906182
88	0x3ea67a56	0.3251521
89	0xbe458f2a	-0.19292894
90	0xbd323251	-0.043505017
91	0x3e26d129	0.16290726
92	0xbc1aed6f	-0.009456023
93	0xbdcdfb2e	-0.10057674
94	0xbf3ea659	-0.74472576
95	0x3e1df23c	0.15424436
96	0xbd83acb6	-0.06429426
97	0xbe6abb28	-0.22922957
98	0xbe6e541c	-0.23274273
99	0xbee3bd34	-0.44480288
100	0xbda418e3	-0.08012559
101	0x3eb11dc2	0.34593016
102	0xbea8b36e	-0.32949394
103	0xbd69cfc1	-0.057082895
104	0x3d2f5d42	0.042813547
105	0xbe9a7de2	-0.30174166
106	0xbe69ae41	-0.22820379
107	0xbf605dec	-0.87643313
108	0xbdaf11f2	-0.08548345
109	0x3dad7423	0.08469417
110	0x3dee62cc	0.11639938
111	0xbe60016f	-0.21875547
112	0x3c629f94	0.013831992
113	0xbeb73941	-0.3578587
114	0xbeb5acb8	-0.35483336
115	0x3a92640d	0.0011168733
116	0xbd7b8631	-0.06140727
117	0xbe48ccc6	-0.19609365
118	0xbde77f1e	-0.113035426
119	0x3e7599f4	0.2398451
120	0x3e01917f	0.12653159
121	0xbf9ae2b4	-1.2100434
122	0x3d83febc	0.06445071
123	0xbb61033a	-0.0034334199
124	0xbe2f62d8	-0.1712755
125	0x3e946b26	0.28987998
126	0x3eb08ea9	0.3448384
127	0xbd52b79b	-0.05144463
128	0x3e235b6a	0.1595284
129	0xbf70e859	-0.94104534
130	0xbdc3dabe	-0.09563206
131	0xbf0c7a62	-0.5487424
132	0x3e9af0ec	0.30261934
133	0x3de63a86	0.11241631
134	0x3f2fe041	0.6870156
135	0x3ed3af43	0.41344652
136	0x3ed9287a	0.42413694
137	0x3e551f40	0.20812702
138	0x3f61a44a	0.8814131
139	0x3f02030b	0.50785893
140	0x3e1d0e4f	0.1533749
141	0x3e1d13a0	0.15339518
142	0xbf2d453f	-0.67683786
143	0x3d986da9	0.07442791
144	0x3d71b5c4	0.059011236
145	0x3e651d87	0.22374545
146	0x3c9eecb6	0.019399982
147	0x3d78a921	0.06070817
148	0x3e279473	0.16365223
149	0xbf0046c3	-0.50107974
150	0x3e96264e	0.293261
151	0x3e0a2c72	0.13493517
152	0x3f500a1b	0.8126542
153	0xbe306e98	-0.17229688
154	0xbf34d672	-0.7063972
155	0x3e86423c	0.26222408
156	0x3e1cd618	0.15316045
157	0x3e3ed8dd	0.18637414
158	0xbe6b28e4	-0.22964817
159	0xbd2c1fc2	-0.042022474
160	0x3e33cd51	0.1755879
161	0x3b35c4cb	0.0027735706
162	0xbebd56c9	-0.36980274
163	0x3df1ca0a	0.11806114
164	0x3dcd0654	0.100109726
165	0x3f3df4d3	0.742017
166	0x3f06f5f3	0.5271904
167	0xbee6e15e	-0.45093817
168	0x3dc882d2	0.09790577
169	0xbe00e583	-0.12587552
170	0x3e5a101c	0.21295208
171	0x3f04b5a7	0.5183968
172	0xbea9a26d	-0.33131734
173	0xbd8fb96b	-0.070177875
174	0xbedaf24c	-0.42762983
175	0x3f37ae86	0.71750677
176	0x3e77e6aa	0.24209085
177	0x3d2243ac	0.03961532
178	0x3efe3ed5	0.49657312
179	0xbe26f346	-0.16303739
180	0x3f7650bd	0.96216947
181	0x3cf68c51	0.030096205
182	0xbe689624	-0.22713524
183	0x3f209fe1	0.62743956
184	0xbbc83047	-0.0061092707
185	0xbb722792	-0.0036949855
186	0xbde9703f	-0.11398362
187	0xbd0ce782	-0.03440047
188	0x3eeb62ca	0.45973808
189	0x3c07693a	0.008264834
190	0x3ec2b1a1	0.38026145
191	0x3edbb2a9	0.42909744
192	0x3d078c18	0.03309259
193	0xbdf6b94f	-0.120470636
194	0xbc79baf5	-0.015242328
195	0x3cdc0af0	0.026860684
196	0xbe2d6522	-0.1693311
197	0x3db815d0	0.089885354
198	0xbdd49ac1	-0.103810795
199	0xbe831e53	-0.25609073
200	0xbeb8bf72	-0.3608356
201	0x3e24e599	0.1610321
202	0xbeef0866	-0.46686095
203	0x3ea0567e	0.31315988
204	0x3eba3602	0.3636933
205	0xbe8beac4	-0.2732755
206	0xbe16498e	-0.14676496
207	0xbf18eb5c	-0.5973413
208	0x3e1725db	0.14760534
209	0xbcf48e11	-0.029852899
210	0x3e309730	0.17245173
211	0xbe268360	-0.16261053
212	0x3ed22cfb	0.41049942
213	0x3e2c7f1a	0.1684536
214	0x3e674c2f	0.22587655
215	0xbc146d99	-0.009059333
216	0x3f3676a7	0.712748
217	0xbeb10a72	-0.34578282
218	0x3ef08330	0.46975088
219	0x3d32858b	0.043584388
220	0xbdc08e5f	-0.09402155
221	0xbe6e3179	-0.2326106
222	0xbe5a2fb9	-0.21307267
223	0xbf05e0b2	-0.5229598
224	0x3d56b0ef	0.05241483
225	0xbeec4878	-0.4614904
226	0xbf12750e	-0.5720986
227	0x3d9f6be4	0.077842504
228	0x3ee4f7aa	0.44720203
229	0xbd9706bf	-0.073743336
230	0xbd511c08	-0.051052123
231	0x3f2c19de	0.6722697
232	0x3e81d14f	0.25355002
233	0x3d32913d	0.04359554
234	0x3d696eac	0.05699031
235	0xbf2158d4	-0.63026166
236	0xbe074708	-0.1321069
237	0xbc1ecea0	-0.009692818
238	0x3e79ad36	0.24382481
239	0xbf0d514c	-0.55202174
240	0xbd8f8909	-0.07008559
241	0xbe1890f7	-0.1489905
242	0x3dd83c37	0.1055836
243	0xbeedd2fd	-0.46450034
244	0x3e8aa9d3	0.2708269
245	0xbd595bef	-0.05306619
246	0x3e8c05fa	0.2734831
247	0x3f0dbb65	0.55364066
248	0x3ecfb0c9	0.40564564
249	0xbcf4323d	-0.029809112
250	0x3ee1d1d3	0.44105396
251	0xbd588ae2	-0.052866824
252	0xbdd249bc	-0.1026797
253	0x3f1ad9ae	0.604884
254	0xbe5fec4b	-0.21867482
255	0xbf1c0c46	-0.6095623

features_extractor.network.2.bias f4 [128]
0	0xbdd1ab8d	-0.10237799
1	0x3e272679	0.1632327
2	0xbd87982d	-0.06620822
3	0x3ea52d83	0.32261285
4	0x3ed3b65a	0.4135006
5	0x3ec0a556	0.3762614
6	0xbb9de365	-0.0048183673
7	0xbd1a685e	-0.03769719
8	0x3dcf10e2	0.10110642
9	0x3b993b96	0.0046762927
10	0x3d108e39	0.035291884
11	0x3e15ebe4	0.14640766
12	0x3e803d91	0.2504697
13	0xbd5fe17e	-0.054658405
14	0xbe917c4d	-0.28415146
15	0xbcbad2fa	-0.02280568
16	0x3e61738c	0.22016734
17	0xbe41e30d	-0.18934269
18	0x3e5d3a07	0.21604167
19	0x3e420eb9	0.18950929
20	0xbd716d93	-0.05894239
21	0x3d84b816	0.06480424
22	0x3c9d9d66	0.019240092
23	0xbcd54519	-0.026033925
24	0x3c247331	0.010037229
25	0x3e3205a5	0.17384966
26	0xbe2a0f6e	-0.16607448
27	0xbe2818a4	-0.1641565
28	0x3d6ad73b	0.057334166
29	0xbe270b50	-0.16312909
30	0x3e541f84	0.20715147
31	0xbd188d4e	-0.037244134
32	0x3e8f51e7	0.27992174
33	0xbdd8e81b	-0.105911456
34	0xbd2d6064	-0.042328253
35	0x3ea2947f	0.3175392
36	0x3ddc01d0	0.10742533
37	0x3df92504	0.12165263
38	0x3dd6d411	0.10489667
39	0xbe17efc9	-0.14837565
40	0x3eb185ab	0.34672293
41	0xbe0c691b	-0.1371197
42	0x3d9cc386	0.07654481
43	0x3ee0e1ed	0.43922368
44	0xbd50393d	-0.050835837
45	0x3c91fffb	0.017822256
46	0x3ded2e63	0.11581113
47	0xbe0e2abc	-0.1388349
48	0xbdc9bcd8	-0.09850472
49	0xbe08a394	-0.1334365
50	0x3dc3564a	0.09537943
51	0x3e866515	0.26248994
52	0x3e21585a	0.1575636
53	0xbe290e61	-0.16509391
54	0x3dfb24f9	0.12262911
55	0x3e0cdd55	0.13756306
56	0x3e9c576e	0.30535454
57	0x3d2d1415	0.04225548
58	0x3dad00ee	0.08447443
59	0x3dd7b64b	0.105328165
60	0x3eba9426	0.36441153
61	0xbe1c04ca	-0.15236202
62	0xbc593538	-0.013257317
63	0x3dc078a9	0.09398014
64	0x3ebd0d4e	0.36924213
65	0x39a91176	0.000322472
66	0x3db5ae87	0.08871179
67	0x3e8ed4d4	0.2789675
68	0xbc2ba234	-0.010475684
69	0x3d8a3829	0.06748993
70	0x3d71f96a	0.05907575
71	0x3c6ccfed	0.01445387
72	0x3d194d45	0.037427206
73	0xbddd7a1b	-0.108143054
74	0x3eb0ba61	0.34517196
75	0xbdecc80d	-0.11561594
76	0xbe8ed228	-0.27894711
77	0xbd22836c	-0.039676115
78	0x3e20d865	0.15707548
79	0x3c7368a2	0.014856489
80	0x3d0ff088	0.035141498
81	0x3d4f50f2	0.050614305
82	0xbcddf212	-0.027092967
83	0x3e942851	0.2893701
84	0x3eab956a	0.3351243
85	0x3e8f077a	0.27935392
86	0x3e809df9	0.25120524
87	0xbdfc7816	-0.12327592
88	0x3d62123d	0.055193175
89	0x3e0f2f0a	0.13982788
90	0x3e1da7d4	0.15396053
91	0x3ea416c7	0.32048628
92	0xbe644d0f	-0.2229502
93	0x3d67f372	0.056628652
94	0x3e45a163	0.19299845
95	0xbce8b3b1	-0.028405996
96	0xbc27dc8b	-0.010245453
97	0x3eab7edb	0.3349522
98	0xbddd6c6a	-0.10811694
99	0x3dbf6e64	0.09347227
100	0x3e508492	0.20363072
101	0x3e046559	0.12929286
102	0xbe28fe7b	-0.16503327
103	0x3e5a032b	0.21290271
104	0x3daa1958	0.08305615
105	0x3e97b89d	0.29633036
106	0x3e37673e	0.17910478
107	0xbe94d14f	-0.2906594
108	0x3e77e4ba	0.24208346
109	0x3dd21409	0.10257728
110	0x3d5357c3	0.051597368
111	0x3ec4ec9d	0.38461772
112	0x3d977121	0.073946245
113	0x3d81cf49	0.06338365
114	0xbcf67faf	-0.030090181
115	0x3e2cde2a	0.16881624
116	0x3c2ac074	0.010421861
117	0xbe46cd53	-0.19414262
118	0x3e138d1f	0.14409302
119	0x3ea6e152	0.3259378
120	0x3e255d6a	0.16148916
121	0x3e5423bb	0.20716755
122	0xbde6fc8a	-0.11278637
123	0xbe07798f	-0.13229965
124	0x3e82a980	0.25519943
125	0xbdbae523	-0.091257356
126	0xbe32366b	-0.17403571
127	0x3e787d9e	0.24266669

features_extractor.network.4.weight f4 [64, 128]
0	0x3cb762e0	0.022386014
1	0xbde39744	-0.11112836
2	0x3e8541eb	0.26026854
3	0x3db277ad	0.087142326
4	0xbe248167	-0.16064988
5	0xbedba4b3	-0.42899093
6	0x3d0e667e	0.034765713
7	0xbf2fc328	-0.6865716
8	0x3e997e39	0.29979113
9	0x3e02f1fd	0.12787624
10	0xbe6d4701	-0.23171617
11	0xbea1c10f	-0.31592605
12	0xbf1a58d7	-0.6029181
13	0x3dc6a788	0.09699923
14	0x3e21ad1e	0.15788695
15	0xbec96af5	-0.39339414
16	0x3eef1066	0.466922
17	0xbf9086db	-1.1291155
18	0x3e8b85be	0.27250475
19	0xbdc04010	-0.09387219
20	0xbe785f9e	-0.24255225
21	0x3d9a632d	0.075384475
22	0xbf3780ff	-0.7168121
23	0xbf9c00a8	-1.21877
24	0xbdff880a	-0.12477119
25	0x3ea5d8cb	0.32391962
26	0xbe9d00d6	-0.306647
27	0x3f013b6d	0.504813
28	0x3f0fc5f4	0.5616143
29	0x3ddc33db	0.10752078
30	0x3deed7bd	0.116622426
31	0xbf2bd26b	-0.6711795
32	0x3eab3874	0.33441508
33	0x3e4f77e4	0.20260578
34	0x3eb3eb76	0.3514058
35	0x3e4abf31	0.19799496
36	0xbf08e06e	-0.5346745
37	0xbe6fe348	-0.23426545
38	0xbf0f1205	-0.5588687
39	0x3e8c5234	0.27406466
40	0x3d5fe222	0.054659016
41	0xbeb3be3e	-0.3510608
42	0x3ee4cef4	0.44689143
43	0xbe0ff088	-0.14056599
44	0xbe8542eb	-0.26027617
45	0xbf84dbda	-1.0379593
46	0x3e624960	0.22098303
47	0xbeaa816a	-0.3330186
48	0xbe222684	-0.15835005
49	0xbe01f803	-0.12692265
50	0x3d28c5bd	0.041204203
51	0xbf95d430	-1.170538
52	0xbf2334bb	-0.63752335
53	0xbfbf437d	-1.4942471
54	0xbe35e20d	-0.17762013
55	0xbedc35cb	-0.4300979
56	0x3f64e2dc	0.8940866
57	0xbe41ad28	-0.1891371
58	0xbeea368d	-0.45744744
59	0xbd92c559	-0.07166547
60	0xbe60d206	-0.21955118
61	0xbd95138d	-0.0727912
62	0x3e93471f	0.287652
63	0x3e88b254	0.26698554
64	0x3ed54c76	0.41659898
65	0x3e734eb1	0.23760487
66	0x3f15b58e	0.58480155
67	0xbf4bee52	-0.7966052
68	0xbeefb990	-0.4682126
69	0x3d22a8e4	0.039711848
70	0x3df329bf	0.11873197
71	0x3e27a32e	0.16370842
72	0x3f2f353d	0.6844061
73	0x3e16d8f7	0.14731203
74	0xbdb7f0f0	-0.08981502
75	0xbf3f48b9	-0.7472034
76	0x3deb2b9e	0.11482929
77	0xbe48c211	-0.1960528
78	0x3e217702	0.15768054
79	0xbe106611	-0.14101435
80	0xbdc85ac8	-0.0978294
81	0x3e9aa2cd	0.30202332
82	0xbf5319dc	-0.82461333
83	0x3ed3b191	0.4134641
84	0x3d0948d5	0.033516724
85	0xbe675455	-0.22590764
86	0xbf0ea0dc	-0.557142
87	0xbd4df44f	-0.05028182
88	0x3e32680c	0.17422503
89	0xbcf3570f	-0.029704599
90	0x3d8d0e8b	0.068875395
91	0x3de726d7	0.11286705
92	0xbf7d2469	-0.9888368
93	0xbe809805	-0.25115982
94	0x3e48e787	0.1961957
95	0xbedf3fcd	-0.43603364
96	0x3e162a46	0.14664564
97	0xbc2afc0f	-0.010436072
98	0x3de54483	0.11194708
99	0x3f02da67	0.51114506
100	0xbf455a5f	-0.7709102
101	0x3cabdea0	0.02098018
102	0xbdcb769f	-0.099347346
103	0xbf045ce9	-0.5170427
104	0xbe343e2b	-0.1760184
105	0xbf5aa4a9	-0.854075
106	0xbe25f3e7	-0.16206323
107	0x3df13a85	0.1177874
108	0x3f1da7bc	0.6158407
109	0xbf343161	-0.70387846
110	0xbee6c50a	-0.45072204
111	0x3ed853ea	0.4225152
112	0x3cb468d8	0.02202265
113	0xbe030214	-0.12793761
114	0xbc9826ba	-0.018573154
115	0x3ee8973d	0.45427886
116	0xbfa336fa	-1.2751153
117	0x3e864399	0.26223448
118	0x3d0fc44a	0.035099305
119	0x3e50987c	0.20370668
120	0xbfe78682	-1.8087924
121	0x3e5092fd	0.20368572
122	0xbd624f15	-0.0552512
123	0x3ec8ccdf	0.39218804
124	0x3efb2a1b	0.4905556
125	0x3daecb20	0.08534837
126	0x3f3a7a5d	0.7284296
127	0x3db8f357	0.090307884
128	0xbe50a3fd	-0.20375057
129	0x3c3bebcf	0.011469795
130	0xbbfe42c1	-0.0077594225
131	0xbe2cf50f	-0.16890357
132	0x3dbd8450	0.09253752
133	0xbea01cc3	-0.31271943
134	0xbe2920d0	-0.16516423
135	0x3e33167a	0.17489043
136	0x3db3005d	0.08740304
137	0x3dab53e1	0.08365608
138	0xbe92878b	-0.28619036
139	0x3d1ecebb	0.038771372
140	0xbe664002	-0.22485355
141	0x3e42d682	0.1902714
142	0x3e88c79d	0.26714793
143	0xbee3fb23	-0.4452754
144	0xbc5232b7	-0.012829474
145	0xbe98337c	-0.2972678
146	0x3da75473	0.08170404
147	0x3c1bf232	0.009518193
148	0x3e022fbe	0.12713525
149	0xbc2b7803	-0.010465625
150	0xbdbcfabf	-0.092275135
151	0xbe5fa627	-0.21840726
152	0x3e70353b	0.23457806
153	0xbc5d30f4	-0.013500441
154	0xbe20ccb0	-0.15703082
155	0xbc3a1af4	-0.011358965
156	0xbe7fbe29	-0.24974884
157	0xbeb8d668	-0.3610108
158	0x3e18efe1	0.14935257
159	0xbe68e683	-0.22744183
160	0xbcf8c9d3	-0.030369675
161	0xbe9ef6bc	-0.31047618
162	0xbed26352	-0.410914
163	0x3d0166b9	0.031592105
164	0xbed9c6bb	-0.42534432
165	0x3d29b2f6	0.041430436
166	0xbe0ae128	-0.13562453
167	0x3d9c7883	0.07640173
168	0x3d21a200	0.039461136
169	0xbe8bbd34	-0.27292788
170	0xbd83c8c9	-0.06434781
171	0x3dc96501	0.09833718
172	0xbe1c86a2	-0.15285733
173	0x3d84b756	0.06480281
174	0xbe67c296	-0.22632822
175	0xbe49e29a	-0.19715348
176	0xbcbe0d02	-0.023199562
177	0xbcc5985e	-0.024120506
178	0xbe2c84ed	-0.16847582
179	0xbe693884	-0.22775465
180	0x3e68782d	0.22702093
181	0x3d46a497	0.04849681
182	0xbd8a2a49	-0.067463465
183	0xbe2fedca	-0.17180553
184	0x3dd6821e	0.10474037
185	0xbdeabd89	-0.11461932
186	0xbe888d22	-0.26670176
187	0xbdd49de5	-0.103816785
188	0xbed99cc7	-0.42502424
189	0x3dc856b6	0.09782164
190	0xbcf1f609	-0.029536264
191	0xbd860d47	-0.06545501
192	0x3de9475e	0.11390565
193	0xbe58b112	-0.21161297
194	0xbe97acc1	-0.29623988
195	0xbe119cf5	-0.1422003
196	0xbe22ad27	-0.15886365
197	0x3d4322b6	0.047640525
198	0x3d03a7ba	0.03214238
199	0xbdf41983	-0.119189285
200	0xbe7d9f89	-0.24767889
201	0x3da719a5	0.08159188
202	0xbe09e9fe	-0.13468167
203	0x3c2cc3df	0.010544746
204	0xbdab9707	-0.083784156
205	0xbec32e44	-0.38121235
206	0xbe8bb841	-0.27289012
207	0xbe183a33	-0.14865951
208	0x3ebcd218	0.3687904
209	0xbe13346f	-0.1437547
210	0x3def71cf	0.11691629
211	0x3e2edbfb	0.17076103
212	0x3df2b521	0.11850954
213	0xbe113188	-0.14179051
214	0x3d5d6838	0.05405447
215	0x3e820688	0.25395608
216	0xbdafcdad	-0.085841514
217	0xbd2420c6	-0.040070318
218	0x3ec70501	0.38871005
219	0xbdb5335f	-0.08847689
220	0xbeade721	-0.339654
221	0xbf075cc1	-0.52875906
222	0xbe1381bf	-0.14404963
223	0x3e7932fa	0.24335852
224	0x3dad22fb	0.084539376
225	0xbd258720	-0.04041207
226	0x3d843ce0	0.064569235
227	0xbe079d73	-0.13243656
228	0x3e672725	0.22573526
229	0xbd57eb36	-0.05271455
230	0x3e982267	0.29713747
231	0xbbb28baf	-0.0054487805
232	0x3e21a3fc	0.15785211
233	0x3e0d43de	0.1379542
234	0x3e24fa94	0.16111213
235	0xbbdcc869	-0.006737758
236	0x3e0ea76a	0.13931051
237	0x3dbda8c4	0.09260705
238	0x3de80b11	0.11330236
239	0xbe712601	-0.23549654
240	0xbdb6c4a8	-0.08924228
241	0xbec4848b	-0.38382372
242	0xbe3adb87	-0.18247806
243	0xbd8b3756	-0.06797664
244	0x3d2fbfad	0.042907406
245	0xbdbd28d2	-0.092363015
246	0xbe768c53	-0.24076967
247	0xbdaf5965	-0.085619725
248	0x3d2b741f	0.04185879
249	0xbe5a3ea7	-0.21312962
250	0xbd1dfa6c	-0.0385689
251	0xbe149bbd	-0.14512534
252	0x3d943abd	0.07237766
253	0x3cc67f44	0.024230607
254	0xbe3aff03	-0.18261342
255	0x3d2b2421	0.041782502

features_extractor.network.4.bias f4 [64]
0	0x3db10359	0.08643217
1	0x3cbf5d90	0.023360044
2	0x3d4ab7c8	0.049491674
3	0xbd37e718	-0.044898123
4	0x3e894407	0.26809713
5	0xbd01925c	-0.03163372
6	0xbe0838fc	-0.13302988
7	0x3d4a1acb	0.049341958
8	0x3d8d9e61	0.06914974
9	0x3e823a9a	0.25435334
10	0xbd1b4361	-0.037906054
11	0x3e8462dc	0.25856674
12	0x3db38660	0.08765864
13	0xbd639df1	-0.055570547
14	0x3d90d98a	0.07072742
15	0xbb2572d6	-0.002524545
16	0xbec9aaf3	-0.39388236
17	0x3e13832b	0.14405505
18	0xbcde924d	-0.027169371
19	0x3f1896c4	0.5960505
20	0xbd8eefb3	-0.06979313
21	0x3e398a57	0.18119179
22	0xbe4722c9	-0.19446863
23	0xbbbbee9a	-0.0057352306
24	0x3d91c6b7	0.0711798
25	0x3e1eabe5	0.1549526
26	0x3c6a4cbe	0.014300523
27	0xbc291591	-0.010320083
28	0x3e7944f7	0.24342714
29	0xbe1bbb82	-0.15208247
30	0x3e0775a5	0.13228472
31	0x3e14c251	0.14527251
32	0x3e1d6431	0.15370251
33	0xbdf7ec45	-0.12105612
34	0x3e11c82f	0.1423652
35	0x3e01e091	0.12683322
36	0xbcf64230	-0.030060858
37	0xbd8fed0a	-0.070276335
38	0xbe3b628b	-0.1829931
39	0xbcf5341c	-0.029932074
40	0x3daef451	0.085426934
41	0x3b6837f2	0.0035433737
42	0xbeb2bb29	-0.34908417
43	0xbe95ba1a	-0.29243547
44	0xbd906b9c	-0.07051775
45	0x3c5800bd	0.01318377
46	0xbe841b06	-0.25801867
47	0x3f13e252	0.5776721
48	0x3e1b11ff	0.15143584
49	0x3dfe86a2	0.12428023
50	0x3d050bf0	0.032482088
51	0x3ca5976a	0.020213801
52	0xbe102ac8	-0.1407882
53	0xbd0f02eb	-0.034914892
54	0x3c661e72	0.014045345
55	0x3e591688	0.21200001
56	0x3d2c0f60	0.04200685
57	0xbd5b20c6	-0.053498052
58	0xbce94ff5	-0.02848051
59	0x3ea0db4b	0.31417307
60	0x3d954473	0.07288446
61	0xbc3af197	-0.011410139
62	0xbe1ab583	-0.15108304
63	0x3da57583	0.08079054

features_extractor.network.6.weight f4 [32, 64]
0	0x3f2669da	0.65005267
1	0xbebb1ba1	-0.36544517
2	0xbe8f7052	-0.2801538
3	0xbf32d6cd	-0.6985901
4	0x3fa71833	1.305426
5	0xbe7bdb38	-0.24595344
6	0xbf610771	-0.8790198
7	0xbe720a80	-0.23636818
8	0x3f2175aa	0.63070166
9	0xbf8d1a33	-1.102362
10	0x3f0353e2	0.5129987
11	0xbc280dd2	-0.010257201
12	0xbe3ece6c	-0.18633431
13	0xbe0a8674	-0.13527852
14	0xbd6dcf34	-0.058058932
15	0x3e99651a	0.29959947
16	0xbf24e969	-0.64418656
17	0x3d718f86	0.058974765
18	0xbec92f94	-0.39294112
19	0x3ef7db01	0.48409274
20	0x3ebe5196	0.3717162
21	0x3dae7db1	0.085200675
22	0xbe7ebeca	-0.24877468
23	0xbeec66a1	-0.4617205
24	0x3e2acaad	0.16678877
25	0x3d183081	0.037155632
26	0x3ee37052	0.4442163
27	0xbec6cc5b	-0.38827786
28	0x3f171425	0.59015113
29	0x3e8b3f06	0.2719652
30	0xbfa23e5f	-1.2675284
31	0x3ee4c1b9	0.4467905
32	0x3f36da3c	0.7142675
33	0x3eda88f8	0.42682624
34	0x3d45e63a	0.048315264
35	0xbed60f85	-0.41808715
36	0x3ea0aacd	0.3138031
37	0xbeab20eb	-0.33423552
38	0x3bedc239	0.007255819
39	0x3e9df7af	0.3085303
40	0xbe549ec1	-0.20763685
41	0xbe5d8e38	-0.21636283
42	0xbf505693	-0.813821
43	0xbf13615c	-0.57570434
44	0x3f426b59	0.7594505
45	0xbefbccdc	-0.49179733
46	0xbceeaf9d	-0.029136473
47	0xbef302db	-0.47463116
48	0xbfaf8b56	-1.3714397
49	0xbf45b680	-0.772316
50	0xbea24f62	-0.3170119
51	0xbe88dd58	-0.26731372
52	0x3ebf2be6	0.3733818
53	0xbd576615	-0.052587587
54	0x3f1f9e61	0.6235104
55	0xbf274555	-0.6534017
56	0xbf43c274	-0.76468587
57	0x3f7ce298	0.98783255
58	0x3ea8a284	0.3293649
59	0x3be2d04d	0.006921804
60	0x3ea13d59	0.31492117
61	0xbe178703	-0.14797597
62	0xbf337c1f	-0.7011127
63	0x3f15d51c	0.58528304
64	0xbf236a07	-0.6383366
65	0x3e2132a3	0.15741973
66	0x3e64cb01	0.22343065
67	0xbd05653c	-0.032567248
68	0x3d082df8	0.033246964
69	0x3d30b875	0.043144662
70	0xbdc28bf5	-0.09499351
71	0x3f0ce553	0.5503742
72	0xbe3b1abe	-0.1827192
73	0xbea5de60	-0.3239622
74	0x3ea449ea	0.32087642
75	0xbd384767	-0.04498997
76	0xbe9e050c	-0.30863225
77	0x3e47363b	0.19454281
78	0x3ef6614b	0.48121104
79	0x3dc79e1f	0.09746956
80	0xbf89570d	-1.0729691
81	0x3e013c48	0.12620652
82	0x3e40dc41	0.1883402
83	0xbf27710f	-0.6540689
84	0x3c06df8a	0.008232007
85	0xbed50bc5	-0.41610542
86	0xbf105698	-0.5638213
87	0xbe136c31	-0.1439674
88	0xbdb1f010	-0.086883664
89	0xbf7415b2	-0.95345604
90	0xbe3ab324	-0.18232399
91	0xbe736901	-0.23770525
92	0x3ddc5e86	0.107602164
93	0xbd4a01de	-0.049318187
94	0xbe418e2a	-0.18901888
95	0x3dfce844	0.12348989
96	0x3d3794fa	0.04481981
97	0x3d27f826	0.041008137
98	0xbe011675	-0.12606223
99	0x3e9d8566	0.30765837
100	0x3e2abfb0	0.16674685
101	0x3e35268c	0.17690486
102	0xbeec1305	-0.4610826
103	0x3e6e5acd	0.23276825
104	0x3d0c0b61	0.03419054
105	0x3e95dc99	0.29269865
106	0x3e3cca45	0.18436535
107	0xbe2c4ad7	-0.16825424
108	0xbd553f4e	-0.052062325
109	0x3d64cadc	0.055857524
110	0xbf9de228	-1.2334642
111	0xbd605f05	-0.054778118
112	0x3e121f51	0.14269759
113	0xbf43d0fa	-0.7649075
114	0xbe00daf1	-0.1258352
115	0xbea09868	-0.31366277
116	0x3cc2349d	0.023706729
117	0xbe3bf1a6	-0.183539
118	0xbd08537b	-0.03328274
119	0xbf750e2e	-0.9572476
120	0xbe1ef966	-0.15524825
121	0x3e02b9d0	0.12766194
122	0xbef85522	-0.4850245
123	0x3db6586e	0.089035854
124	0x3e52d963	0.20590739
125	0x3e1c4f10	0.15264535
126	0x3eab670c	0.33477056
127	0x3dc2faf2	0.0952052
128	0x3f05ee3b	0.52316636
129	0xbe5f8677	-0.21828638
130	0x3e4054c3	0.18782334
131	0xbef401fc	-0.47657764
132	0x3fa0e0a9	1.2568561
133	0xbe28ffe7	-0.16503869
134	0xbf483a22	-0.78213704
135	0xbf3933fb	-0.7234494
136	0x3f222453	0.63336676
137	0xbf808e4c	-1.0043426
138	0x3f0f3eff	0.559555
139	0xbf46a56a	-0.7759615
140	0xbe517c2c	-0.20457524
141	0xbec8d6f1	-0.39226487
142	0x3f44c824	0.7686789
143	0xbc89bdf1	-0.016814204
144	0xbf0a6ef7	-0.5407557
145	0x3e28f813	0.16500883
146	0x3e9d8b61	0.307704
147	0x3f1a0a78	0.60172224
148	0x3f1140cb	0.5673949
149	0xbee7e1ee	-0.45289558
150	0xbead3665	-0.33830562
151	0xbedefe79	-0.43553522
152	0xbdf52c86	-0.11971383
153	0x3db3146a	0.08744128
154	0x3e9d25fb	0.3069304
155	0xbf17493a	-0.5909611
156	0x3e62d92e	0.2215316
157	0xbe2331b8	-0.15936935
158	0xbf31bc48	-0.6942792
159	0xbe1cebce	-0.15324327
160	0x3f28bfa2	0.6591741
161	0xbf82990e	-1.0202959
162	0x3d849be6	0.06475048
163	0xbe9f0c00	-0.31063843
164	0xbe4b4857	-0.19851814
165	0x3eb378c0	0.35053062
166	0x3ee4cd03	0.44687662
167	0x3ea9737b	0.33095917
168	0x3e44b8b9	0.19211091
169	0x3ec2b913	0.38031825
170	0xbdc9d803	-0.09855654
171	0xbf474110	-0.7783365
172	0x3f27ab49	0.65495735
173	0xbda52308	-0.08063322
174	0x3ec69326	0.3878414
175	0xbdea49bc	-0.11439845
176	0xbfa38005	-1.2773443
177	0xbf19f272	-0.6013557
178	0xbedb235d	-0.42800418
179	0x3d80e5b1	0.0629381
180	0x3e863e6a	0.26219493
181	0xbd31402c	-0.04327409
182	0x3da9ae0c	0.0828515
183	0xbea148a2	-0.31500727
184	0xbf12c356	-0.5732931
185	0x3ed7f059	0.42175558
186	0xbf07ae4b	-0.53000325
187	0xbe9c0d1f	-0.3047876
188	0xbe16c1c4	-0.14722353
189	0x3e6b528d	0.2298071
190	0xbe9875a3	-0.2977725
191	0x3fb25986	1.393357
192	0xbf9182a4	-1.1367993
193	0x3d19035c	0.03735672
194	0x3ecc3a24	0.39888108
195	0x3ee6873d	0.45025054
196	0xbd098c54	-0.033581093
197	0xbd019a58	-0.031641334
198	0x3f890c3b	1.0706857
199	0x3ece2c9e	0.40268415
200	0x3df494ef	0.11942469
201	0x3f06c986	0.5265125
202	0xbe448d7e	-0.191946
203	0x3f3cf4e9	0.73811203
204	0x3d394b25	0.04523768
205	0x3f0fec6d	0.5622013
206	0xbd93314b	-0.07187136
207	0xbdeaf298	-0.11472052
208	0xbd0d40ab	-0.0344855
209	0xbf23f8d1	-0.6405154
210	0xbf27a122	-0.65480244
211	0x3ea25adc	0.31709945
212	0xbeef7bf9	-0.4677427
213	0xbe249e20	-0.16075945
214	0x3d28911a	0.041154005
215	0x3ec1a5d2	0.37821823
216	0xbf4887f0	-0.78332424
217	0xbf3bb788	-0.7332692
218	0xbebb31bb	-0.3656138
219	0x3f357bd0	0.7089205
220	0x3ec2ac1b	0.3802193
221	0xbf1c6627	-0.6109337
222	0x3f9a0aa9	1.2034503
223	0xbf014a7f	-0.50504297
224	0xbe7d2718	-0.24721944
225	0xbe342d12	-0.17595318
226	0xbe430be4	-0.19047505
227	0x3e57212a	0.21008745
228	0xbf1d87ee	-0.6153554
229	0xbde25f65	-0.11053351
230	0x3e33e438	0.17567527
231	0x3f2f9ee9	0.6860185
232	0x3f054735	0.5206178
233	0x3f134d73	0.57540053
234	0x3e977a84	0.2958566
235	0x3f379d57	0.71724457
236	0xbeee1362	-0.46499163
237	0x3f0a5dc4	0.54049325
238	0xbf93f619	-1.1559478
239	0xbe9e48d8	-0.3091495
240	0x3f43114f	0.76198286
241	0x3f0690d6	0.5256475
242	0x3f4716ea	0.7776934
243	0x3f03c616	0.5147413
244	0xbe1e1caf	-0.1544063
245	0x3d11ea6d	0.035623956
246	0x3db28929	0.087175675
247	0xbecd4a04	-0.40095532
248	0x3f1a39ab	0.60244244
249	0xbf0874df	-0.5330333
250	0xbe43b6eb	-0.19112746
251	0x3f2a1db6	0.66451585
252	0xbe388926	-0.18021068
253	0x3e5cf115	0.2157634
254	0x3f2d675d	0.67735845
255	0xbe6cf4cd	-0.23140259

features_extractor.network.6.bias f4 [32]
0	0x3e301d6f	0.17198728
1	0x3e62a0d1	0.22131659
2	0x3dc9131f	0.098181
3	0x3d2f353b	0.042775374
4	0xbad6a52b	-0.0016376128
5	0xbd1ce751	-0.038306538
6	0x3e3ad9a7	0.1824709
7	0x3c9f1e14	0.019423522
8	0x3ebc55b4	0.36784136
9	0xbd2c039e	-0.041995637
10	0x3f1ca485	0.61188537
11	0x3bb5d37e	0.0055488935
12	0x3ea2fe16	0.31834477
13	0x3eba0649	0.3633292
14	0xbed2f222	-0.41200358
15	0x3f1c56fc	0.6107023
16	0x3e3e1a67	0.18564759
17	0xbe897d14	-0.2685324
18	0x3f0e9f4c	0.5571182
19	0x3d151a0d	0.036401797
20	0xbe92ee18	-0.28697276
21	0x3cc273f4	0.023736931
22	0xbea548fe	-0.3228225
23	0xbd8a042f	-0.06739079
24	0x3e66877f	0.22512625
25	0x3e94e831	0.29083398
26	0xbcd7850b	-0.026308557
27	0x3e7e4661	0.24831535
28	0xbe4b0b8b	-0.19828622
29	0xbd948b8b	-0.07253178
30	0x3e3fef95	0.18743737
31	0x3cb05fad	0.021529997

pi_features_extractor.network.0.weight f4 [64, 18]
0	0x3e596fa7	0.21233998
1	0x3e61e135	0.22058566
2	0xbede1e81	-0.43382648
3	0xbf2a29f2	-0.66470253
4	0xbead06a0	-0.33794117
5	0xbec0848e	-0.3760113
6	0xbb97722f	-0.004621766
7	0x3ec1930e	0.37807506
8	0xbe905aff	-0.28194425
9	0x3eb69654	0.35661566
10	0x3f0328f3	0.5123436
11	0x3f3c7613	0.73617667
12	0xbf137512	-0.5760051
13	0xbe4e2d28	-0.20134413
14	0xbe2c4664	-0.16823727
15	0xbf11a05c	-0.56885314
16	0x3f32b42d	0.69806176
17	0xbe6a5d61	-0.22887184
18	0xbf171a28	-0.59024286
19	0xbec20dd4	-0.37901175
20	0xbd5293ad	-0.051410366
21	0x3f2ec134	0.68263555
22	0x3dfd0cd9	0.12355966
23	0x3e1f613b	0.15564434
24	0x3e4d1306	0.20026788
25	0xbe6cd987	-0.23129855
26	0xbe6d11a3	-0.23151259
27	0x3dd56311	0.10419286
28	0xbed564a8	-0.41678357
29	0x3f314629	0.6924768
30	0xbe23e34d	-0.16004677
31	0x3ca6f599	0.020380782
32	0xbd8771ef	-0.06613528
33	0xbec5f3de	-0.38662618
34	0x4006b4c6	2.1047835
35	0x3e450b17	0.19242512
36	0x3e765b5a	0.24058285
37	0x3e903e11	0.28172353
38	0x3ea31c19	0.31857374
39	0x3c0ec12b	0.008713047
40	0xbe2cba1d	-0.16867872
41	0xbd8970e3	-0.067109846
42	0xbcf83e54	-0.030303158
43	0xbed0e3dd	-0.40798846
44	0xbda634a4	-0.08115509
45	0xbe9a0a3d	-0.30085936
46	0xbc20b4c5	-0.009808724
47	0xbe0295a2	-0.12752393
48	0x3e90901d	0.2823495
49	0x3ccc171d	0.024913365
50	0xbe01fe3b	-0.12694637
51	0x3e89351c	0.26798332
52	0x3fd61821	1.6726114
53	0x3e573e87	0.21019946
54	0x3eb17506	0.34659594
55	0x3e2e4b3f	0.17020892
56	0xbe896bb0	-0.26839972
57	0xbe778429	-0.24171509
58	0xbe91bf04	-0.28466046
59	0xbe48feff	-0.19628523
60	0xbd7108ea	-0.05884639
61	0xbf28c14d	-0.65919954
62	0xbe88034c	-0.26565015
63	0x3e9414d4	0.2892214
64	0x3d102bb5	0.035197932
65	0x3c4fa374	0.012673248
66	0xbd8ef0bc	-0.0697951
67	0xba9c62dc	-0.0011931318
68	0xbe30d10f	-0.1726725
69	0xbe818596	-0.2529723
70	0x3fac9015	1.348147
71	0x3b50a8b0	0.0031838827
72	0x3e99e275	0.30055586
73	0xbc862107	-0.01637317
74	0xbe2aec2a	-0.16691652
75	0xbef9b219	-0.4876869
76	0xbecf209a	-0.4045456
77	0x3f6ce825	0.92541724
78	0x3db18b5a	0.08669157
79	0xbd87dad8	-0.06633538
80	0xbe5fd62e	-0.21859047
81	0x3e0f7264	0.1400848
82	0x3e9ef1b2	0.31043774
83	0xbe2782ff	-0.16358565
84	0xbec51370	-0.38491392
85	0xbdd526a3	-0.1040776
86	0xbeec11c7	-0.46107313
87	0xbecd1ffd	-0.40063468
88	0x3e57e979	0.21085157
89	0x3ea175c1	0.31535152
90	0x3e5c6b94	0.21525413
91	0x3e276122	0.16345647
92	0xbec34877	-0.38141224
93	0x3d3d6145	0.04623534
94	0xbd9707bc	-0.07374522
95	0xbf04c4dd	-0.5186289
96	0x3cd2aa85	0.025716076
97	0x3ebbd6e7	0.36687395
98	0xbeb336cf	-0.35002753
99	0x3f09efd2	0.5388156
100	0x3f3647ef	0.7120351
101	0xbf316433	-0.69293517
102	0xbe9ad455	-0.3024012
103	0xbe7047e1	-0.2346492
104	0xbd0d092e	-0.034432583
105	0x3f012965	0.5045379
106	0x3e6756de	0.22591731
107	0xbd285e97	-0.041105833
108	0x3e9033da	0.2816456
109	0x3df31db0	0.11870897
110	0xbdbbbee4	-0.09167269
111	0xbe4da20a	-0.20081344
112	0x3dc988f6	0.09840576
113	0x3edea257	0.4348323
114	0xbed981c4	-0.42481816
115	0xbebd6e24	-0.36998093
116	0xbf0e7fdb	-0.5566384
117	0xbf043d24	-0.51655793
118	0x3e651e65	0.22374876
119	0x3e69e214	0.22840148
120	0xbf4f8aa2	-0.8107091
121	0xbf2c3929	-0.6727472
122	0x3e94a857	0.29034683
123	0x3d12b147	0.035813596
124	0xbfa7265f	-1.3058585
125	0x3cf70518	0.030153796
126	0xbe0e268d	-0.13881893
127	0xbea36b9c	-0.31918037
128	0xbdd688b5	-0.104752935
129	0xbd22fcbd	-0.03979181
130	0x3e0c3f58	0.13696039
131	0x3eaf671a	0.34258348
132	0x3db46f7e	0.08810328
133	0xbebf40a2	-0.37353998
134	0xbe176022	-0.14782766
135	0x3f1b5320	0.60673714
136	0xbe8f6eba	-0.28014165
137	0xbe2fbb88	-0.17161381
138	0x3e2b2593	0.16713552
139	0x3a90cd49	0.0011047508
140	0xbeda279c	-0.42608345
141	0x3ea23e37	0.3168809
142	0xbfc53727	-1.5407456
143	0x3dcea1de	0.100894675
144	0xbe151477	-0.14558588
145	0xbfa34275	-1.2754656
146	0xbe347764	-0.17623669
147	0x3f39c401	0.72564703
148	0x3cb74650	0.022372395
149	0xbf011710	-0.50425816
150	0xbe0e016d	-0.13867731
151	0x3f20cbb7	0.62810844
152	0x3e0c8b0b	0.13724916
153	0x3de9585a	0.11393805
154	0xbeb5b2cc	-0.35487974
155	0x3c175570	0.0092366785
156	0x3e25a508	0.16176236
157	0x3e6c8b3b	0.23099987
158	0x3d2a8ab4	0.041636184
159	0xbc93e411	-0.018053086
160	0xbefee042	-0.4978047
161	0x3ebce317	0.36892006
162	0x3e30025f	0.17188405
163	0x3e5e6fa3	0.21722274
164	0x3e89dc2a	0.26925784
165	0xbec831ba	-0.39100438
166	0x3ea7b60a	0.32756072
167	0x3cd79ecd	0.02632084
168	0xbf68c2c8	-0.9092221
169	0xbf866901	-1.0500795
170	0xbd269081	-0.040665153
171	0xbeccded3	-0.4001375
172	0xbeeda682	-0.46416098
173	0x3e6afebd	0.22948737
174	0x3eb2538c	0.34829366
175	0x3f738cb4	0.9513657
176	0xbed5ef4f	-0.4178414
177	0xbd954966	-0.0728939
178	0xbf73c660	-0.9522457
179	0x3dae94b7	0.08524459
180	0xbe8588dd	-0.2608098
181	0x3ca30443	0.019899493
182	0xbd9d2ae4	-0.07674196
183	0xbe9700ba	-0.29492742
184	0xbe8aab97	-0.27084038
185	0xbed4a353	-0.41530856
186	0x3e0d187d	0.13778873
187	0x3e5a022c	0.21289891
188	0xbef05428	-0.46939206
189	0xbf0362a2	-0.51322377
190	0x3e31ddbb	0.1736974
191	0x3e7dd16b	0.24786918
192	0x3f221ae7	0.633223
193	0xbe37ba67	-0.179422
194	0x3ead9c96	0.33908528
195	0xbf82dcd4	-1.0223641
196	0xbebe91a7	-0.372205
197	0xbd66eb23	-0.056376588
198	0xbd8bf792	-0.0683433
199	0x3e7d8450	0.24757504
200	0x3d307da5	0.043088574
201	0xbf15f012	-0.58569443
202	0x3df962ba	0.12177034
203	0x3e335142	0.17511466
204	0x3e1a4f18	0.15069234
205	0xbef25fae	-0.47338623
206	0xbe30434b	-0.1721317
207	0x3e26b30f	0.16279243
208	0xbed988f5	-0.42487302
209	0x3f1cbd83	0.6122667
210	0x3f155c9f	0.58344454
211	0x3e7149bf	0.23563288
212	0xbee73189	-0.4515498
213	0xbeae6a1f	-0.3406534
214	0xbea1d566	-0.31608123
215	0x3df025c0	0.1172595
216	0xbe20c9d5	-0.15701993
217	0x3ecf56cb	0.40495905
218	0x3f02a780	0.51036835
219	0xbf8968be	-1.073509
220	0x3d077dc9	0.033078942
221	0xbea396ec	-0.31951082
222	0xbe283f7e	-0.1643047
223	0xbeecc573	-0.46244392
224	0x3d94975e	0.072554335
225	0x3e716003	0.23571782
226	0xbe6269b0	-0.22110629
227	0xbe8ba68d	-0.27275506
228	0xbdd3d640	-0.10343599
229	0x3e95dda4	0.2927066
230	0xbdc7fa55	-0.09764544
231	0x3e667846	0.22506818
232	0xbeb4c962	-0.35309893
233	0x3e436c11	0.19084193
234	0xbde57dc6	-0.1120563
235	0xbf1cd44c	-0.6126144
236	0x3d8e6efd	0.06954763
237	0x3e04de09	0.12975325
238	0xbf32b8ce	-0.6981324
239	0x3ee910ef	0.45520732
240	0xbf510944	-0.81654763
241	0xbdca6980	-0.09883404
242	0xbf6776c9	-0.90415627
243	0xbe04bd3d	-0.12962814
244	0xbe805c6d	-0.25070515
245	0x3e8c546e	0.27408165
246	0xbea41fa2	-0.32055384
247	0x3e1fd379	0.15608014
248	0xbe8517a2	-0.25994593
249	0xbf4d14a9	-0.8010965
250	0x3f3854b7	0.72004265
251	0x3ddf5ac9	0.10905988
252	0xbc5efc66	-0.013609981
253	0xbed0d3b8	-0.4078653
254	0x3ecda88b	0.4016765
255	0xbd2d5082	-0.042313106

pi_features_extractor.network.0.bias f4 [64]
0	0xbd3af710	-0.045645773
1	0x3c10c228	0.008835353
2	0x3c077eb3	0.008269954
3	0xbd8cbcee	-0.06871973
4	0x3e9357f5	0.28778043
5	0x3e9f458f	0.31107756
6	0xbe22fc5c	-0.1591658
7	0x3e526bae	0.20548889
8	0x3eab500e	0.33459514
9	0x3e9f243d	0.31082335
10	0x3cbce118	0.023056552
11	0x3dc8bfce	0.09802209
12	0x3eabd082	0.33557516
13	0x3ea37e25	0.31932178
14	0x3e4d21ca	0.20032421
15	0x3f01dc32	0.50726616
16	0x3d49867d	0.049200524
17	0x3ef3066b	0.47465834
18	0x3eab733c	0.33486354
19	0x3e6bfbe2	0.23045304
20	0x3dda3596	0.10654752
21	0x3d8b70b5	0.068086065
22	0x3e68cb74	0.22733861
23	0x3ca8a7b9	0.020587789
24	0xbe80b635	-0.25139013
25	0xbe8436ec	-0.25823152
26	0xbe22e5a6	-0.15907916
27	0x3e2e3dae	0.17015716
28	0x3d4b3d98	0.049619287
29	0x3f03d92a	0.5150324
30	0x3ed81155	0.42200723
31	0xbeafc8a2	-0.34332758
32	0x3e6154c5	0.22004993
33	0xbdf6edb8	-0.1205706
34	0xbebb9df8	-0.36643958
35	0xbd4072a0	-0.046984315
36	0x3ec34519	0.38138655
37	0xbd9b0bd1	-0.07570613
38	0xbd4e1f73	-0.05032296
39	0xbc09c331	-0.008408354
40	0x3e8db3d8	0.27676272
41	0x3ef3c7f4	0.4761349
42	0x3eadc51a	0.3393944
43	0xbe37f4c2	-0.17964461
44	0x3ecea495	0.4035994
45	0x3ea663de	0.32498068
46	0x3d97d5c0	0.074138165
47	0x3e106e2f	0.14104532
48	0x3ef62dfb	0.48081955
49	0x3e5e0a50	0.21683621
50	0x3e4bf3bf	0.199172
51	0x3d2c9ef9	0.042143796
52	0xbea0048d	-0.31253472
53	0xbdeb011b	-0.1147482
54	0x3f002f8b	0.50072545
55	0xbd2ec85e	-0.042671554
56	0x3f0ebbe2	0.55755436
57	0x3ec83708	0.39104486
58	0x3e815ed2	0.25267655
59	0xbe3a8d6e	-0.18218014
60	0xbd18e6b0	-0.037329376
61	0x3ef06b2d	0.4695677
62	0x3e949703	0.29021463
63	0x3d101c1c	0.035183057

pi_features_extractor.network.2.weight f4 [128, 64]
0	0x3b99fdde	0.004699453
1	0x3ee623af	0.449491
2	0x3da134e6	0.07871418
3	0xbe39c467	-0.18141328
4	0x3eb1dae6	0.3473732
5	0x3df8726e	0.12131201
6	0xbf70059d	-0.93758565
7	0xbe708a5a	-0.23490277
8	0x3ea2d849	0.31805637
9	0xbf8174bd	-1.0113751
10	0xbc222f1e	-0.009898929
11	0x3ea8f75d	0.33001223
12	0xbdf5e30e	-0.12006198
13	0x3f15511b	0.5832688
14	0x3e1b8b8b	0.1518995
15	0x3e97f2a0	0.29677296
16	0x3eaaf294	0.33388197
17	0xbee00c9b	-0.43759617
18	0x3e86681b	0.262513
19	0x3f041c86	0.51606023
20	0xbeb0e003	-0.34545907
21	0xbeec14a1	-0.4610949
22	0x3ed6408e	0.41846126
23	0xbf3ee347	-0.7456555
24	0xbe072c7e	-0.13200566
25	0xbc3690c1	-0.01114291
26	0xbda2ea25	-0.07954816
27	0x3e96b2b4	0.29433215
28	0x3e8ddfe1	0.2770987
29	0x3e29084f	0.16507076
30	0xbd923c04	-0.07140353
31	0x3f45e673	0.7730476
32	0xbbaa3cdb	-0.005195243
33	0xbea02b78	-0.31283164
34	0x3e324bf8	0.17411792
35	0xbee4a9f9	-0.4466093
36	0xbd8aff7c	-0.06787011
37	0x3eddb232	0.43300015
38	0xbe0eae67	-0.13933717
39	0xbe8d52ab	-0.27602133
40	0x3e804125	0.250497
41	0xbecf41df	-0.40479943
42	0x3e04494c	0.12918586
43	0xbef5699f	-0.47932145
44	0x3e510dac	0.20415372
45	0xbed40027	-0.41406366
46	0xbd25e4dc	-0.04050146
47	0x3f0345a0	0.51278114
48	0xbf14bf2f	-0.58104223
49	0xbea884f7	-0.32913944
50	0xbf73712d	-0.9509457
51	0x3e38deb6	0.18053707
52	0xbef4a645	-0.47783104
53	0xbf3e12c1	-0.74247366
54	0x3e67e3ab	0.22645442
55	0xbe07a27d	-0.13245578
56	0xbd6c9bdd	-0.05776583
57	0x3e2d7d36	0.16942295
58	0xbda08052	-0.07836975
59	0x3f0a4413	0.54010123
60	0x3e8640d9	0.2622135
61	0x3e83cf1c	0.2574395
62	0x3f1ae070	0.60498714
63	0x3e6d4864	0.23172146
64	0x3e6d8694	0.23195869
65	0xbd4dc936	-0.050240718
66	0xbec44a78	-0.38338065
67	0xbc5ff98e	-0.013670338
68	0xbe68ddf1	-0.22740914
69	0x3d9d1049	0.07669122
70	0xbf10d53f	-0.5657539
71	0xbe7cba94	-0.24680549
72	0xbea3368c	-0.31877553
73	0xbec3db89	-0.3825343
74	0xbe60bbe0	-0.21946669
75	0x3ea5aa73	0.32356605
76	0xbc6f811d	-0.014618185
77	0xbee2fefc	-0.44335163
78	0x3c50898b	0.012728105
79	0xbdaa0316	-0.0830137
80	0xbc9a00c2	-0.01879919
81	0xbce21268	-0.027596667
82	0xb9f77f8d	-0.00047206544
83	0xbf5762cc	-0.8413513
84	0x3d3121fd	0.043245304
85	0xbec85d2b	-0.39133582
86	0x3e82a4f3	0.2551647
87	0xbe43316b	-0.1906182
88	0x3ea67a56	0.3251521
89	0xbe458f2a	-0.19292894
90	0xbd323251	-0.043505017
91	0x3e26d129	0.16290726
92	0xbc1aed6f	-0.009456023
93	0xbdcdfb2e	-0.10057674
94	0xbf3ea659	-0.74472576
95	0x3e1df23c	0.15424436
96	0xbd83acb6	-0.06429426
97	0xbe6abb28	-0.22922957
98	0xbe6e541c	-0.23274273
99	0xbee3bd34	-0.44480288
100	0xbda418e3	-0.08012559
101	0x3eb11dc2	0.34593016
102	0xbea8b36e	-0.32949394
103	0xbd69cfc1	-0.057082895
104	0x3d2f5d42	0.042813547
105	0xbe9a7de2	-0.30174166
106	0xbe69ae41	-0.22820379
107	0xbf605dec	-0.87643313
108	0xbdaf11f2	-0.08548345
109	0x3dad7423	0.08469417
110	0x3dee62cc	0.11639938
111	0xbe60016f	-0.21875547
112	0x3c629f94	0.013831992
113	0xbeb73941	-0.3578587
114	0xbeb5acb8	-0.35483336
115	0x3a92640d	0.0011168733
116	0xbd7b8631	-0.06140727
117	0xbe48ccc6	-0.19609365
118	0xbde77f1e	-0.113035426
119	0x3e7599f4	0.2398451
120	0x3e01917f	0.12653159
121	0xbf9ae2b4	-1.2100434
122	0x3d83febc	0.06445071
123	0xbb61033a	-0.0034334199
124	0xbe2f62d8	-0.1712755
125	0x3e946b26	0.28987998
126	0x3eb08ea9	0.3448384
127	0xbd52b79b	-0.05144463
128	0x3e235b6a	0.1595284
129	0xbf70e859	-0.94104534
130	0xbdc3dabe	-0.09563206
131	0xbf0c7a62	-0.5487424
132	0x3e9af0ec	0.30261934
133	0x3de63a86	0.11241631
134	0x3f2fe041	0.6870156
135	0x3ed3af43	0.41344652
136	0x3ed9287a	0.42413694
137	0x3e551f40	0.20812702
138	0x3f61a44a	0.8814131
139	0x3f02030b	0.50785893
140	0x3e1d0e4f	0.1533749
141	0x3e1d13a0	0.15339518
142	0xbf2d453f	-0.67683786
143	0x3d986da9	0.07442791
144	0x3d71b5c4	0.059011236
145	0x3e651d87	0.22374545
146	0x3c9eecb6	0.019399982
147	0x3d78a921	0.06070817
148	0x3e279473	0.16365223
149	0xbf0046c3	-0.50107974
150	0x3e96264e	0.293261
151	0x3e0a2c72	0.13493517
152	0x3f500a1b	0.8126542
153	0xbe306e98	-0.17229688
154	0xbf34d672	-0.7063972
155	0x3e86423c	0.26222408
156	0x3e1cd618	0.15316045
157	0x3e3ed8dd	0.18637414
158	0xbe6b28e4	-0.22964817
159	0xbd2c1fc2	-0.042022474
160	0x3e33cd51	0.1755879
161	0x3b35c4cb	0.0027735706
162	0xbebd56c9	-0.36980274
163	0x3df1ca0a	0.11806114
164	0x3dcd0654	0.100109726
165	0x3f3df4d3	0.742017
166	0x3f06f5f3	0.5271904
167	0xbee6e15e	-0.45093817
168	0x3dc882d2	0.09790577
169	0xbe00e583	-0.12587552
170	0x3e5a101c	0.21295208
171	0x3f04b5a7	0.5183968
172	0xbea9a26d	-0.33131734
173	0xbd8fb96b	-0.070177875
174	0xbedaf24c	-0.42762983
175	0x3f37ae86	0.71750677
176	0x3e77e6aa	0.24209085
177	0x3d2243ac	0.03961532
178	0x3efe3ed5	0.49657312
179	0xbe26f346	-0.16303739
180	0x3f7650bd	0.96216947
181	0x3cf68c51	0.030096205
182	0xbe689624	-0.22713524
183	0x3f209fe1	0.62743956
184	0xbbc83047	-0.0061092707
185	0xbb722792	-0.0036949855
186	0xbde9703f	-0.11398362
187	0xbd0ce782	-0.03440047
188	0x3eeb62ca	0.45973808
189	0x3c07693a	0.008264834
190	0x3ec2b1a1	0.38026145
191	0x3edbb2a9	0.42909744
192	0x3d078c18	0.03309259
193	0xbdf6b94f	-0.120470636
194	0xbc79baf5	-0.015242328
195	0x3cdc0af0	0.026860684
196	0xbe2d6522	-0.1693311
197	0x3db815d0	0.089885354
198	0xbdd49ac1	-0.103810795
199	0xbe831e53	-0.25609073
200	0xbeb8bf72	-0.3608356
201	0x3e24e599	0.1610321
202	0xbeef0866	-0.46686095
203	0x3ea0567e	0.31315988
204	0x3eba3602	0.3636933
205	0xbe8beac4	-0.2732755
206	0xbe16498e	-0.14676496
207	0xbf18eb5c	-0.5973413
208	0x3e1725db	0.14760534
209	0xbcf48e11	-0.029852899
210	0x3e309730	0.17245173
211	0xbe268360	-0.16261053
212	0x3ed22cfb	0.41049942
213	0x3e2c7f1a	0.1684536
214	0x3e674c2f	0.22587655
215	0xbc146d99	-0.009059333
216	0x3f3676a7	0.712748
217	0xbeb10a72	-0.34578282
218	0x3ef08330	0.46975088
219	0x3d32858b	0.043584388
220	0xbdc08e5f	-0.09402155
221	0xbe6e3179	-0.2326106
222	0xbe5a2fb9	-0.21307267
223	0xbf05e0b2	-0.5229598
224	0x3d56b0ef	0.05241483
225	0xbeec4878	-0.4614904
226	0xbf12750e	-0.5720986
227	0x3d9f6be4	0.077842504
228	0x3ee4f7aa	0.44720203
229	0xbd9706bf	-0.073743336
230	0xbd511c08	-0.051052123
231	0x3f2c19de	0.6722697
232	0x3e81d14f	0.25355002
233	0x3d32913d	0.04359554
234	0x3d696eac	0.05699031
235	0xbf2158d4	-0.63026166
236	0xbe074708	-0.1321069
237	0xbc1ecea0	-0.009692818
238	0x3e79ad36	0.24382481
239	0xbf0d514c	-0.55202174
240	0xbd8f8909	-0.07008559
241	0xbe1890f7	-0.1489905
242	0x3dd83c37	0.1055836
243	0xbeedd2fd	-0.46450034
244	0x3e8aa9d3	0.2708269
245	0xbd595bef	-0.05306619
246	0x3e8c05fa	0.2734831
247	0x3f0dbb65	0.55364066
248	0x3ecfb0c9	0.40564564
249	0xbcf4323d	-0.029809112
250	0x3ee1d1d3	0.44105396
251	0xbd588ae2	-0.052866824
252	0xbdd249bc	-0.1026797
253	0x3f1ad9ae	0.604884
254	0xbe5fec4b	-0.21867482
255	0xbf1c0c46	-0.6095623
