sim2real/RL-VertiBench/student_policy.pth (torch, 9359 bytes, 6 tensors)

policy_network.0.weight f4 [32, 18]
000000 00 47 63 be 24 4d 81 3d 5a d4 2d 3c fe 97 77 bd
       -0.22195053 0.063135415 0.010609711 -0.060447685
000010 be 38 52 be 5c 71 21 3e b6 d2 66 be 9e 5b 01 be
       -0.20529458 0.157659 -0.22541317 -0.12632605
000020 69 2f 8d bc a5 49 2c 3e 83 9d 53 3d 30 6c 3b 3e
       -0.017234521 0.16824968 0.051663887 0.18302989
000030 a6 28 53 be 6b 26 42 bd bf 80 08 3b 39 3e 09 be
       -0.20620975 -0.04739992 0.0020828692 -0.13402642
000040 d4 ed 64 be c0 e3 08 be 55 37 44 bc 9d cc 0c be
       -0.22356349 -0.1336813 -0.011976083 -0.13749929
000050 66 5f f3 bd 60 4b 10 bc 26 7e 94 bd 47 bd b9 bd
       -0.1188343 -0.008807033 -0.072506234 -0.09069305
000060 dc 21 2a be fd 1e 12 be df 1e 54 3e 4e 93 4f be
       -0.16614479 -0.14269634 0.20714901 -0.20271036
000070 9a db bc bc b6 65 12 3e 24 27 ae bc 4b bd 55 be
       -0.023053933 0.14296612 -0.021258898 -0.20872991
000080 38 cb 07 be f7 f0 e1 3d b5 e7 c8 bc 60 d6 59 be
       -0.13261116 0.110322885 -0.024524549 -0.21273184
000090 3f 47 f1 bd c3 b6 22 be 69 3a d3 bc e4 34 8f 3d
       -0.11781167 -0.1589003 -0.025784688 0.0699251
0000a0 1c 78 a0 3d fd 39 31 be b3 9a bf 3d 82 ef 42 be
       0.07835409 -0.17307277 0.093556784 -0.19036677
0000b0 88 be 1c 3e 75 1a 8a bd 22 d2 80 bc a8 c3 3a 3e
       0.15307057 -0.067433275 -0.0157252 0.182387
0000c0 98 f8 99 bd 7b 7d 85 3d 54 6b 40 be bc b0 d0 3c
       -0.075181186 0.06518074 -0.18790942 0.025474899
0000d0 d5 26 dc 3e f7 b2 41 3e 03 fb c8 bd 1c f9 1f 3c
       0.42998376 0.18915926 -0.09813502 0.009763982
0000e0 e3 21 08 be 6e 69 f7 bc 15 dd 62 3e f5 e8 fb bd
       -0.13294177 -0.03020164 0.22154649 -0.123002924
0000f0 a1 3f e7 3b 97 1c ac bd 48 56 7d be 3a da 12 3e
       0.0070571457 -0.084038906 -0.24739945 0.1434106
000100 9e 04 17 be 32 af 61 bd f6 56 96 3d e4 7c 88 3d
       -0.14747855 -0.05509872 0.07340805 0.06664446
000110 d4 42 3f 3e 13 62 bd bc 94 93 bc 3d bf fb 5f 3d
       0.18677837 -0.023118054 0.09207836 0.054683443
000120 42 25 18 be 0f be 93 bd 74 ee 83 3e 2c 8e c7 3d
       -0.14857963 -0.07213985 0.25767863 0.09743914
000130 e2 6f c2 bc bb 0c 06 bd e1 fc 5e 3d c4 c4 81 3d
       -0.02373499 -0.032726984 0.054440383 0.06336358
000140 f8 8a 19 be e1 41 18 3d f8 c2 b2 bc 15 b7 63 bd
       -0.14994419 0.037172202 -0.021821484 -0.055594523
000150 ec e6 ac bd 14 78 1a 3e 10 1d 29 3c 32 9a 54 be
       -0.08442482 0.15084869 0.01032187 -0.20761946
000160 58 c8 93 be 63 ec 83 3d ba a3 8b be ee 25 6e 3d
       -0.28863788 0.064415716 -0.2727335 0.05814164
000170 de 34 6b 3e 2d 73 9c 3d db 89 35 3e 2c 6f 91 3b
       0.22969386 0.076391555 0.17728369 0.0044383015
000180 d2 eb ef bd 48 c9 b2 bd 90 e4 91 3e dd 50 14 3e
       -0.11714901 -0.087297976 0.28494692 0.14483972
000190 22 83 b0 bc 77 6e f3 3d fe 67 e5 bd b1 f8 52 be
       -0.021546904 0.11886304 -0.112014756 -0.2060268
0001a0 ec d5 85 be 6f e2 e6 bd 9c 81 11 3f d3 24 63 bd
       -0.26139772 -0.112736575 0.56838393 -0.05545504
0001b0 bf 62 e3 bd 65 3c 84 be e4 7a b8 bd 2d 4c 41 3e
       -0.11102819 -0.25827327 -0.090078145 0.18876715
0001c0 a9 a4 1b be 46 1f 2d bd d1 0d 05 3e 4a 5e a8 bb
       -0.15199532 -0.042266153 0.12993552 -0.0051381933
0001d0 c4 2c 9d 3b 6f 0d 7a 3e 38 6b 15 3e cb 8e 07 3e
       0.0047965962 0.24419187 0.14591682 0.13238065
0001e0 3b 05 8a 3e e2 a8 64 be 64 15 6a 3d d1 c9 ce bd
       0.26957116 -0.22330049 0.057149306 -0.10097087
0001f0 07 2f 47 be 30 ee 04 bc e1 71 7c bd d8 b4 5f bd
       -0.19451533 -0.008113429 -0.06163204 -0.054615825
000200 14 f5 e2 3c ef 21 69 be b5 d0 43 be 4a d0 52 3e
       0.027704753 -0.22766851 -0.19122584 0.20587268
000210 d9 96 0a 3c 27 9c a0 bd 67 f9 57 be 60 d5 37 bd
       0.008458816 -0.07842284 -0.21091233 -0.044881225
000220 2a 53 8e bd 7f 8d 2f be 1f 0b 72 3d 11 a3 14 be
       -0.06949456 -0.1714382 0.059092637 -0.1451533
000230 d7 a6 b8 3d b5 63 f5 3d 74 c6 db 3d 9d 72 c5 bd
       0.09016197 0.11981908 0.10731211 -0.096410014
000240 3b c6 50 be 94 b0 15 3e 26 f8 64 be 24 e1 57 bd
       -0.20388119 0.1461814 -0.22360286 -0.052704945
000250 fe 3b f7 bd 47 7d 4e be 92 32 1b be 24 72 f5 bd
       -0.120719895 -0.20164977 -0.1515601 -0.11984661
000260 2d 13 33 be 11 28 f8 bc 25 63 08 be 1f c8 63 be
       -0.17487784 -0.030292543 -0.1331907 -0.22244309
000270 1e 42 b6 bd e2 b1 02 3e dd d8 6a 3e c8 3a f4 3d
       -0.088993296 0.1276317 0.2293429 0.11925274
000280 d4 48 c0 bd 05 b4 02 be 1a b2 09 be 9e 83 8f be
       -0.09388891 -0.12763985 -0.13446847 -0.28030103
000290 4a 42 ef bd 32 e6 3d 3e 23 02 84 3e c8 fe ef bd
       -0.116825655 0.18544844 0.2578288 -0.117185175
0002a0 09 81 ad bd 75 d0 68 3d c9 de 5f 3c 81 f2 05 3e
       -0.08471877 0.056839425 0.013663956 0.13080789
0002b0 18 71 92 be 1b a9 9c 3d 01 2d de bd 3d 8c 3b be
       -0.2860191 0.07649442 -0.108484276 -0.18315215
0002c0 65 a4 1a 3e af df 9b bd 8b b2 1a be 01 be b6 3d
       0.15101774 -0.07611024 -0.15107171 0.08922959
0002d0 92 4f c3 bd fc 4b 05 3d 19 e1 01 3e a4 f1 f8 3c
       -0.09536661 0.032543167 0.12683524 0.03038866
0002e0 d0 1a 08 3d 20 24 46 3d be 32 26 3e bf 73 06 bd
       0.033228695 0.048374295 0.16230294 -0.032825228
0002f0 55 68 42 bd 65 44 e0 3c 2f 09 ce bc 22 81 13 be
       -0.04746278 0.027376363 -0.025150863 -0.14404729
000300 1d 70 6f bd 5e a5 a5 3d 9b 12 37 3e 6f 18 29 3e
       -0.05845653 0.08088182 0.17878191 0.16513227
000310 c0 fc 11 3d 9c fd 11 be 38 18 2f 3d fb e8 d8 bd
       0.03564143 -0.142569 0.042747706 -0.105913125
000320 a0 c3 b2 3d 61 88 91 3e 8f c7 f0 3d a8 80 74 be
       0.08728719 0.2842436 0.11756813 -0.23877203
000330 99 61 94 3d 50 5c 54 3e 2f 91 b4 3d 96 79 8b 3e
       0.07245178 0.2073834 0.08816754 0.272412
000340 76 8a 04 be 45 f5 8b be 42 10 76 3d a9 70 51 bd
       -0.12943444 -0.27335563 0.0600741 -0.05113283
000350 bc 4e 20 3e ed 3d ab 3c 19 76 eb 3d e9 08 1f bf
       0.15655035 0.020903552 0.11497135 -0.6212297
000360 f0 5a df 3d ef ec cd 3d ea 79 42 3e 34 35 69 be
       0.10906017 0.10054957 0.18991819 -0.22774202
000370 3e 4b 52 be 50 bd 58 3d 77 ca dc 3c ed 2a a7 3d
       -0.20536515 0.052914917 0.026952012 0.08162484
000380 aa e0 b9 bd 73 64 f8 3d c1 c4 04 3e 06 b5 1f 3e
       -0.090760544 0.12128534 0.1296568 0.15596399
000390 ba df 65 bd a5 b6 80 bd ce c2 60 be 27 c3 e2 bd
       -0.056121565 -0.06284837 -0.21949312 -0.110723786
0003a0 1f 2f 0f 3d 27 f5 5b 3d a5 55 a9 3d b1 1e 0f be
       0.034957048 0.053700592 0.082682885 -0.13976552
0003b0 6e 62 2f 3e de 50 c1 3c e6 9d 58 bd 9d 2a 84 bd
       0.17127392 0.02359813 -0.05288496 -0.0645344
0003c0 c4 23 0b 3e ca ac b0 3d 48 1c 9e 3d a1 22 57 3e
       0.13587862 0.08626707 0.07720238 0.21009304
0003d0 cb 7e 0b 3d a6 04 6f 3d 2e b9 55 3e da a5 b6 3d
       0.034056466 0.058354042 0.20871422 0.089183524
0003e0 70 47 e8 3d 8a 57 df bb 00 be 86 be 8e ef 23 3c
       0.113417506 -0.0068158554 -0.26316833 0.010005845
0003f0 9b 14 85 bc b5 0a a5 bc 22 b1 78 bd 1a 21 2d be
       -0.016245177 -0.020146707 -0.060715802 -0.16907158

policy_network.0.bias f4 [32]
000000 c6 1b 68 3d 0c ab 07 be f5 72 40 bc 10 b2 4d be
       0.05666711 -0.13248843 -0.011746158 -0.20087457
000010 fa 9b 1b be 06 ae 93 3d e2 b7 1f 3e 15 4c 19 3e
       -0.15196219 0.07210927 0.1559749 0.14970429
000020 ae 39 19 be 4b ab 6e 3e 29 28 fb bc 04 16 1b be
       -0.1496341 0.2330753 -0.030658798 -0.15145117
000030 a6 c7 10 3e c9 2a 73 be 90 cb 4f 3e ac a9 1e 3e
       0.1413866 -0.2374679 0.20292497 0.15494412
000040 a9 99 ba 3c 57 13 58 3e e3 2b f2 bd df 78 23 be
       0.022778349 0.21101128 -0.11824777 -0.15964077
000050 61 65 5e bd a6 6a c5 bd 93 07 a0 3d 5d bc 47 bd
       -0.0542959 -0.09639482 0.07813945 -0.04876362
000060 17 bb 5b 3e 02 72 97 bc 0b 39 e0 bc cd b3 3d be
       0.21458088 -0.01848698 -0.02737095 -0.1852562
000070 8c 23 92 3c 1d 69 0d be 2e c2 fb 3d df 8c 6f 3d
       0.017839216 -0.13809629 0.12292896 0.058483955

policy_network.2.weight f4 [32, 32]
000000 b0 28 9a 3d da 27 24 be fe cb 43 3e 47 cb 3d 3d
       0.07527292 -0.16030827 0.19120786 0.04633644
000010 c7 2d 72 3e 19 51 94 3d d5 c6 0c 3b 08 04 c4 3d
       0.23650275 0.07242031 0.0021480818 0.095710814
000020 94 73 b7 3d 2c b5 d4 bc 42 5e eb bd cb 8c 67 3d
       0.08957592 -0.025965296 -0.114925876 0.056530755
000030 33 79 fd 3c c7 a8 26 3e d5 d4 a2 3d c5 df 0d be
       0.030941581 0.16275321 0.07950751 -0.13854893
000040 72 33 e9 bd 28 ca 0d 3b 3a f8 ad 3d a9 c5 45 3e
       -0.113867655 0.0021635387 0.08494611 0.19313683
000050 ea 20 19 be 54 be 87 bd 9a 33 b1 3d 6c 77 33 3d
       -0.14953962 -0.06628099 0.0865242 0.04381506
000060 fc c3 32 3e c6 ce a5 3d 76 30 a8 3d 89 d8 9f 3d
       0.17457575 0.080960795 0.08212368 0.07804973
000070 cc 8e 0a bd 63 36 e2 3d d9 e1 6f 3e 66 f9 d1 3d
       -0.033827588 0.1104553 0.23425998 0.10252647
000080 c4 79 65 bd 18 19 3f 3d 36 29 14 3e 70 0a f3 bc
       -0.056024328 0.04665479 0.14468846 -0.029668063
000090 e8 02 62 be 6a 1e 15 3e 6e 2d 0b 3d 02 28 26 bc
       -0.22071421 0.14562383 0.033978872 -0.010141375
0000a0 db 44 e1 3d 65 01 e7 bd 4b b6 26 3d f9 0f d2 3d
       0.10999461 -0.11279563 0.040701192 0.10256953
0000b0 fb 29 24 3e 14 13 0f 3d a1 a6 c6 3d a4 3c 05 3b
       0.1603164 0.034930304 0.09699751 0.0020330334
0000c0 0b c5 14 be 31 b6 c4 bc e5 58 f2 bd c2 49 08 3d
       -0.14528291 -0.024012657 -0.118333615 0.033273466
0000d0 c1 0d 88 3d c4 b5 81 bd a5 8c 15 bc ad 82 a3 3d
       0.06643248 -0.06333497 -0.009127771 0.07983909
0000e0 7c cd c3 3d 38 84 c8 3d 12 ed bb 3c b0 ea 26 3e
       0.095606774 0.09790844 0.022940192 0.16300464
0000f0 65 4a 0c be cd 9e 7a 3d 9d 05 2f be 0e 9a fe bd
       -0.13700254 0.0611866 -0.17091985 -0.12431727
000100 94 75 1c 3d d8 84 f9 bc ab 17 6d bd 90 bd 4c bd
       0.03819807 -0.030458853 -0.0578839 -0.04998547
000110 06 56 3a 3d 19 65 86 3d 1b 64 97 3d 7c 4f e9 3d
       0.045492195 0.065622516 0.073921405 0.113921136
000120 17 f7 20 bd 6b 6f 71 3d b8 71 75 3c 15 17 79 3b
       -0.039298143 0.058944147 0.014980726 0.0038008143
000130 c9 a6 ec bb f4 80 d0 3b c1 65 11 be 94 aa 52 bc
       -0.007222031 0.0063630287 -0.14198972 -0.012858052
000140 60 f9 48 bd 72 8e 13 3e 1b e2 a2 3d f1 fd bc 3b
       -0.049065948 0.14409807 0.079532824 0.005767577
000150 2b 0a 6f bc 21 72 26 3e 7c 68 f4 3d ac d3 1c be
       -0.014589827 0.16254474 0.11933991 -0.15315121
000160 3b 0c 31 be a9 bc d0 3d 67 ed bf bc d4 51 c3 bd
       -0.17289822 0.10192234 -0.023428632 -0.09537092
000170 bc 5f 33 3d 02 70 0a 3e 3b 2d 91 bd 85 a4 90 bd
       0.04379247 0.1351929 -0.07088705 -0.070626296
000180 e4 ea 70 3d ec b4 ce 3d b0 5c b0 3c 00 4e 01 be
       0.05881776 0.10093102 0.021528572 -0.12627411
000190 3e d8 03 3e d7 70 7e 3e e5 79 52 bc e8 e1 d9 3d
       0.12875459 0.24847732 -0.012846445 0.10638791
0001a0 a1 fb 05 3b a9 53 06 3d 19 d6 07 3c 81 e1 84 3c
       0.0020444172 0.03279463 0.008290791 0.01622081
0001b0 13 eb 32 be a2 7a bd bd c2 86 07 3e ad a7 13 3d
       -0.17472486 -0.09251906 0.13235 0.03604858
0001c0 59 d1 0a be 0c 99 77 3c 17 9e 2e 3e 19 71 01 3d
       -0.13556422 0.015112173 0.17052494 0.031602
0001d0 3d eb c5 bd 36 d9 0f bd a7 c1 8a bd 13 d7 9f 3d
       -0.09664009 -0.035119258 -0.067752175 0.07804694
0001e0 6d 29 f5 bc c9 11 3b 3e 5b 4c c4 bc 82 7c aa bd
       -0.02992698 0.18268503 -0.02396219 -0.08324529
0001f0 dd ec 05 be 33 32 f1 3c ed 17 06 3e 90 24 1d bd
       -0.13078637 0.029442882 0.13095064 -0.038364947
000200 96 86 32 3d 87 00 e4 3c 1a ab 66 bd a5 e3 d3 3d
       0.043585382 0.027832283 -0.05631552 0.10346154
000210 bc 1a f4 3c f2 93 ec bc f7 56 43 3d 77 45 1d 3d
       0.029797904 -0.02887914 0.047690358 0.038396325
000220 41 c8 4c 3d 9d ba 46 3e 8e 43 d2 bd 72 1d 58 3e
       0.049995665 0.19407125 -0.10266791 0.21104982
000230 9c f7 01 be 29 97 1b bc ce ff e8 3d 16 31 0c be
       -0.12692112 -0.009496489 0.11376916 -0.136906
000240 c4 68 de bb ae bc 32 3e 21 e0 0e 3e da f3 4f 3e
       -0.0067873914 0.17454788 0.13952686 0.20307866
000250 9b ed 23 be b5 54 3b 3e ae 75 18 3e 0b 64 05 3d
       -0.16008608 0.18294032 0.14888641 0.03256611
000260 ee dd fb bd 3e 19 c1 3d e7 a1 57 bd c5 40 56 bd
       -0.12298189 0.09428643 -0.052644636 -0.052307863
000270 6d e3 02 bd ab eb 2d 3e f6 d1 cb bd 2b 6b 9e bd
       -0.03195517 0.16984431 -0.09952156 -0.077352844
000280 60 6c 37 3d 5e 65 1a 3d d9 2d e8 bc 38 b4 5c 3c
       0.04478109 0.037694328 -0.028342174 0.013470702
000290 60 61 f5 3d ee 9f 00 be 06 bc 1f be 0a ea 6e 3d
       0.119814634 -0.12561008 -0.15599069 0.058328666
0002a0 55 95 08 be 15 f3 0a be 08 f4 4c bb 72 bc a8 3a
       -0.13338216 -0.13569291 -0.0031273384 0.0012873544
0002b0 d7 43 56 bd 2e 66 9b bc 29 94 f8 bd 48 be eb bd
       -0.05231079 -0.018969622 -0.12137634 -0.11510903
0002c0 a5 ca a1 bc 98 52 a9 3d bb eb 1f be 70 d6 85 bd
       -0.019749949 0.08267707 -0.15617268 -0.06535041
0002d0 05 06 6e bd 6c eb 1f be bb 99 a6 bd 2a e1 31 be
       -0.05811121 -0.1561715 -0.081347905 -0.1737105
0002e0 ea 25 2b 3e f2 88 2d be e8 10 f6 bd 98 ad 8b bc
       0.16713682 -0.16946772 -0.12014943 -0.01705055
0002f0 39 03 e4 bd 24 1e e3 3d 83 d4 22 3e d7 4f 82 3c
       -0.11133427 0.11089733 0.1590138 0.015907211
000300 8f 79 01 3e f3 4f f8 bd 06 85 75 bd 7c 42 12 3d
       0.12644027 -0.12124624 -0.059941314 0.035707936
000310 3c cb a8 bd b0 6d f2 bd 9b a3 aa bd 56 42 c8 bd
       -0.08241889 -0.118373275 -0.083319865 -0.097782776
000320 e2 79 cf 3c 5c d5 d3 3d 46 de c2 3c 69 de 25 3d
       0.025326673 0.103434294 0.023787629 0.04049531
000330 0f be 28 be 84 10 e4 3d 4d 64 99 bd 3f 3f 20 bc
       -0.16478752 0.111359626 -0.07489834 -0.009780704
000340 05 de 0f 3e 0b ef e9 bd 13 ad 12 3e b8 67 53 bd
       0.14049537 -0.11422547 0.14323835 -0.051612586
000350 0c 24 18 be d9 40 83 bd 8e bc 2b be 01 92 cf 3d
       -0.14857501 -0.06408853 -0.16771147 0.1013527
000360 ce 5a 2a 3e b9 3a 10 3e 94 e5 21 be 4a a3 1a 3e
       0.16636202 0.14084901 -0.15810233 0.15101352
000370 a0 47 d1 3c 85 4e 51 3c 78 50 32 bd 50 1c 86 3c
       0.025546849 0.012775068 -0.043533772 0.016370922
000380 09 ba 0f be a2 49 1b bd 0e ba 1f be 6f 14 d8 3d
       -0.1403581 -0.03791202 -0.15598318 0.105507724
000390 47 43 e5 3d 70 97 29 3e f1 b7 2f 3e 4a 88 e2 bd
       0.11194473 0.16561675 0.17160012 -0.11061151
0003a0 4d be 91 bd 59 4a 3b 3c 0a 5c 5e bd a6 98 06 3e
       -0.07116375 0.0114313 -0.054286994 0.13144168
0003b0 a9 e8 1c 3d 6e 50 24 3e ac 87 3e bd 67 c8 86 3d
       0.03830782 0.16046306 -0.046516106 0.065811925
0003c0 e2 6c a0 bd c2 eb f5 bd b2 63 30 be 29 1a 42 bc
       -0.07833268 -0.12007858 -0.1722553 -0.011847057
0003d0 44 70 ac 3d d0 8c ff bc 4c c5 80 bd f0 49 df 3d
       0.084198505 -0.031195074 -0.062876314 0.10902774
0003e0 ef 3e 28 3c ed 70 df bd 49 52 90 bc 74 e4 27 3e
       0.010268911 -0.10910211 -0.017617362 0.16395742
0003f0 67 4d e8 3d ee 53 b0 bc 6b 55 93 bd 57 a9 b7 3d
       0.11342888 -0.021524396 -0.071940266 0.08967846

policy_network.2.bias f4 [32]
000000 37 1d 5f 3e 95 86 d1 3d 11 99 d3 3d 52 06 93 bd
       0.21788488 0.102307476 0.103319295 -0.0717894
000010 2b 82 19 bd 20 3f c9 3d 98 f1 97 3d 50 42 1b be
       -0.037477653 0.09826493 0.07419127 -0.15162015
000020 80 6d e9 3d e1 86 17 be e8 5c 9a 3d bb cc 52 bd
       0.113978386 -0.14797546 0.07537252 -0.051464777
000030 18 6e d3 3d e6 13 1e be b4 c3 3f bc cf f3 ca bd
       0.10323733 -0.15437278 -0.011704374 -0.09909784
000040 b7 dd 2a be f8 5d cb bd 06 b6 1b be b9 56 95 bd
       -0.1668614 -0.099300325 -0.15206155 -0.07291932
000050 d6 36 26 bd 00 9e 15 bc 3f 7f 23 be 07 3f b8 3d
       -0.04057964 -0.009131908 -0.1596651 0.089963965
000060 76 ac aa bb df d1 f1 bc eb 1f 8b bd 5d 98 21 be
       -0.005208547 -0.02951902 -0.06793197 -0.15780778
000070 94 96 cc bc 97 bb fb ba 6a de 16 3d 04 2b 99 3d
       -0.024974145 -0.0019205686 0.036833204 0.07478908

policy_network.4.weight f4 [2, 32]
000000 85 6c 37 bc 1e cf 8d 3e 95 50 1c 3d af 4f 26 3d
       -0.011195307 0.2769708 0.038162787 0.040603336
000010 42 82 e9 bd c8 c5 0f 3e 9f 1e 14 3e 49 fc 07 be
       -0.11401798 0.14040291 0.14464806 -0.13279833
000020 64 26 00 3e 1f a9 8b 3d 14 62 28 bf 1b c3 9e 3e
       0.12514645 0.06819367 -0.65774655 0.3100823
000030 92 26 f6 bc 91 97 84 bd 67 c5 f6 3d de e0 af bd
       -0.030047689 -0.064742215 0.1204937 -0.08587812
000040 a6 15 e9 bc a5 e8 7f bc 99 04 cc bd 46 52 92 3d
       -0.028452706 -0.015619432 -0.099618144 0.07144599
000050 12 f9 47 3d 5f fb bf bc 09 08 84 bd 39 48 ff bd
       0.048821516 -0.023435293 -0.06446845 -0.12464947
000060 51 4a fe bd b7 51 1d 3e 54 c4 e0 bd 09 67 2f be
       -0.124165185 0.15363203 -0.109749466 -0.17129149
000070 a6 94 c1 bd ca 2a c8 bb fd aa 0e be e8 9f 48 bc
       -0.094521806 -0.0061086165 -0.13932414 -0.012245156
000080 47 ab 42 3d 77 9f 15 be 13 a4 3b 3e 36 fc bd 3d
       0.047526624 -0.14611612 0.18324308 0.09276621
000090 11 d9 22 3e d3 4e 1f 3d 2c 17 e6 bd dc 07 97 3d
       0.15903117 0.038893532 -0.112348884 0.07374546
0000a0 ff 7a aa bd 17 f8 27 3d 89 13 2b bc 18 c6 21 be
       -0.08324241 0.04100808 -0.010441669 -0.15798223
0000b0 1b c6 1d 3e 66 75 04 be 7d a0 1d 3e 70 8b 86 3c
       0.15407602 -0.12935409 0.15393253 0.01642391
0000c0 d5 be f6 bd c2 ee 1b be 83 56 c3 bd 26 65 0b 3e
       -0.12048117 -0.15227798 -0.09537985 0.13612804
0000d0 df 7c 0e be e5 e8 32 3e 48 b1 11 be 69 4a df 3d
       -0.13914822 0.17471655 -0.14227784 0.109028645
0000e0 c6 84 cf bd f8 c8 92 3d 80 85 50 bd b4 48 dc 3d
       -0.101327464 0.07167238 -0.050908566 0.107560545
0000f0 a1 3b 4a bd c9 c4 0c be 7c 5d e9 bd 92 f9 26 be
       -0.049373273 -0.13746943 -0.11394784 -0.16306141

policy_network.4.bias f4 [2]
000000 c1 53 8a bb 14 39 d7 3b
       -0.00422141 0.0065680835
