sim2real/RL-VertiBench/teacher_concrete.pt (torch, 48837 bytes, 12 tensors)

log_std f4 [2]
0	0xbf06fee9	-0.5273271
1	0xbf9e39a2	-1.2361338

mlp_extractor.policy_net.0.weight f4 [64, 18]
0	0x3ec22459	0.37918356
1	0x3ccb3de8	0.024809793
2	0x3e2d6fac	0.1693713
3	0xb99143b4	-0.00027706998
4	0x3e82e164	0.25562584
5	0x3e6079b0	0.2192142
6	0x3db11918	0.086473644
7	0xbd2568f4	-0.040383294
8	0xbddffcb5	-0.10936872
9	0x3cfe4e43	0.031043177
10	0xbe31e2a1	-0.17371608
11	0xbd922722	-0.0713637
12	0x3e12fd5e	0.14354464
13	0x3c688cfa	0.014193768
14	0xbe928a6a	-0.28621227
15	0x3d9342bf	0.07190465
16	0xbe008ef8	-0.12554538
17	0x3e970158	0.29493213
18	0xbe6e876d	-0.23293848
19	0xbe6e00a3	-0.2324243
20	0x3e15fe6c	0.14647835
21	0x3e7eb21f	0.24872635
22	0xbe22acf9	-0.15886296
23	0xbdc4d397	-0.0961067
24	0x3e0d4df8	0.13799274
25	0x3e9002e4	0.28127205
26	0x3eae931c	0.3409661
27	0xbdf03f0f	-0.117307775
28	0x3c8f52b2	0.017495487
29	0x3e5a6dc7	0.21330939
30	0xbed74f3a	-0.42052633
31	0xbd1a3dad	-0.037656475
32	0x3d31831b	0.043337923
33	0xbe12dadf	-0.14341305
34	0xbe3de7de	-0.18545482
35	0x3c51be47	0.012801713
36	0xbe61f815	-0.22067292
37	0x3da52969	0.08064539
38	0xbe3ab834	-0.1823433
39	0x3bc85d75	0.0061146566
40	0xbceb51c4	-0.028725512
41	0x3e35b6de	0.1774554
42	0xbce42ea5	-0.027854273
43	0xbd92a516	-0.07160394
44	0xbe337cd9	-0.17528094
45	0xbe7364dc	-0.23768944
46	0x3d5adb9b	0.05343209
47	0x3e17c38a	0.14820686
48	0x3ca44ac6	0.020055186
49	0xb9f97c0b	-0.000475854
50	0xbd0a6959	-0.033791874
51	0x3e1ce74b	0.15322606
52	0xbe94908e	-0.29016536
53	0x3eebca04	0.46052563
54	0xbc81cf8b	-0.015846035
55	0xbec3df9f	-0.38256547
56	0xbe853d6e	-0.2602343
57	0xbe5ec694	-0.21755439
58	0x3ba318a4	0.0049773026
59	0xbe157246	-0.14594373
60	0x3ea1ed7d	0.31626502
61	0x3e275ab1	0.1634319
62	0x3e3d6bf9	0.1849822
63	0xbea41ac2	-0.32051665
64	0xbd489282	-0.048967846
65	0x3e863d42	0.2621861
66	0x3d1df843	0.03856684
67	0xbda6f3aa	-0.08151944
68	0x3e8c75e6	0.274337
69	0x3d6e73ba	0.058215834
70	0xbe9cbf60	-0.30614758
71	0x3eb8cc0a	0.3609317
72	0xbbc3fb53	-0.005980888
73	0x3e87af47	0.26500914
74	0xbeb6ff06	-0.35741442
75	0xbdc3ea5d	-0.095661856
76	0xbe5e28be	-0.2169523
77	0x3dd297dc	0.10282871
78	0x3ecacf94	0.39611495
79	0x3e4cc8fe	0.19998547
80	0x3e85a925	0.2610561
81	0x3e128d11	0.14311625
82	0xbe09a846	-0.13443097
83	0xbe4ded6e	-0.20110103
84	0x3e4bfa02	0.19919589
85	0x3b576991	0.003286932
86	0xbe9d24b9	-0.3069208
87	0x3dd3716e	0.10324369
88	0x3e99f0b4	0.30066454
89	0xbc8507fe	-0.016239163
90	0xbe2a5fbf	-0.16638087
91	0x3cba7677	0.022761567
92	0xbe6de6cc	-0.23232573
93	0xbe045047	-0.12921248
94	0xbe7c9bde	-0.24668834
95	0xbe94fb79	-0.29098108
96	0xbe86ad62	-0.26304156
97	0x3d247107	0.040146854
98	0xbe08ccae	-0.13359329
99	0x3e5c056c	0.21486443
100	0xbe0cdcdc	-0.13756126
101	0x3d9de82e	0.077103004
102	0x3b90c6f4	0.0044182483
103	0x3e2b208e	0.16711637
104	0xbe6cf423	-0.23140006
105	0x3d8da135	0.069155134
106	0xbe4e14b2	-0.20125082
107	0x3bab57fe	0.0052289953
108	0x3e79913b	0.24371807
109	0x3dc863ab	0.09784635
110	0xbe6ebedf	-0.23314999
111	0xbe89fc6f	-0.26950404
112	0xbe006fb6	-0.12542614
113	0xbd151976	-0.036401235
114	0x3e71aa9c	0.23600239
115	0xbe8faf82	-0.2806359
116	0x3b0ec33b	0.0021783847
117	0xbe9da9be	-0.30793566
118	0xbe005d59	-0.1253561
119	0x3dc41549	0.09574372
120	0xbe2b2fa0	-0.16717386
121	0xbe3c5694	-0.18392402
122	0xbe7748a9	-0.24148811
123	0xbb80a742	-0.0039261887
124	0x3e8344b3	0.2563835
125	0x3eba0139	0.36329058
126	0xbe9acf70	-0.30236387
127	0xbdd80bed	-0.1054915
128	0x3e008a64	0.12552792
129	0xbee56732	-0.44805294
130	0xbea3e670	-0.32011747
131	0xbea2ae67	-0.31773683
132	0xbcd48483	-0.025942093
133	0x3ae8228d	0.0017710492
134	0xbda06c1c	-0.0783312
135	0xbdd96780	-0.10615444
136	0x3e022c02	0.127121
137	0x3d7967fe	0.06089019
138	0x3e0e1ee1	0.13878967
139	0x3c212884	0.00983632
140	0xbe6c3622	-0.23067525
141	0x3d8a94e3	0.06766679
142	0x3d2a58be	0.041588537
143	0xbe81f563	-0.25382528
144	0x3e240dd3	0.16020899
145	0x3e349004	0.17633063
146	0xbe3667e8	-0.17813075
147	0x3ebbc532	0.36673886
148	0x3db8607f	0.0900278
149	0x3c78ce5c	0.015185919
150	0x3be66b35	0.007031823
151	0xbea11f83	-0.31469354
152	0x3e56a06b	0.20959632
153	0xbde3dae3	-0.11125734
154	0xbe5d1329	-0.2158934
155	0x3e40b386	0.18818483
156	0x3cd1ce8b	0.025611183
157	0x3c837e1d	0.016051346
158	0xbd73e4a2	-0.059544213
159	0x3cf9e8b7	0.030506475
160	0x3c98842d	0.018617714
161	0xbe5141a1	-0.20435192
162	0x3c23b738	0.009992413
163	0xbe170253	-0.1474698
164	0xbc1d2bdc	-0.009592976
165	0xbe351582	-0.17683986
166	0x3e5001ce	0.20313188
167	0xbde75164	-0.11294821
168	0xbd310b01	-0.043223385
169	0x3c6eddbd	0.014579234
170	0x3e51a614	0.2047351
171	0xbe6a87d5	-0.22903378
172	0xbe2f4890	-0.17117524
173	0xbd946353	-0.07245507
174	0x3e852628	0.26005673
175	0xbe6671db	-0.2250437
176	0x3d8a62f6	0.067571566
177	0xbd887100	-0.06662178
178	0xbe79f00e	-0.2440798
179	0xbe63ae17	-0.22234379
180	0xbd8cdda5	-0.06878213
181	0xbee3c105	-0.444832
182	0x3d382fd1	0.044967476
183	0x3dc37d0b	0.095453344
184	0xbce24341	-0.02761996
185	0x3d146008	0.036224395
186	0x3d2cf7da	0.042228557
187	0xbe14fbd1	-0.14549185
188	0xbe85356a	-0.26017314
189	0xbe59b18b	-0.21259134
190	0x3e7bfa41	0.24607183
191	0xbec10d85	-0.37705627
192	0xbd55b6e5	-0.052176375
193	0xbdd52b2a	-0.104086235
194	0xbd9d1a0a	-0.07670982
195	0xbe89583e	-0.26825136
196	0xbb823a2d	-0.0039742202
197	0xbda26778	-0.07929891
198	0xbcf3961c	-0.029734664
199	0xbe5bec1f	-0.21476792
200	0xbe949833	-0.2902237
201	0xbdb43d40	-0.08800745
202	0xbd3aa3e3	-0.04556645
203	0x3e8eeb87	0.27914068
204	0xbe42846a	-0.18995824
205	0x3d0d48a4	0.034493104
206	0x3eb6b339	0.3568361
207	0xbda96f5d	-0.08273194
208	0xbdce3898	-0.10069388
209	0x3e2690fd	0.16266246
210	0xbd24063b	-0.040045004
211	0x3e8d339c	0.27578437
212	0xbe524c59	-0.20536937
213	0xbe74da67	-0.23911439
214	0x3e19329c	0.14960712
215	0xbd9527c2	-0.07282974
216	0xbe1dca44	-0.1540919
217	0xbda86e00	-0.08224106
218	0xbe700be8	-0.23442042
219	0x3e8cec29	0.27523926
220	0xbd898228	-0.067142785
221	0x3dc3b045	0.09555105
222	0xbd44040a	-0.047855414
223	0x3ec19060	0.37805462
224	0xbd360d24	-0.044446126
225	0xbdfd61e2	-0.12372185
226	0x3db6f538	0.089334905
227	0x3e27675f	0.16348027
228	0xbe06f481	-0.13179208
229	0xbdec4fd0	-0.115386605
230	0x3b654bba	0.0034987764
231	0x3e7e774d	0.24850197
232	0xbd0ff2a2	-0.035143502
233	0x3e2ea863	0.17056422
234	0x3e925f46	0.28588313
235	0xbe35cd97	-0.17754208
236	0xbed7a8a9	-0.42120865
237	0xbc8e1a41	-0.017346503
238	0xbd9aef99	-0.07565231
239	0x3dc99d0b	0.09844407
240	0x3e2d5479	0.16926755
241	0x3dab1ff7	0.08355706
242	0xbd88d22d	-0.06680713
243	0x3e355533	0.17708282
244	0xbec1d1ad	-0.37855282
245	0x3d841207	0.06448751
246	0x3e5dfcf2	0.21678522
247	0xbc8d44d2	-0.01724473
248	0x3e2349aa	0.1594607
249	0x3e35238f	0.17689346
250	0xbe8ad17e	-0.27112955
251	0x3d13eeb5	0.03611632
252	0xbe10250c	-0.14076632
253	0xbde2a979	-0.110674806
254	0xbe94fc3e	-0.29098696
255	0xbe28e3b4	-0.16493112

mlp_extractor.policy_net.0.bias f4 [64]
0	0x3db9621a	0.090519145
1	0x3cdb488d	0.026767993
2	0x3e20e60e	0.15712759
3	0x3db8db30	0.09026182
4	0xbdaa6bf7	-0.08321374
5	0xbc8171b4	-0.015801288
6	0x3ddcf9ca	0.10789831
7	0x3d83b88d	0.06431685
8	0xbe5eba76	-0.21750817
9	0x39bdf39f	0.000362304
10	0xbda4bf1b	-0.08044263
11	0xbe285a1f	-0.16440628
12	0x3d5e269f	0.05423605
13	0x3d461740	0.048362017
14	0xbcb8036f	-0.022462575
15	0x3d30f310	0.043200552
16	0x3da2e80c	0.07954416
17	0xbde1256a	-0.10993464
18	0xbd2df518	-0.042470068
19	0xbccbce99	-0.024878787
20	0x3e07ea12	0.13272884
21	0xbcc92363	-0.024553007
22	0x3dc12fe3	0.09432962
23	0x3c1e1c0d	0.0096502425
24	0xbca50729	-0.020145016
25	0x3dd4c7ad	0.10389648
26	0x3d281ec1	0.041044954
27	0xbcb130e5	-0.02162976
28	0xbd27790e	-0.04088693
29	0x3e2c1916	0.16806445
30	0x3e21a1e6	0.15784416
31	0xba92cc2a	-0.0011199762
32	0xbdf0f9b3	-0.11766376
33	0xbd777b56	-0.060420357
34	0xbe1c6a35	-0.1527489
35	0x3e2de042	0.16980079
36	0x3d8995fc	0.067180604
37	0x3d2c9a42	0.0421393
38	0xbdb60239	-0.08887143
39	0xbd35795f	-0.0443052
40	0xbc027389	-0.007962116
41	0x3c41512c	0.011799138
42	0x3d2089f9	0.03919408
43	0xbd073d6f	-0.033017572
44	0x3e2e13c5	0.16999729
45	0x3ce2dae6	0.02769227
46	0x3dc26617	0.09492128
47	0x3e0624a1	0.1309991
48	0x3e0dd662	0.13851312
49	0xbd721cad	-0.05910938
50	0x3c20c0dd	0.009811607
51	0x3dd223ff	0.10260772
52	0x3d0997e9	0.03359214
53	0x3e4eb3c4	0.20185763
54	0x3d8bf95d	0.06834672
55	0xbe7a788c	-0.24460047
56	0x3c517430	0.012784049
57	0x3db976f9	0.09055895
58	0xbd2a645a	-0.04159961
59	0x3bf5698f	0.00748939
60	0x3dac0985	0.08400253
61	0x3d6c61ec	0.057710573
62	0xbd9c6a0b	-0.076374136
63	0x3e0057b3	0.12533455

mlp_extractor.policy_net.2.weight f4 [64, 64]
0	0x3e93946f	0.28824183
1	0xbe87197c	-0.2638663
2	0xbda84f1d	-0.08218215
3	0x3e5ab9e1	0.2135997
4	0x3eb3713c	0.35047328
5	0x3e3b053f	0.1826372
6	0x3d857dd0	0.065181375
7	0xbdd808b4	-0.10548535
8	0x3e29bbd4	0.16575557
9	0x3d1b6e00	0.0379467
10	0x3d066ada	0.032816745
11	0xbc020c8d	-0.007937563
12	0xbea6392d	-0.32465497
13	0xbe26084c	-0.16214103
14	0x3dbab21f	0.09116005
15	0x3c74b09b	0.014934684
16	0xbe70064c	-0.23439902
17	0xbe1c470c	-0.15261477
18	0x3e44bc5d	0.1921248
19	0x3ebba209	0.3664706
20	0xbcaa245b	-0.020769289
21	0xbe19db53	-0.15025072
22	0x3d635a22	0.05550588
23	0xbe40fe6d	-0.18847056
24	0xbe32f50a	-0.17476287
25	0x3a0615e0	0.0005114954
26	0x3df57e79	0.11987013
27	0xbd5c9757	-0.053855266
28	0x3e9d9996	0.3078124
29	0x3a89ec02	0.0010522606
30	0x3dfa68a7	0.12226992
31	0x3eb10a9c	0.34578407
32	0xbe08695a	-0.13321438
33	0xbd7a93d6	-0.061176144
34	0xbe107059	-0.14105357
35	0x3d3c6954	0.045998886
36	0xbdf3d847	-0.11906486
37	0x3e01b8da	0.12668172
38	0xbe140386	-0.14454469
39	0xbe53fdb6	-0.20702252
40	0xbe93d8d2	-0.28876358
41	0x3dc4811f	0.095949404
42	0xbed62fa6	-0.41833228
43	0x3dce02e7	0.10059147
44	0x3e9909f1	0.29890397
45	0x3da87296	0.082249805
46	0x3e336b14	0.17521316
47	0xbdca87d8	-0.098891914
48	0xbe1444f2	-0.14479426
49	0xbb8134b6	-0.003943051
50	0xbe6a675f	-0.22890995
51	0x3e95c61d	0.2925271
52	0xbe294129	-0.16528763
53	0xbdfcd699	-0.12345619
54	0xbe416cff	-0.18889235
55	0x3e768846	0.24075422
56	0xbdd1dec2	-0.10247566
57	0x3ba566b2	0.0050476426
58	0xbc7617d5	-0.01502033
59	0xbe287150	-0.16449475
60	0xbdd26a95	-0.10274235
61	0x3df2b7d1	0.118514664
62	0x3d4dcf33	0.05024643
63	0xbe71faa5	-0.2363077
64	0x3e41188c	0.1885702
65	0xbe42a64b	-0.19008748
66	0x3eb68cd0	0.35654306
67	0x3daba2e3	0.083806776
68	0xbe147e11	-0.14501216
69	0xbe28562f	-0.16439126
70	0x3e89f630	0.2694564
71	0x3d79b673	0.060965013
72	0xbebcf613	-0.3690649
73	0x3db59b30	0.0886749
74	0x3e1ecac0	0.1550703
75	0x3d21c6eb	0.039496344
76	0xbd4c7822	-0.049919255
77	0xbe4bd467	-0.19905244
78	0x3c91b9f9	0.017788874
79	0xbd1c4596	-0.0381523
80	0x3e524e51	0.20537688
81	0x3d6d8092	0.057983942
82	0x3e0989bb	0.13431446
83	0x3dc5b7cf	0.09654199
84	0x3d87351a	0.06601925
85	0x3debcb61	0.11513401
86	0x3e551516	0.20808825
87	0xbeba28df	-0.36359307
88	0x3e60d21a	0.21955147
89	0x3ea53e98	0.32274318
90	0x3b44f553	0.0030053451
91	0x3e526b03	0.20548634
92	0xbe876d67	-0.26450655
93	0x3e5c415a	0.21509305
94	0x3e6a2138	0.22864234
95	0xbe718321	-0.23585178
96	0xbd467baf	-0.048457798
97	0xbda5f89f	-0.08104061
98	0x3d9b0679	0.07569594
99	0xbe65e65c	-0.22451156
100	0x3ecfe4bf	0.40604207
101	0x3e974a74	0.2954899
102	0xbd94cdb3	-0.072657965
103	0x3cca7545	0.024714122
104	0x3d980403	0.0742264
105	0x3cc68cf2	0.02423713
106	0xbe212d67	-0.15739976
107	0x3e7af5aa	0.24507776
108	0x3db2f5ad	0.08738265
109	0xbd3a4fa5	-0.04548611
110	0x3e3e870c	0.18606204
111	0xbe03fcfc	-0.12889475
112	0x3e8114ed	0.25211278
113	0x3c20502c	0.009784739
114	0xbe390b61	-0.18070747
115	0xbe756de6	-0.23967704
116	0x3d110de4	0.035413638
117	0x3d4c7e05	0.04992487
118	0xbe298286	-0.16553697
119	0x3cdd3474	0.02700255
120	0x3dd01c0a	0.10161598
121	0xbe10c8ea	-0.14139143
122	0xbd7bee6a	-0.061506666
123	0xbdab55e8	-0.08365995
124	0xbc4b3e77	-0.0124050295
125	0xbe8dfd17	-0.27732155
126	0x3dee2961	0.11628986
127	0x3e28b2bb	0.1647443
128	0xbe49527a	-0.19660369
129	0xbd8c0ff7	-0.068389826
130	0x3bcb369c	0.0062015783
131	0xbeccbbf9	-0.39987162
132	0xbe9b5f9b	-0.3034638
133	0xbe588bbf	-0.21147059
134	0x3cc2e78f	0.023792056
135	0x3e33acc0	0.17546368
136	0x3e99b134	0.30018008
137	0x3e033ebb	0.12816899
138	0xba915554	-0.0011088052
139	0x3cbbfdc5	0.022948155
140	0x3cf1df5c	0.029525451
141	0xbe695089	-0.22784628
142	0xbdafaa97	-0.08577459
143	0xbeac38af	-0.33636996
144	0x3d2a0876	0.041511975
145	0x3ccb0b87	0.02478577
146	0x3dae57c3	0.08512833
147	0x3e765f70	0.24059844
148	0x3ccdff17	0.02514605
149	0xbe380384	-0.17970091
150	0xbde13471	-0.109963305
151	0x3bb1ed01	0.0054298644
152	0xbc1558c5	-0.009115403
153	0xbdf6d673	-0.12052622
154	0x3ba3d07b	0.004999218
155	0x3e06d7d8	0.13168275
156	0x3e213718	0.15743673
157	0x3dc64847	0.096817546
158	0xbe11213d	-0.14172836
159	0x3e015fc6	0.12634191
160	0x3e8f64f7	0.28006718
161	0x3e444cc3	0.19169907
162	0xbe4349bb	-0.19071095
163	0x3d157a55	0.036493618
164	0xbe233af5	-0.15940459
165	0xbe65fdbf	-0.22460078
166	0xbd72c3a9	-0.059268627
167	0xbe64a99e	-0.22330329
168	0xbe7f1306	-0.249096
169	0xbe221374	-0.15827733
170	0xbe8b058b	-0.27152666
171	0x3cfe1f33	0.031020736
172	0xbde4659c	-0.11152193
173	0xbe373715	-0.17892106
174	0xbd702c3a	-0.058635928
175	0x3c9e2983	0.019306904
176	0x3e9d316e	0.30701774
177	0xbe1b1811	-0.151459
178	0xbe61fd34	-0.22069246
179	0xbea3d2b7	-0.319967
180	0x3d16fdbd	0.036863077
181	0x3e2bb85a	0.16769543
182	0xbe0e7abd	-0.13914008
183	0xbead6fc5	-0.33874336
184	0xbd575bab	-0.052577656
185	0xbdcd2a56	-0.100178406
186	0x3e508a96	0.20365366
187	0xbe14425f	-0.14478444
188	0xbe9d8ccb	-0.3077148
189	0xbde66ec9	-0.11251599
190	0xbe22ad2f	-0.15886377
191	0xbd288136	-0.04113885
192	0xbca5257f	-0.020159481
193	0x3e2344b9	0.15944184
194	0x3e76d5f8	0.2410506
195	0x3dc7f00b	0.097625814
196	0xbf0032bf	-0.5007743
197	0xbe5b8b79	-0.21439923
198	0xbe1ec56d	-0.15505
199	0xbd0b5932	-0.03402061
200	0x3d72f498	0.059315294
201	0xbdb92996	-0.09041135
202	0xbe01c793	-0.12673788
203	0xbcfce49f	-0.030870734
204	0x3d42091c	0.04737197
205	0x3cfe16a1	0.03101665
206	0xbb9da2ab	-0.0048106513
207	0x3dc50cf1	0.09621609
208	0xbf29305c	-0.66089416
209	0xbdeab99a	-0.11461182
210	0x3e0f3f4b	0.13988988
211	0x3d3e546b	0.046467226
212	0x3db3fe61	0.08788753
213	0x3e9e6dd5	0.3094317
214	0xbd30c260	-0.04315412
215	0x3dd8fe02	0.10595323
216	0x3d3f4ba6	0.046703003
217	0x3e0f89b0	0.14017367
218	0x3d6f79a1	0.058465604
219	0x3cea0734	0.028567888
220	0x3dc7a1c0	0.09747648
221	0xbe33f1da	-0.17572728
222	0xbd5efb70	-0.05443901
223	0xbe0404bb	-0.1289243
224	0xbd63f744	-0.055655733
225	0xbdf7b6db	-0.12095424
226	0xbb3d3508	-0.002887072
227	0xbbf8d273	-0.007593447
228	0x3e224ce6	0.15849647
229	0x3d1b8f79	0.037978623
230	0x3e82ede0	0.2557211
231	0x3e004b80	0.12528801
232	0x3e737f8c	0.23779124
233	0xbcaf4b6b	-0.021398267
234	0xbcb598dd	-0.022167617
235	0x3d9b51e2	0.07583977
236	0xbc31226d	-0.01081143
237	0xbc94b727	-0.01815374
238	0x3e4d2ae0	0.20035887
239	0xbb5c8b76	-0.003365246
240	0xbdd254b2	-0.102700606
241	0x3d11e233	0.03561611
242	0xbed7a37e	-0.42116922
243	0x3cca0cc9	0.0246643
244	0x3d912bd3	0.07088437
245	0x3e41e4b1	0.18934895
246	0x3c8a50b1	0.01688418
247	0x3d71032a	0.058840908
248	0x3e46e6e6	0.19424018
249	0xbcca180a	-0.024669666
250	0x3e9932e9	0.29921654
251	0xbe17ee0b	-0.148369
252	0xbece6d84	-0.4031793
253	0x3ea4e5bd	0.32206526
254	0x3e83c367	0.25735018
255	0xbe835ae3	-0.2565528

mlp_extractor.policy_net.2.bias f4 [64]
0	0x3c8646b5	0.016391138
1	0x3dc1a75d	0.0945575
2	0x39683c58	0.00022147724
3	0xbc729fb8	-0.014808588
4	0x3c91c8d5	0.01779596
5	0x3dfbccc2	0.12294914
6	0x3d0bea13	0.034158777
7	0x3db24dd7	0.08706253
8	0xbd8a0fba	-0.06741281
9	0x3d8df383	0.06931212
10	0xbd10ef06	-0.0353842
11	0x3c005f2f	0.007835194
12	0x3dcdafbd	0.10043285
13	0x3b956381	0.004558981
14	0xbd62daae	-0.05538433
15	0x3e35cb2f	0.1775329
16	0x3e4a6fe1	0.19769241
17	0x3dacc0d2	0.08435215
18	0x3d576198	0.052583307
19	0x3c35fd16	0.011107704
20	0x3b82b026	0.0039882837
21	0x3d06ee9b	0.032942396
22	0xbcc94370	-0.02456829
23	0x3d441d80	0.047879696
24	0x3d2f6215	0.042818148
25	0xbd9a54a9	-0.07535679
26	0xbd46049e	-0.048344247
27	0x3d04e518	0.032445043
28	0x3d5c532c	0.053790256
29	0x3c947a81	0.01812482
30	0x3d9c18ea	0.076219395
31	0xbd2d1b86	-0.042262577
32	0x3e0117fb	0.12606804
33	0x3dcf6b45	0.10127882
34	0x3e021666	0.12703857
35	0x3dd5d27a	0.10440536
36	0x3d8c268e	0.06843291
37	0xbcda6933	-0.026661491
38	0xbd078b27	-0.03309169
39	0x3d1df715	0.038565714
40	0x3d03c9f2	0.032175012
41	0xbce2f0d8	-0.027702734
42	0x3e19342a	0.14961305
43	0x3d24e951	0.04026157
44	0x3e02290c	0.1271097
45	0x3c9c4bbf	0.019079087
46	0x3e0439fc	0.12912744
47	0x3dcf2392	0.101142064
48	0x3e176470	0.14784408
49	0x3b82e5f4	0.0039946977
50	0xbd960bc2	-0.073264614
51	0xbbd5641b	-0.0065121776
52	0x3d980149	0.0742212
53	0x3b15a560	0.0022834167
54	0x3b8f55fd	0.0043742643
55	0xbd3f0ebc	-0.04664491
56	0xbd5cab03	-0.053874027
57	0xbd901aa7	-0.070363335
58	0x3ca349e8	0.019932702
59	0x3ddf9215	0.10916535
60	0x3d30a8a5	0.043129582
61	0x3d7c99b7	0.06167003
62	0x3d97e2cd	0.07416306
63	0x3d800d1c	0.062525004

mlp_extractor.value_net.0.weight f4 [64, 18]
0	0x3e030ed8	0.12798631
1	0xbe683b2a	-0.2267882
2	0xbd83e7dc	-0.06440708
3	0xbee0bd3e	-0.4389438
4	0x3e21a03d	0.15783782
5	0xbf0f625d	-0.56009465
6	0x3ec55217	0.38539192
7	0x3e9c21f7	0.30494663
8	0x3f06b5b5	0.5262101
9	0x3e8ab907	0.2709429
10	0x3e09efb7	0.1347035
11	0x3ef54a67	0.47908327
12	0xbe60d0df	-0.21954678
13	0xbe8d748e	-0.27627987
14	0xbf56e351	-0.8394061
15	0x3f050bca	0.51971114
16	0x3fb47558	1.409831
17	0xbebeecf0	-0.37290144
18	0xbdff2659	-0.12458486
19	0x3d2f5301	0.042803768
20	0xbec11b0c	-0.37715948
21	0x3ee5944a	0.44839698
22	0xbe9570d4	-0.29187644
23	0xbef8b237	-0.48573467
24	0xbd73a026	-0.0594789
25	0xbe8fdd07	-0.28098318
26	0xbe464c07	-0.1936494
27	0xbe6db46e	-0.2321336
28	0x3eaf0a6c	0.3418764
29	0xbf0533d1	-0.5203219
30	0x3e570284	0.20997053
31	0x3f373ed4	0.71580243
32	0xbdc1e8f2	-0.09468259
33	0xbe444049	-0.19165148
34	0x3d872bb8	0.066001356
35	0xbf23a7b8	-0.63927794
36	0x3eedd346	0.4645025
37	0xbe9b16b6	-0.30290765
38	0xbea3dca8	-0.32004285
39	0xbb0b3e69	-0.0021246916
40	0x3e0d918a	0.1382505
41	0xbee60b39	-0.44930437
42	0x3d498fc0	0.049209356
43	0xbe7e955c	-0.24861664
44	0x3fa7aaaa	1.3098958
45	0x3e75020e	0.23926565
46	0xbdfa11d4	-0.12210432
47	0x3f382802	0.7193605
48	0xbeb2ea59	-0.34944418
49	0xbf243751	-0.64146906
50	0x3ef1420c	0.47120702
51	0xbe188644	-0.14894968
52	0x3fcacd64	1.584393
53	0xbe51a3df	-0.20472668
54	0xbe20e11e	-0.15710875
55	0x3e945ee8	0.28978658
56	0xbee0c832	-0.43902737
57	0xbe3ebb0c	-0.1862604
58	0x3ef34652	0.47514588
59	0x3f1d3660	0.61411095
60	0x3dc73715	0.09727303
61	0xbe139507	-0.14412318
62	0x3e4ab14b	0.19794194
63	0x3ecff4b1	0.40616372
64	0xbcaf3b45	-0.021390567
65	0xbf01bbae	-0.50677
66	0x3f320c8d	0.695504
67	0xbe467566	-0.19380721
68	0xbd02b4db	-0.03191076
69	0x3e399a43	0.18125252
70	0xbf766eee	-0.96263015
71	0xbf647ef1	-0.892562
72	0xbf007f95	-0.50194675
73	0x3f01e9eb	0.50747555
74	0x3f18c53a	0.59675944
75	0x3ef04982	0.46931082
76	0xbe49f5e8	-0.19722712
77	0x3f0452bd	0.5168875
78	0xbea0f75a	-0.31438714
79	0x3e572413	0.21009855
80	0xbeb6af81	-0.35680774
81	0xbd32d813	-0.043663096
82	0xbd5741bc	-0.052552924
83	0xbe82f57b	-0.25577912
84	0xbeb7bf75	-0.35888258
85	0xbec1fc84	-0.37887967
86	0xbf07e8c6	-0.5308956
87	0xbefa4e26	-0.48887748
88	0xbfa58475	-1.2931048
89	0x3f1907bd	0.5977743
90	0xbd482821	-0.048866395
91	0xbeb6fbef	-0.35739085
92	0x3d6d08ec	0.057869837
93	0x3d804c4a	0.06264551
94	0x3db82238	0.08990902
95	0x3f2e83fe	0.68170154
96	0xbf152fe6	-0.5827621
97	0xbe369f35	-0.1783417
98	0xbe21c1d5	-0.15796597
99	0xbdd44a9d	-0.10365794
100	0xbdf89085	-0.1213694
101	0xbf01676d	-0.5054844
102	0x3e336ac2	0.17521194
103	0x3dab6a10	0.08369839
104	0x3e2583a7	0.16163503
105	0x3e82977c	0.25506198
106	0x3f373d89	0.7157827
107	0xbed4a28f	-0.41530272
108	0xbe71c05b	-0.23608534
109	0xbf12c788	-0.5733571
110	0xbe75f220	-0.24018145
111	0x3d625b50	0.055262864
112	0xbe622ea3	-0.22088103
113	0xbe5bb9cb	-0.21457593
114	0x3d98886d	0.07447896
115	0x3eb60b8c	0.35555685
116	0xbf219667	-0.6312012
117	0x3dde0312	0.10840429
118	0xbdd803a0	-0.105475664
119	0xbe1fc84d	-0.15603752
120	0xbefa91a3	-0.48939237
121	0x3ea3abe5	0.31967083
122	0xbeebfa5c	-0.46089447
123	0xbef3bea8	-0.47606397
124	0xbe257f20	-0.16161776
125	0xbf39fe98	-0.72654104
126	0xbe771077	-0.24127375
127	0x3d0ec1fb	0.034852963
128	0x3e8b113a	0.2716158
129	0x3ecc1e39	0.39866808
130	0xbe9cba42	-0.30610853
131	0x3f333021	0.69995314
132	0x3e2c70a5	0.16839845
133	0x3d9a284a	0.07527216
134	0x3e9f522a	0.31117374
135	0xbd71df1b	-0.05905066
136	0x3e9f981d	0.3117074
137	0x3c9cfdda	0.019164015
138	0xbe8d03fe	-0.27542108
139	0xbdd6486a	-0.10463031
140	0xbecd717b	-0.4012564
141	0x3e49699f	0.19669197
142	0x3fbab313	1.4585899
143	0xbe4d1094	-0.20025855
144	0xbe3a069b	-0.18166582
145	0x3ecaa784	0.3958093
146	0x3eb5412a	0.3540128
147	0xbcaa62d2	-0.020799074
148	0xbd0bf557	-0.03416952
149	0xbeeb575d	-0.4596509
150	0x3e16affb	0.14715569
151	0xbe8a45d4	-0.270064
152	0x3eeca842	0.4622212
153	0x3f30e805	0.69104034
154	0xbecd1a4e	-0.4005913
155	0x3e9c5027	0.305299
156	0xbec352c7	-0.38149092
157	0x3df45685	0.11930565
158	0x3ebd6d45	0.3699743
159	0xbe1ee922	-0.1551862
160	0x3f60473e	0.87608707
161	0x3f495c5b	0.7865655
162	0xbee2b7d4	-0.44280875
163	0xbec22833	-0.37921295
164	0x3d9298d6	0.071580574
165	0x3eef12ab	0.4669393
166	0x3e61625a	0.22010174
167	0xbeaf284d	-0.34210435
168	0x3c085665	0.008321379
169	0x3d898025	0.06713895
170	0x3dbd7832	0.09251441
171	0x3da51581	0.08060742
172	0x3f0cf9ba	0.5506855
173	0x3e231694	0.15926582
174	0x3d1f9851	0.03896362
175	0x3f027d23	0.50972193
176	0xbe343bd1	-0.17600943
177	0xbd384805	-0.04499056
178	0x3d925eaf	0.07146966
179	0x3f74c123	0.95607203
180	0x3ce16ec4	0.027518637
181	0x3e4193ea	0.18904081
182	0x3f155321	0.5832997
183	0xbe7f1eb2	-0.24914053
184	0xbd38454d	-0.044987965
185	0xbeb98ad4	-0.3623873
186	0x3dad67ae	0.08467041
187	0xbf00f8d0	-0.5037966
188	0x3ecef1c1	0.4041882
189	0xbecbcba7	-0.39803812
190	0x3e280e24	0.16411644
191	0x3e47d59d	0.19515081
192	0x3eb45cf0	0.35227156
193	0x3d44db56	0.048060738
194	0x3dd23977	0.10264867
195	0xbd830b24	-0.06398609
196	0x4001ec7c	2.0300589
197	0xbea16e94	-0.31529677
198	0xbefb2662	-0.4905272
199	0x3dd89d17	0.105768375
200	0x3e11c778	0.14236248
201	0x3e905887	0.2819254
202	0xbec1c349	-0.37844303
203	0xbe15116d	-0.14557429
204	0xbe825ea1	-0.2546282
205	0xbd952f9d	-0.07284472
206	0xbe02e3f0	-0.12782264
207	0x3e8d1ea6	0.27562445
208	0x3ecf8d22	0.40537363
209	0x3f1e0bf9	0.6173702
210	0xbf48bd8f	-0.78414243
211	0x3eee22f5	0.46511045
212	0xbe9d6e2c	-0.30748117
213	0xbf2a3472	-0.66486275
214	0x3cf47652	0.029841576
215	0x3f62315f	0.88356584
216	0xbdc5e6da	-0.09663172
217	0xbd699936	-0.05703088
218	0x3ea7138b	0.32632098
219	0xbecf39fd	-0.4047393
220	0x3e106b88	0.1410352
221	0xbdef4e80	-0.116848946
222	0x3d92e662	0.07172848
223	0x3eef7c87	0.46774694
224	0x3eb3cf47	0.35119078
225	0xbddb09c9	-0.10695226
226	0xbd86faff	-0.065908425
227	0xbda099b5	-0.07841817
228	0xbccf1714	-0.02527956
229	0x3e182448	0.1485759
230	0x3cf23005	0.029563913
231	0xbe150708	-0.14553463
232	0xbfcd4f52	-1.6039832
233	0xbf36ad9f	-0.71358675
234	0xbe412038	-0.18859947
235	0x3f0eb424	0.5574362
236	0xbed90a15	-0.42390504
237	0x3f0fd6bd	0.5618704
238	0xbe72f578	-0.23726451
239	0x3f2e0ae7	0.67985386
240	0xbe12ae08	-0.143242
241	0x3c986290	0.018601686
242	0xbf296cd7	-0.661817
243	0x3dddd66f	0.108319156
244	0xbe30854c	-0.17238349
245	0xbdfb45e5	-0.12269191
246	0x3e808266	0.25099486
247	0x3e76647b	0.24061768
248	0x3f16474d	0.58702546
249	0xbf17e0ec	-0.5932758
250	0xbfe36a65	-1.7766844
251	0xbef8c353	-0.4858652
252	0x3db5af6d	0.088713504
253	0xbf052b45	-0.5201915
254	0xbf05e754	-0.52306104
255	0xbf690a5b	-0.91031426

mlp_extractor.value_net.0.bias f4 [64]
0	0x3ead94a1	0.33902457
1	0x3cd201d5	0.02563564
2	0xbf8f5814	-1.1198754
3	0xbf13fa0e	-0.5780343
4	0xbfa1db45	-1.2645041
5	0x3ec112a9	0.3770955
6	0xbeaff11e	-0.34363645
7	0xbf870332	-1.054785
8	0x3e881c30	0.26584005
9	0x3f0631ed	0.5241993
10	0xbeccc429	-0.39993408
11	0x3ec364f4	0.3816296
12	0xbe5819f6	-0.21103653
13	0x3f58bf91	0.8466731
14	0x3f23699d	0.6383303
15	0x3f4776ab	0.7791545
16	0xbeb85feb	-0.3601068
17	0xbeab5597	-0.33463737
18	0x3f3bdccd	0.7338379
19	0x3e0b6f1e	0.13616607
20	0x3e59be05	0.21263893
21	0x3ca2a494	0.019853868
22	0xbec0e35e	-0.37673467
23	0x3d546e67	0.0518631
24	0xbe313a90	-0.17307496
25	0xbd94aa61	-0.0725906
26	0x3f961955	1.1726481
27	0xbe1d78c7	-0.15378104
28	0x3f25fe30	0.64840984
29	0x3e3d4dcf	0.18486713
30	0xbedadd75	-0.42747083
31	0x3f25d87c	0.64783454
32	0x3f13df14	0.57762265
33	0xbe8eb572	-0.27872807
34	0xbf028dd4	-0.5099766
35	0xbea2d3a7	-0.31802103
36	0xbed9fbc2	-0.42574888
37	0xbeb8a8cf	-0.3606629
38	0x3f848077	1.0351704
39	0x3e763604	0.24044043
40	0x3f018d32	0.5060607
41	0x3d256acd	0.040385056
42	0x3ee03189	0.43787792
43	0x3f2c4e75	0.67307216
44	0x3f2090fe	0.6272124
45	0x3e8ef5d0	0.27921915
46	0xbfb50b8a	-1.4144146
47	0xbf06537d	-0.52471143
48	0x3f4a0263	0.7890989
49	0xbf09a755	-0.53770953
50	0x3e42f670	0.19039321
51	0x3e020a2e	0.12699196
52	0xbd594f6e	-0.053054266
53	0xbef79265	-0.48353878
54	0x3dcf9cf9	0.10137362
55	0x3f07de89	0.53073937
56	0x3df72aaa	0.120686844
57	0x3f40ae15	0.7526563
58	0x3e7bd366	0.24592361
59	0xbe4fc99f	-0.20291756
60	0x3e9b227e	0.30299753
61	0x3eaaf94a	0.33393317
62	0x3ebf817e	0.37403482
63	0x3f3a58f2	0.7279197

mlp_extractor.value_net.2.weight f4 [64, 64]
0	0xbf27708b	-0.654061
1	0xbe07a6e0	-0.13247252
2	0xbf8dd971	-1.1081983
3	0xbf555aa1	-0.83341414
4	0xc02b3e4a	-2.6756768
5	0xbeaedca5	-0.34152713
6	0xbf1bc7ce	-0.6085175
7	0xbf5c4329	-0.8603998
8	0x3f318fb4	0.693599
9	0x3f047a38	0.5174899
10	0xbfd82682	-1.6886752
11	0x3f84cc6c	1.0374885
12	0xbf7edebe	-0.9955863
13	0x3f12b894	0.57312894
14	0x3f43a090	0.76416874
15	0x3eae500c	0.34045446
16	0xbf931613	-1.1491112
17	0xbf4b758b	-0.7947623
18	0x3f2bced3	0.67112464
19	0xbe5698fa	-0.20956793
20	0xbec4f114	-0.38465178
21	0x3dda4b02	0.10658838
22	0xbf33dde9	-0.70260483
23	0x3e70d064	0.23516995
24	0xbf322b60	-0.69597435
25	0xbe8bfb19	-0.2734001
26	0x3f177ad1	0.5917178
27	0x3e29cf3d	0.16582961
28	0x3e989a2a	0.29805118
29	0xbed7d6a3	-0.42155942
30	0xbea13cbe	-0.31491655
31	0x3f11ec1c	0.570009
32	0x3f0601bc	0.52346396
33	0xbecda942	-0.40168196
34	0xbf55c624	-0.83505464
35	0xbcb24a9a	-0.021764088
36	0xbebc457a	-0.36771756
37	0xbf15608c	-0.58350444
38	0x3f10bf2c	0.56541705
39	0x3f549759	0.8304344
40	0x3f0253ff	0.5090942
41	0x3f55b149	0.8347364
42	0x3ee02f2a	0.43785983
43	0x3f6e043f	0.9297523
44	0x3f253011	0.6452647
45	0xbeb8ae4a	-0.36070472
46	0xbffb3e0c	-1.962831
47	0xbf2aecf7	-0.6676783
48	0x3ee08963	0.43854818
49	0xbef330e5	-0.4749824
50	0xbf9c0923	-1.2190288
51	0xbdd70a49	-0.105000086
52	0xbfffe8d4	-1.9992929
53	0xbf86c614	-1.0529199
54	0xbf646936	-0.8922304
55	0x3f2cdc45	0.67523605
56	0x3f94678b	1.1594099
57	0x3f150c84	0.5822222
58	0x3f3385e7	0.70126194
59	0xbf87c526	-1.060704
60	0xbea65b4f	-0.32491538
61	0xbf934062	-1.1504023
62	0x3f2a3e4a	0.66501296
63	0x3f31c722	0.6944448
64	0x3ef9deec	0.48802888
65	0x3f32cbc1	0.69842154
66	0x3fdce10b	1.7256178
67	0x3f5baf2e	0.8581418
68	0x407c3c1e	3.9411693
69	0x3eefe133	0.468515
70	0x3ee5b0cb	0.44861445
71	0x3fcaf11e	1.5854833
72	0xbea7ccb0	-0.32773352
73	0x3db8f62c	0.090313286
74	0x400e6244	2.2247477
75	0xbedbd041	-0.42932323
76	0x3f9a777d	1.2067715
77	0xbd102b6b	-0.035197657
78	0xbdf544b9	-0.119759984
79	0xbdde5f53	-0.108580254
80	0x3f2dcea2	0.6789342
81	0x3fba55d6	1.4557445
82	0xbf0851b7	-0.53249687
83	0x3f4050b0	0.7512312
84	0x3f4c6a74	0.79849935
85	0x3f79e4ac	0.9761455
86	0x3fb09704	1.3796086
87	0x3f39ba1f	0.72549623
88	0x3fbff382	1.4996188
89	0x3edb7677	0.4286382
90	0xbdd9b13a	-0.106295064
91	0xbe5c140f	-0.21492027
92	0xbe57205c	-0.21008438
93	0x3fbe6855	1.487559
94	0x3f999406	1.1998298
95	0x3ec85c42	0.39132887
96	0xbe99399d	-0.29926768
97	0x3f900b7f	1.1253508
98	0x3f8ee46a	1.1163456
99	0x3f19198d	0.5980461
100	0x3f710950	0.94154835
101	0x3ff9e3c7	1.9522637
102	0xbf294cc8	-0.66132784
103	0xbe5597ce	-0.2085869
104	0xbe989e97	-0.29808494
105	0xbe813f69	-0.2524369
106	0xbda1624c	-0.07880077
107	0x3de537f4	0.11192313
108	0xbe8e302a	-0.2777112
109	0x3f0e4648	0.5557599
110	0x4013a241	2.3067782
111	0x3f15f506	0.58577
112	0x3ee16672	0.44023472
113	0x3f31b29e	0.69413173
114	0x3f8c7874	1.0974259
115	0xbde2a661	-0.110668905
116	0x3ff6b85d	1.9275013
117	0x3fd55e46	1.6669395
118	0x3fa8e37c	1.3194423
119	0xbf09bea4	-0.5380652
120	0xbe9ac3ff	-0.30227658
121	0x3e80df53	0.25170383
122	0xbeed194b	-0.4630836
123	0x3fdecd5f	1.7406424
124	0x3c744dc9	0.014911124
125	0x3edb7a85	0.42866912
126	0xbec4e592	-0.38456398
127	0xbdd7b33a	-0.10532232
128	0x3ee46592	0.44608742
129	0x3f891a63	1.0711178
130	0xbebf72cf	-0.3739228
131	0x3f203997	0.62587875
132	0xbd163ea5	-0.036680836
133	0xbf6b52d1	-0.9192324
134	0x3ef7a690	0.48369265
135	0xbebcfe43	-0.36912736
136	0x3f3b138a	0.7307669
137	0xbed45351	-0.41469815
138	0x3fd8efc8	1.6948175
139	0x3ec54e1e	0.3853616
140	0x3f50d2b1	0.8157149
141	0xbf90fb5f	-1.1326712
142	0x3d9e15c8	0.07718998
143	0xbe7e1722	-0.24813512
144	0x3f3d6b2a	0.73991644
145	0x3edbce91	0.42931035
146	0xbf12ed39	-0.57393223
147	0x3f32bc87	0.6981892
148	0x3ee308a3	0.44342527
149	0xbf802e41	-1.0014116
150	0x3f6bfe6b	0.92185086
151	0xbe192f49	-0.14959444
152	0x3eb0d7fe	0.3453979
153	0x3dbb24c8	0.09137875
154	0x3eb5e272	0.35524327
155	0x3ecbfe8b	0.39842638
156	0xbf086517	-0.5327925
157	0x3eba3fe3	0.36376867
158	0x3eb94cee	0.36191505
159	0x3eb90421	0.36135963
160	0xbf03e2a0	-0.5151768
161	0xbebb85dd	-0.36625567
162	0x3f0f76e0	0.56040764
163	0x3f67a091	0.9047938
164	0x3ef58334	0.47951663
165	0x3f526b1d	0.8219469
166	0x3e8d3feb	0.27587828
167	0xbfac0ef6	-1.3442066
168	0x3e9c7e67	0.30565187
169	0xbecaf975	-0.39643446
170	0xbf8d51b7	-1.1040562
171	0x3ccde014	0.025131263
172	0xbf40f995	-0.7538083
173	0x3d206729	0.03916088
174	0xbeb3faa5	-0.35152164
175	0x3f906f7d	1.1284024
176	0x3d68d88a	0.056847133
177	0x3e0a905e	0.13531634
178	0x3e127b9a	0.14304963
179	0xbe906df6	-0.28208894
180	0x3fb41eea	1.4071934
181	0x40003c97	2.003698
182	0x3f5728a7	0.84046406
183	0x3ea4c215	0.32179323
184	0x3ea5e35b	0.3240002
185	0x3eaa609b	0.3327683
186	0x3e2caa96	0.16861948
187	0x3dbe86ff	0.09303092
188	0x3f65c7cd	0.89757997
189	0x3e3786d9	0.17922534
190	0x3f331de2	0.6996747
191	0xbf7085ba	-0.9395405
192	0x3f112714	0.56700253
193	0xbe57ccd7	-0.21074234
194	0x401a8005	2.4140637
195	0x3f8b93b6	1.0904453
196	0x400ec241	2.2306063
197	0x3f436a02	0.7633363
198	0xbf11dced	-0.5697773
199	0x3f6c3a1d	0.92276174
200	0x3f52e1ea	0.8237597
201	0x3e6b8ee3	0.23003726
202	0x3fe269bd	1.7688519
203	0x3eebf8fa	0.46088392
204	0xbfbd7b32	-1.4803221
205	0xbf694534	-0.9112122
206	0xbf224a18	-0.6339431
207	0x3daf4105	0.08557323
208	0x3e2309c0	0.15921688
209	0xbf0d2fa0	-0.55150795
210	0xbf4b0e49	-0.7931867
211	0xbf31d7f5	-0.6947015
212	0xbf56a791	-0.83849436
213	0xbf9bee76	-1.2182148
214	0xc00c0938	-2.1880627
215	0xbf76e1d9	-0.96438366
216	0x3f7a2cbc	0.9772451
217	0x3fa769cf	1.3079165
218	0xbd61fc76	-0.055172406
219	0x3eb7f2b4	0.35927355
220	0xbf560d33	-0.8361389
221	0xbf3e9d24	-0.7445853
222	0xbefc8d1b	-0.49326405
223	0x3f368478	0.7129588
224	0xbf64c8ff	-0.89369196
225	0xbec47e88	-0.38377786
226	0x3f5dfb4e	0.86711586
227	0x3ce7516f	0.028237073
228	0xbf5c7dd3	-0.8612949
229	0xbfdb7d7d	-1.7147671
230	0xbef7e12e	-0.48413986
231	0x3f102546	0.56306875
232	0x3e76875b	0.24075072
233	0x3f007240	0.5017433
234	0x3d6b23ee	0.057407312
235	0xbe9dc071	-0.30810884
236	0x3ec9eba2	0.39437586
237	0x3e68169f	0.2266488
238	0x402d1604	2.7044687
239	0x3f346dc7	0.70480007
240	0x3ef1494d	0.47126237
241	0x3eb53989	0.35395458
242	0xbf20be1c	-0.62790084
243	0xbd84f2a4	-0.064915925
244	0x40123ca7	2.284952
245	0x3f723d9e	0.9462527
246	0x3fb8d341	1.443947
247	0xbee3f314	-0.4452139
248	0x3d46f283	0.04857112
249	0x3e61df1a	0.22057763
250	0xbf84a9cf	-1.0364321
251	0x3ef280f2	0.47364002
252	0x3f525a7c	0.8216932
253	0x3fb22017	1.3916043
254	0x3dc57dca	0.09643133
255	0xbe630f19	-0.22173728

mlp_extractor.value_net.2.bias f4 [64]
0	0x3f18623c	0.59524894
1	0x3e8a2fb7	0.2698953
2	0x3e7f0750	0.24905133
3	0xbebca153	-0.3684183
4	0x3e48ae5b	0.19597761
5	0x3f2421a3	0.64113826
6	0x3f2342f8	0.6377406
7	0x3e508438	0.20362937
8	0x3f39728b	0.72440404
9	0x3d5658e7	0.052330878
10	0x3e92b30d	0.2865223
11	0x3e99682e	0.29962295
12	0x3e607988	0.2192136
13	0x3e7800a1	0.2421899
14	0x3f092392	0.535699
15	0x3e6528e7	0.22378884
16	0x3f2e575a	0.6810204
17	0x3eee788b	0.46576342
18	0xbb210d0b	-0.0024574425
19	0x3f30a29b	0.68998116
20	0x3de59b94	0.11211315
21	0x3e41a4bd	0.18910499
22	0x3f35e560	0.71053123
23	0x3f00edfb	0.5036313
24	0xbea79b2b	-0.3273557
25	0x3e429890	0.1900351
26	0x3eb098f4	0.34491694
27	0x3f14aea4	0.5807898
28	0x3e785d6a	0.24254385
29	0x3f10db31	0.5658446
30	0x3f11094d	0.56654817
31	0x3ebe4902	0.37165076
32	0xbec14ecd	-0.37755433
33	0x3e8f40ca	0.27979118
34	0xbe8305fe	-0.2559051
35	0xbea63b8e	-0.32467312
36	0x3f1227d5	0.5709203
37	0xbe763008	-0.2404176
38	0x3eb681c3	0.35645875
39	0x3f15555f	0.5833339
40	0x3e4b5c0c	0.19859332
41	0xbea81a1e	-0.32832426
42	0x3e838ee8	0.25694966
43	0xbe781b8c	-0.24229258
44	0x3f14ef0f	0.58177274
45	0x3f12d6bf	0.57358927
46	0xbd8f6b6f	-0.07002913
47	0xbcbcd8af	-0.023052542
48	0xbe85f297	-0.26161644
49	0x3c9aeb14	0.018910922
50	0xbdbef421	-0.09323908
51	0xbead34f0	-0.3382945
52	0x3f0bb430	0.5457182
53	0xbe173d7e	-0.14769551
54	0xbe55fbb5	-0.208968
55	0x3eb7d62f	0.35905597
56	0x3f011a90	0.50431156
57	0xbe8edca6	-0.27902716
58	0x3f130165	0.57424
59	0xbd1d4156	-0.038392387
60	0x3f26f50e	0.65217674
61	0xbd6448e0	-0.05573356
62	0xbec26152	-0.37964875
63	0x3e91fd95	0.2851378

action_net.weight f4 [2, 64]
0	0xbe3717ae	-0.17880127
1	0x3cc8d2bd	0.02451455
2	0x3bea7e27	0.007156152
3	0xbd9696db	-0.07352992
4	0xbe9a0b39	-0.30086687
5	0x3d5576dc	0.052115306
6	0x3de456f0	0.111493945
7	0x3c0f8464	0.008759592
8	0xbe3c0e30	-0.18364787
9	0xbd174906	-0.036934875
10	0x3dfe76de	0.12425016
11	0xbc39cd7c	-0.011340495
12	0x3ddda744	0.10822919
13	0x3d340d74	0.043958142
14	0xbd5a4498	-0.053288072
15	0xbcf4b40a	-0.029871006
16	0x3d80e061	0.06292797
17	0x3b1f3536	0.002429319
18	0x3e229c20	0.1587987
19	0xbdf87d5c	-0.121332854
20	0xbdc5d77a	-0.096602395
21	0x3d84a1a8	0.06476146
22	0x3bb6eae1	0.005582199
23	0x3dc2f122	0.09518649
24	0xbe37a1b0	-0.17932773
25	0x3c01bd17	0.007918618
26	0x3de1d491	0.11026872
27	0x3e65aa03	0.22428136
28	0xbed57214	-0.41688597
29	0xbdc17403	-0.094459556
30	0xbd0763af	-0.03305405
31	0xbd5d9331	-0.05409545
32	0xbd9da849	-0.076981135
33	0xbd7460d9	-0.059662674
34	0x3cc169b8	0.023609981
35	0x3ce813c9	0.028329747
36	0x3e413311	0.18867137
37	0x3e97e8e1	0.2966986
38	0xbe1d6f30	-0.15374446
39	0x3e0bf7b6	0.13668713
40	0xbe97325d	-0.29530612
41	0x3dc96c47	0.098351054
42	0x3d3d4b99	0.046214674
43	0xbe4532f2	-0.19257715
44	0xbd6db911	-0.05803782
45	0xbe3e925e	-0.18610522
46	0xbbe0095b	-0.0068370528
47	0x3e4cf48a	0.20015159
48	0x3d8d32bb	0.06894442
49	0xbcb95aff	-0.022626398
50	0x3d1221d9	0.03567681
51	0xbe3c7cac	-0.18406934
52	0xbe381880	-0.17978096
53	0xbd4a8693	-0.049444746
54	0x3e383286	0.17988023
55	0x38bb5b88	8.933904e-05
56	0xbea2af83	-0.3177453
57	0xbe038689	-0.1284429
58	0x3b55f4a0	0.0032647029
59	0xbcb2967a	-0.021800268
60	0x3de654db	0.11246654
61	0x3e55f446	0.20893964
62	0xbec0cc01	-0.37655643
63	0x3dba68c3	0.09102013
64	0xbd87378f	-0.06602394
65	0x3dd3f16b	0.10348781
66	0x3b3e9a37	0.0029083618
67	0x3db3d113	0.08780112
68	0xbe0df3c8	-0.13862526
69	0x3dbe23e9	0.09284193
70	0x3b94a315	0.0045360425
71	0x3de493f2	0.11161031
72	0x3b208829	0.002449522
73	0x3df92b99	0.12166519
74	0x3e544377	0.20728861
75	0x3d43f4cb	0.047840875
76	0x3b5eee07	0.0034016387
77	0xbde17b9a	-0.11009903
78	0xbdb58cbc	-0.088647336
79	0x3e097e62	0.13427117
80	0x3e73a8d2	0.23794869
81	0x3db931f4	0.09042731
82	0x3d9364bb	0.07196947
83	0x3cf6f867	0.030147744
84	0x3d480fa0	0.048843026
85	0x3dcdbd85	0.100459136
86	0xbdda7deb	-0.10668548
87	0x3d3e4739	0.046454642
88	0xbad4994f	-0.0016220006
89	0xbde14198	-0.10998839
90	0x3dcb58e6	0.099290654
91	0xbce4b5ba	-0.027918685
92	0xbd5a72a2	-0.05333198
93	0x3dcb43d0	0.099250436
94	0x3da072c3	0.07834389
95	0x3e0e115e	0.13873813
96	0x3e08fb67	0.13377152
97	0x3e152287	0.14563952
98	0x3e03b31a	0.1286129
99	0x3e0128c4	0.12613207
100	0xbe6004a1	-0.21876766
101	0xbcab91e7	-0.020943595
102	0x3cf95810	0.0304375
103	0x3d8a839d	0.067633845
104	0x3e3aa52a	0.18227068
105	0xbe934bdf	-0.28768823
106	0x3e2804b5	0.16408046
107	0xbc6c5c92	-0.014426367
108	0x3e214076	0.15747246
109	0x3dd3c759	0.10340757
110	0x3e041074	0.12896901
111	0x3dbeda73	0.0931901
112	0x3e16aa24	0.14713341
113	0x3ba0657b	0.00489491
114	0x3e1b8c06	0.15190133
115	0x3d3f6871	0.046730462
116	0x3e2c4102	0.16821674
117	0x3d943df9	0.07238383
118	0xbdd75cfd	-0.10515783
119	0x3d2c0242	0.04199434
120	0x3d357c8f	0.04430824
121	0x3d794c2c	0.06086366
122	0x3e00779d	0.12545629
123	0x3de20c57	0.1103751
124	0xbd0b9c26	-0.03408446
125	0x3df2c256	0.11853473
126	0xbb111aac	-0.0022141142
127	0x3d8edd9e	0.06975864

action_net.bias f4 [2]
0	0x3d6139b1	0.05498666
1	0x3e19896a	0.14993826

value_net.weight f4 [1, 64]
0	0x3f8cc6cf	1.0998172
1	0xc02c7069	-2.694361
2	0xc04442ac	-3.0665693
3	0xc0434ebf	-3.0516813
4	0xc0124e34	-2.2860231
5	0x3f9d895a	1.2307541
6	0x3fa9997d	1.3249966
7	0x40496cb7	3.1472604
8	0x3f9ae954	1.2102456
9	0xc04424ee	-3.064754
10	0xc078c53b	-3.887038
11	0xc024a77f	-2.5727232
12	0xbfb7d1aa	-1.4360859
13	0xc0326923	-2.787667
14	0x3f93ae5e	1.1537588
15	0xc049990a	-3.1499658
16	0x3fa52b09	1.2903758
17	0x3f8dc5c8	1.1075983
18	0xc06010ac	-3.5010176
19	0x3faedad1	1.3660527
20	0xc03618f5	-2.8452733
21	0xc0577d28	-3.367014
22	0x3f989802	1.1921389
23	0x3fa7e420	1.3116493
24	0xbfcae975	-1.5852495
25	0xbfe5cd26	-1.7953231
26	0xc00d04c7	-2.2034166
27	0x3fa004bc	1.2501445
28	0xc0867566	-4.201831
29	0x3fb82c13	1.438845
30	0x3fabca2c	1.3421073
31	0xc07db9bb	-3.964461
32	0xbf892644	-1.0714803
33	0xc052af28	-3.2919407
34	0xc004fd6f	-2.0779684
35	0xbfe2d3ec	-1.7720923
36	0x3fa67353	1.3003944
37	0xbfd1f2f0	-1.6402264
38	0xc0503002	-3.2529302
39	0x3f91f85d	1.140392
40	0xc037f91d	-2.8745797
41	0xbfdaebad	-1.7103173
42	0xc090ab0a	-4.520879
43	0xbfa033a3	-1.2515758
44	0x3f9be87f	1.2180327
45	0x3f9094ef	1.1295451
46	0xc0a0e2d7	-5.0276904
47	0xc0877a76	-4.233699
48	0xc0e4f05e	-7.1543417
49	0xbfb60a9c	-1.4221988
50	0xc0341581	-2.8138125
51	0xc00422b3	-2.0646179
52	0x3fa2aca2	1.2708933
53	0xc05302ad	-3.2970383
54	0xc0d7c675	-6.7429757
55	0xc04f2f81	-3.2372744
56	0x3f9d7749	1.2302028
57	0xc0173543	-2.3626258
58	0x3fa1aa76	1.2630146
59	0x3e85e852	0.2615381
60	0x3fa6d262	1.3032954
61	0xc09ca4ae	-4.8951025
62	0xc0e66075	-7.1992745
63	0xc070f175	-3.7647374
