sim2real/RL-VertiBench/teacher_grass.pt (torch, 48837 bytes, 12 tensors)

log_std f4 [2]
000000 69 b3 55 bf 6f e6 d6 bf
       -0.83476883 -1.6789073

mlp_extractor.policy_net.0.weight f4 [64, 18]
000000 c0 a5 c6 3e c3 59 01 3d 5d e2 40 3d 2e 4e a2 3d
       0.38798332 0.031579744 0.047090877 0.07925068
000010 3c 51 4c 3e 5d 4c 49 3e 93 d1 b9 3d c2 20 b4 bd
       0.19952863 0.19658037 0.09073176 -0.087953106
000020 a4 a3 e2 ba b3 32 94 bd 1f 73 14 be 71 9f f3 bd
       -0.00172912 -0.072362326 -0.1449704 -0.118956454
000030 a8 45 f9 3d b2 03 4c 3d 4c 93 a4 be 09 4b 26 3e
       0.12171489 0.04980821 -0.3214363 0.16239561
000040 f2 b8 a4 bd 33 61 c1 3e de 27 85 be 4c 28 57 be
       -0.08043088 0.3776947 -0.2600698 -0.21011466
000050 06 5f a1 bc ed 2d 45 3d 4a c9 27 be f7 fa 38 bd
       -0.019698631 0.0481395 -0.1638538 -0.045161214
000060 7b 5c a9 3d 4b f9 00 3e 5e 51 1e 3e 0f 5a b6 bd
       0.082695924 0.12595098 0.15460727 -0.08903896
000070 7b 8e 92 3d 9a 97 49 3e 4c a7 04 bf 1c a4 04 bd
       0.07156082 0.19686738 -0.51817775 -0.03238307
000080 df 24 31 be 65 bc f7 bc dc fa ac bd cc 23 b8 bc
       -0.17299221 -0.0302412 -0.08446285 -0.022478007
000090 8d aa 52 be b3 f8 1a 3e 5f 55 8d be c7 ab 2c 3e
       -0.20572872 0.15133934 -0.27604195 0.16862403
0000a0 b4 a7 40 bd 23 0f 54 3e 68 2a 83 bd 49 74 a9 bd
       -0.047034934 0.20708899 -0.06404573 -0.08274133
0000b0 b7 e2 15 bd 02 4e 97 be 39 3b c3 3d a0 36 f4 3d
       -0.036593165 -0.29551703 0.0953278 0.119244814
0000c0 7a 77 96 3c b6 5a b2 3d cc 50 6a bd 31 1b 64 3e
       0.018367518 0.08708708 -0.05720596 0.22275998
0000d0 96 f1 54 be 5c 06 d1 3e 50 55 04 bd c1 45 81 be
       -0.20795283 0.40825164 -0.032307923 -0.2524853
0000e0 63 0e ba be 19 a5 45 be 0f 20 d8 bd b4 52 8d be
       -0.363391 -0.19301261 -0.1055299 -0.2760216
0000f0 de bd ae 3e f9 33 59 3d 3a 41 dd 3c 46 a6 87 be
       0.34129232 0.05302808 0.027008642 -0.26494044
000100 2a a0 3d bd 51 3a bf 3d ef 1b fb bc 94 bd f2 bd
       -0.046295322 0.09337295 -0.030652968 -0.118525654
000110 d4 09 a4 3e f7 91 0c 3e a8 a6 54 bd 81 1b e3 3d
       0.32038748 0.13727556 -0.05191675 0.1108923
000120 f1 88 6f bd 81 45 53 3e d5 81 f7 be b6 f0 63 be
       -0.058480207 0.20631982 -0.4834124 -0.22259793
000130 84 21 83 bd 1a 8a 86 3e ce b4 6f 3e a1 0b 73 3d
       -0.06402877 0.26277238 0.23408815 0.059337262
000140 de 17 e1 3e 2b f7 65 3e 73 b4 03 be e0 5a cc bd
       0.43963522 0.22457568 -0.12861805 -0.099782705
000150 ab d8 87 3e 92 58 12 be 22 c8 8e be 17 85 73 3d
       0.26532492 -0.142916 -0.27887064 0.059453096
000160 6b 2f de bd 78 db 31 3e 36 bb fb 3c 9a 4b a4 3d
       -0.10848888 0.17368877 0.030728918 0.08022232
000170 c7 80 5e be 9c a9 e0 bc 48 10 52 be 1d 8a d4 be
       -0.21728812 -0.027424626 -0.20514023 -0.41511622
000180 f9 79 32 be 31 1f 38 3b cc 17 07 be 6b 60 8e 3e
       -0.17429341 0.0028094763 -0.13192672 0.27807936
000190 70 5e f3 bd 0e aa 55 bd 0a 96 ef 3d 65 c2 89 3d
       -0.11883247 -0.05216413 0.116985396 0.06726531
0001a0 b2 ca ab be 75 1f 15 bd 92 0a c7 bd 68 31 7a 3d
       -0.33553082 -0.036406953 -0.09718813 0.061082274
0001b0 b6 fa 1d 3e 98 e1 67 3d 1e a9 0b be f0 71 9a be
       0.1542767 0.056611627 -0.13638732 -0.30165052
0001c0 24 65 8d be d9 28 0a be e1 50 a6 3e 41 6f db be
       -0.27616227 -0.13492145 0.3248358 -0.42858317
0001d0 5f ea 92 bd 20 c2 9e be 18 01 4c be 1b 9e 16 3c
       -0.07173609 -0.3100748 -0.19922292 0.009192969
0001e0 ac 03 02 be 50 8b 91 be cc ea 28 be e8 79 52 be
       -0.12696713 -0.284266 -0.16495818 -0.20554316
0001f0 90 ee 70 3d a7 4f c9 3b e5 4c a3 be 2d 6a b2 be
       0.05882126 0.0061435285 -0.31894603 -0.3484663
000200 2b 40 8f 3e 7f 44 e0 be ec ee 64 be 56 a2 c9 be
       0.27978644 -0.43802258 -0.22356766 -0.39381665
000210 52 02 00 3e fc 9f 5b bd 7a 2a 20 be ad 95 fa bd
       0.12500885 -0.05361937 -0.15641204 -0.1223558
000220 a4 55 1e 3d b8 70 a6 bd 1a 73 65 3d 70 4a cc 3d
       0.038655892 -0.08126968 0.056017973 0.09975135
000230 6c bf 0b be 62 42 50 3d 97 8e 26 3e 91 49 df bd
       -0.1364724 0.050844558 0.16265331 -0.109027036
000240 04 21 5d 3d 5d a6 36 3e ba 18 44 be 93 5c c7 3e
       0.053986564 0.178369 -0.19150057 0.38937816
000250 12 3f 4a 3e d6 cb 15 3e 32 35 f4 bd f6 39 93 be
       0.19750622 0.14628538 -0.11924209 -0.28755158
000260 b0 0f 9e 3e b4 3f 02 be 87 01 18 be 7b 33 d8 3e
       0.30871344 -0.12719613 -0.14844333 0.42226776
000270 5e 88 25 3e 3c 88 1c 3e 4e 5c 6e 3d b8 d6 19 be
       0.16165301 0.15286344 0.058193497 -0.15023315
000280 a4 77 ce 3d 0c d6 42 bd d4 21 0b be ce 44 48 be
       0.100814134 -0.047567412 -0.13587123 -0.19557497
000290 4d 86 a1 bc 34 83 69 be c5 3e 39 3e b1 9b c7 bd
       -0.01971736 -0.22803956 0.18090351 -0.09746493
0002a0 ef 19 fc bd 94 e9 71 3d eb ee 4b 3e 09 df 0c be
       -0.12309634 0.059060648 0.19915359 -0.13756956
0002b0 ff a9 4e bd 89 75 18 bd 57 8f c4 3e ee ca 0a be
       -0.05045509 -0.037221465 0.3839061 -0.13553974
0002c0 6f 7c e9 3d 40 ae 62 3c f4 18 59 be 3a 3e a1 be
       0.11400687 0.01383549 -0.21200925 -0.31492788
0002d0 5a a1 06 be 0e 22 b6 be 4f 52 88 3c 7e c4 50 3e
       -0.13147488 -0.35572857 0.01664081 0.20387456
0002e0 a8 2b 05 be a9 c8 86 bd e2 2c 46 3e 73 3a c5 bd
       -0.13004935 -0.06581242 0.19353059 -0.09630289
0002f0 83 31 79 be 69 14 39 be 33 ad ae 3d c8 ad c3 be
       -0.24335293 -0.18074192 0.08529129 -0.38218522
000300 d3 49 a3 bd 4b 64 1d be 4a 21 ea bd 15 f0 20 be
       -0.07973065 -0.1537029 -0.11432131 -0.15716584
000310 d0 1b c3 bd 73 cf e8 bd 15 1d 30 be 87 a3 86 be
       -0.09526789 -0.11367693 -0.17198594 -0.26296636
000320 98 f7 81 be 23 f9 ba bd d4 67 33 3e 7f d7 b8 3e
       -0.25384212 -0.0912955 0.17520076 0.3610191
000330 a9 b1 23 be dc 9e 20 bc bb 4a c4 3e 8b 24 bb bc
       -0.1598574 -0.0098035 0.38338265 -0.022844573
000340 85 e6 37 bd c3 5d 78 3e 6f 46 29 3d 78 64 da 3e
       -0.044897575 0.24254517 0.041326936 0.42654777
000350 3b ac 9c be b8 e1 3e be 76 d1 c3 3d f4 f9 60 3e
       -0.3060015 -0.18640792 0.09561436 0.2197035
000360 72 03 6d be d4 fc 40 3c cd 11 91 be 05 4e 51 3e
       -0.23145846 0.011779029 -0.28333893 0.20439918
000370 e9 44 e8 bc 9e a4 41 bc 4a 0d 93 bd 26 4a 5c 3e
       -0.028353171 -0.011819033 -0.07180269 0.2151266
000380 1d 42 e2 bc b6 98 0e bd 1f 47 fc 3d da d9 97 3d
       -0.027619416 -0.034813605 0.12318253 0.07414599
000390 10 1e 41 be 72 9c 0e be 97 c2 d1 bd 15 a5 94 3e
       -0.18859124 -0.13926867 -0.10242193 0.29032198
0003a0 cf f4 57 3d 92 02 69 3e 48 7a 13 3e 2f 22 ef bd
       0.052723702 0.22754887 0.14402115 -0.11676442
0003b0 5a 02 7e be df 80 01 bd 9a b6 fd bd a4 c0 bd 3d
       -0.24805585 -0.03161704 -0.12388344 0.09265259
0003c0 f1 39 33 3e bf 97 e0 3d 26 0d 34 bd bf 35 9c 3d
       0.17502572 0.10966443 -0.04395785 0.07627439
0003d0 05 5d a9 be 86 4f 0c 3e 87 ba 09 3d 27 c1 50 bd
       -0.3307878 0.13702211 0.033625152 -0.050965454
0003e0 bd 4d 3a bd b2 7c 14 3e 35 13 1c be b9 73 1c be
       -0.045484293 0.14500692 -0.15241702 -0.1527852
0003f0 d4 16 5d bd 40 d2 4f be a0 fc 70 be 7e 02 30 be
       -0.05397685 -0.20295048 -0.23533869 -0.1718845

mlp_extractor.policy_net.0.bias f4 [64]
000000 64 67 f6 3d 1d e2 47 bd 0d 2c 1c 3d b3 8d 1e be
       0.12031439 -0.048799623 0.038127948 -0.15483741
000010 82 b9 55 3d 94 3d 6b 3d 15 c3 63 be a1 bf d9 3d
       0.052178867 0.057431772 -0.22242387 0.106322534
000020 c1 61 36 bd b2 49 46 bd 27 a5 b1 bd f6 03 71 3d
       -0.04452682 -0.048410125 -0.086740784 0.058841668
000030 49 75 88 3c c0 da 18 be f4 dc f9 3c 22 e3 c4 bc
       0.016657488 -0.14927197 0.030500866 -0.024034087
000040 d9 4c 12 3d 89 09 14 3e 1f df b9 3d bc 3d 02 bd
       0.03571782 0.14456762 0.0907576 -0.031797156
000050 c3 39 a5 3d 42 65 9f 3d 5a d1 84 3c 99 52 3a 3c
       0.08067658 0.07782985 0.016213108 0.011372232
000060 fb 69 b3 bd 7c 2c 0e be ee 3a 0f 3d b4 d4 e8 3c
       -0.087604485 -0.13884157 0.03496831 0.028421737
000070 da cb 05 3e f1 a4 43 3d e4 39 84 bd ed 09 3c 3d
       0.13066044 0.047764722 -0.06456354 0.045907903
000080 05 58 a0 3c cf ea 05 3e 2a 0c f3 bd fb 39 df bc
       0.019573221 0.13077854 -0.118675545 -0.027249327
000090 29 a5 03 3c eb 85 e5 bd a3 24 97 bd f2 da c8 3c
       0.008034983 -0.112071835 -0.07380035 0.024518464
0000a0 e5 d8 c9 bd 8d 74 70 bc e9 b6 94 bd bd ab f6 bc
       -0.098558225 -0.014676225 -0.0726145 -0.030111188
0000b0 71 a4 96 3d 39 c5 a5 3c e2 48 6d 3d b1 7d 00 3d
       0.073555835 0.020235645 0.057930835 0.03136987
0000c0 df f2 ab 3d 1a 6e 27 3e b5 78 a9 bd fa aa ce 3d
       0.08395933 0.16350594 -0.08274976 0.10091205
0000d0 37 97 d7 bd d6 24 e7 3d ce 97 9e bc 50 c4 17 3d
       -0.10526889 0.11286323 -0.019359495 0.037052453
0000e0 9d 54 4d 3c 92 c8 8c bd 1a 90 eb bc eb f8 ab 3d
       0.01253238 -0.06874193 -0.028755236 0.08397087
0000f0 76 ae c7 3d 44 76 42 3e f4 a2 d9 bb 18 3f c5 bd
       0.09750073 0.18990427 -0.00664174 -0.09631175

mlp_extractor.policy_net.2.weight f4 [64, 64]
000000 ad 96 ab 3e 06 94 86 be 6d 49 c4 bc 82 99 8a 3e
       0.33513394 -0.26284808 -0.023960793 0.27070242
000010 bd bb e2 3e 97 98 36 3e 5f 54 42 3d 76 27 ce bd
       0.44283858 0.17831646 0.047443744 -0.1006612
000020 fb 0d 89 3e 07 16 93 3d 2c e1 59 3d bc d8 8b 3d
       0.2676848 0.07181936 0.053193256 0.06828448
000030 eb b1 82 be fb e1 c8 bd bf f6 ff 3d b4 ed 0c 3e
       -0.25526366 -0.09808727 0.12498235 0.13762552
000040 8f 73 11 be fe a0 30 be 99 cb 52 3e 58 62 b7 3e
       -0.14204238 -0.17248914 0.20585479 0.35817218
000050 46 81 16 bc 1d e0 ef bd cf 1d c6 3d e6 39 3f be
       -0.009186095 -0.11712668 0.09673654 -0.1867443
000060 4e 11 47 be 3b 2c ea 3c e9 d0 ed 3d f6 3a b4 bc
       -0.19440195 0.028585544 0.11612112 -0.022000771
000070 34 98 ab 3e 92 a9 0d 3d c3 08 11 3e b6 59 af 3e
       0.3351456 0.034585543 0.14163499 0.34248132
000080 f4 43 10 be 58 86 28 3b 6f 51 ab bd 3a ac 95 3d
       -0.14088422 0.002571484 -0.083651416 0.0730824
000090 57 54 e3 bd 29 0a e5 3d ba 36 35 be 5f 61 4e be
       -0.11100071 0.111835785 -0.17696658 -0.20154332
0000a0 1a fd 5c be 76 06 ed 3d 6e 54 c3 be 87 fe cb 3d
       -0.21580926 0.11573498 -0.38150352 0.099606566
0000b0 c7 57 9b 3e b4 45 d5 3d cb ab 81 3e 99 c7 8c bd
       0.30340406 0.104136854 0.2532638 -0.06874008
0000c0 22 aa 1a be be c6 46 3d 07 8f 88 be 61 50 55 3e
       -0.15103963 0.04852938 -0.2667162 0.20831443
0000d0 28 b0 0d be 2d 5b 11 be a2 ed 07 be a1 91 54 3e
       -0.1383673 -0.14194937 -0.13274243 0.20758678
0000e0 f2 c5 0a be 06 db 45 3d 83 51 d4 3c ba 66 f2 bd
       -0.13552073 0.04830458 0.025917774 -0.11836
0000f0 ff 3e a7 bd 35 ef 5f 3d 2c 7d c6 3d a5 32 18 be
       -0.081663124 0.054671485 0.096918434 -0.1486307
000100 77 e6 ea 3d db 49 54 be 8a 6e 92 3e 85 82 fd bc
       0.11469739 -0.20731299 0.2859996 -0.030946026
000110 98 26 18 be b9 62 58 be 19 ed 7c 3e e0 c2 83 3d
       -0.14858472 -0.2113141 0.2469982 0.06433654
000120 2b fd da be d4 96 bd 3d 0d c6 3e 3e 22 f8 d1 bc
       -0.42771277 0.09257284 0.18630238 -0.025631014
000130 dd dd ea bc 0d 31 76 be 5b e7 53 bc 64 6a d3 bc
       -0.028670246 -0.24042149 -0.012933577 -0.025807567
000140 67 88 82 3e 0c 36 13 3d 05 eb 39 3d a9 4a e1 3d
       0.25494692 0.035940215 0.045390148 0.110005684
000150 92 43 d7 3d ac 82 77 3d a2 29 32 3e 38 aa d5 be
       0.10510935 0.060427353 0.17398694 -0.4173143
000160 79 fa 50 3e ea d4 9c 3e df b6 11 bd a1 e6 49 3e
       0.20408048 0.3063119 -0.03557479 0.19716884
000170 bf 24 83 be ee c2 fe 3d 51 c0 2b 3e ef a4 6e be
       -0.25613973 0.12439524 0.16772582 -0.23305105
000180 dd 17 61 bd d8 38 ac bd 79 09 e9 3d 63 81 69 be
       -0.0549544 -0.084092796 0.1137876 -0.22803263
000190 39 d0 a5 3e 93 0a a1 3e 4e 39 96 bd d8 8e 52 3c
       0.32385424 0.3145338 -0.07335149 0.012851439
0001a0 d3 03 d1 3d 11 dc 8a bd 62 09 8d be f3 7e 7a 3e
       0.102058075 -0.067802556 -0.2754622 0.2446249
0001b0 d5 a6 0e 3d b0 a3 e6 bd 6e a0 11 3e 3e 50 0e be
       0.034827072 -0.1126169 0.14221355 -0.13897797
0001c0 ab 84 14 3e e1 e3 b6 bd a3 c4 4e be 24 36 bc be
       0.14503734 -0.08930183 -0.20192198 -0.36760056
0001d0 a1 aa 1a 3d 56 c5 98 bc b6 45 02 be 7a bf 1e 3d
       0.03776038 -0.018648785 -0.12721905 0.038756825
0001e0 64 0f 65 3d 3a d8 5f be c8 39 b3 bd c3 e4 a0 bd
       0.05592288 -0.21859828 -0.08751255 -0.07856133
0001f0 35 f7 ec 39 70 54 be be 5a c2 c8 bc 03 56 32 3e
       0.0004519761 -0.37173796 -0.024506737 0.17415623
000200 b2 f1 43 be fd 13 8c bd e6 fb 04 3c 36 b6 cc be
       -0.19135168 -0.0683975 0.008116698 -0.39982766
000210 35 c4 9d be a2 57 5b be ba 5c be 3c ec 81 33 3e
       -0.30813757 -0.21420148 0.023237575 0.1753003
000220 85 00 97 3e 8b bc 01 3e 98 46 8f ba 29 af c8 3c
       0.29492584 0.1266958 -0.0010931073 0.024497585
000230 f9 0f cf 3c 17 e4 68 be 46 ba b2 bd 68 d7 ac be
       0.025276171 -0.2274326 -0.08726935 -0.33758092
000240 25 63 f9 3c 74 9a c3 3c b4 5f ad 3d 38 df 6d 3e
       0.030442784 0.02387736 0.084655195 0.23229682
000250 81 b5 d1 3c b8 02 34 be ab f2 e0 bd 6a 54 34 3b
       0.025599243 -0.17579162 -0.10983785 0.0027516135
000260 63 8c 45 bc db b5 ff bd 00 9c 9f 3b 6f d5 06 3e
       -0.012057397 -0.12485858 0.0048708916 0.13167356
000270 ff e3 25 3e 4e b6 c4 3d b5 d0 1b be b4 9d 01 3e
       0.16200255 0.09605084 -0.15216334 0.12657815
000280 1a ac 8f 3e 32 49 42 3e 6d cd 45 be 70 5f 1c 3d
       0.2806099 0.18973234 -0.19316645 0.038176954
000290 ec d2 23 be 55 29 66 be 35 16 75 bd eb e9 64 be
       -0.15998429 -0.22476704 -0.05983563 -0.22354858
0002a0 63 95 7e be eb 83 27 be 44 87 8a be 94 cd f9 3c
       -0.24861674 -0.16358916 -0.27056324 0.030493535
0002b0 e2 cc e6 bd ec 0e 36 be 67 83 71 bd ce 84 a7 3c
       -0.11269547 -0.1777913 -0.058963206 0.020449068
0002c0 c1 a6 9d 3e e2 30 1b be 6f 69 60 be d8 a7 a3 be
       0.30791286 -0.15155366 -0.2191522 -0.31963992
0002d0 4b a2 05 3d cd dd 2a 3e 5a 45 13 be 69 74 ad be
       0.032625478 0.16686173 -0.14381924 -0.33877876
0002e0 8f a6 54 bd 32 1c c7 bd dd fd 4d 3e 3d e4 13 be
       -0.051916655 -0.09722175 0.20116372 -0.14442535
0002f0 cb df 9e be 0a 70 ec bd e1 b1 21 be d0 f6 27 bd
       -0.31030115 -0.11544807 -0.15790512 -0.041006863
000300 cf cf 95 3c 2e ec 12 3e 49 90 82 3e 9a 0e e9 3d
       0.018287567 0.14347908 0.25500706 0.11379738
000310 75 23 b4 be f3 1a 53 be ba 87 0c be 17 cf 31 3c
       -0.35183302 -0.20615749 -0.1372365 0.010852597
000320 d1 cc d9 3d e0 56 54 bd 7e c0 d1 bd 72 ea 27 3d
       0.10634769 -0.051840663 -0.10241793 0.04099507
000330 08 49 75 3d 17 13 90 3d 56 5b 22 3c c4 d5 3a 3e
       0.0598841 0.07034891 0.0099094715 0.18245608
000340 56 04 11 bf 7c 5d f7 bd 17 b2 1f 3e 54 88 99 3d
       -0.5664724 -0.120783776 0.1559528 0.07496706
000350 88 db ce 3d f6 a1 aa 3e b6 07 85 39 01 9a a6 3d
       0.10100466 0.3332669 0.00025373482 0.08134843
000360 74 59 5d 3d ed 3e 64 3e cf 42 29 3d ba b3 0c 3d
       0.054040387 0.2228963 0.04132348 0.034351088
000370 80 ca d3 3d 47 a7 29 be 41 dd 1b bd 27 f4 73 bd
       0.10341358 -0.16567717 -0.0380528 -0.059559014
000380 a3 92 b2 bd c4 34 e3 bd 17 ee 2f 3d f3 bb 53 3d
       -0.08719375 -0.110940486 0.04295167 0.051692914
000390 02 b4 0e 3e 11 1b 94 3d cb 2c 87 3e e3 e7 08 3e
       0.13935855 0.07231725 0.26401362 0.13369708
0003a0 6b c8 81 3e ff f6 31 bc 59 31 e8 bc 15 dd 9c 3d
       0.2534822 -0.010862111 -0.028343843 0.076593556
0003b0 a5 1a 8e 3c 21 6b 76 bd 71 b6 43 3e 0d 59 90 3c
       0.01734669 -0.06016076 0.19112565 0.017620588
0003c0 01 ef e5 bd 31 e4 a3 3d fa 50 d1 be 17 da 60 3d
       -0.11227227 0.080025084 -0.40882093 0.054895487
0003d0 67 2c ae 3d aa 1b 59 3e a8 50 a9 3d c6 08 90 3d
       0.08504563 0.21201959 0.08267337 0.070329234
0003e0 08 88 48 3e 73 68 37 3c 78 d4 b4 3e d5 26 22 be
       0.19583142 0.011194336 0.3531835 -0.15835126
0003f0 4c f3 b9 be 87 d1 98 3e b2 e1 80 3e 69 cc 49 be
       -0.36318433 0.29847357 0.25172192 -0.19706883

mlp_extractor.policy_net.2.bias f4 [64]
000000 43 75 00 3e 66 65 96 bd b2 00 97 bb f5 48 7a 3d
       0.12544732 -0.07343559 -0.004608237 0.061104733
000010 e8 a8 0f bd cb 12 22 3d 51 46 1d 3d 35 91 b8 3d
       -0.03507319 0.039568704 0.038397137 0.09012071
000020 be 63 87 3d 08 96 9c 3b 39 fa ee bb 35 40 98 3c
       0.06610821 0.0047786273 -0.0072930125 0.018585304
000030 c5 75 18 3d 04 31 e9 3d f3 d7 45 bd b1 d8 be bd
       0.03722169 0.11386302 -0.04830165 -0.09318674
000040 3d 72 c1 3c 60 3a b1 3c 72 32 90 3c 82 22 85 bc
       0.023614043 0.02163428 0.01760218 -0.016251806
000050 5a 1e 8a bd 2e 6d 86 bd 76 30 27 bc f8 59 08 3e
       -0.0674407 -0.06563793 -0.010204425 0.1331557
000060 ad d9 91 3d aa 63 fe 3d 76 0f c2 3d 13 85 ba 3c
       0.071215965 0.12421353 0.09475605 0.022768533
000070 ff 71 c7 3d ed b9 f3 3d 65 bf d4 3c 70 92 a1 bd
       0.0973854 0.11900697 0.02597017 -0.07889259
000080 10 e8 f1 3d 3e 1b 2d 3d 24 f1 c7 3d 46 4d bb 3d
       0.118118405 0.04226231 0.09762791 0.09145598
000090 6e f4 10 3e bc d3 31 bd 5d fc 0a 3e e6 c0 20 bc
       0.14155743 -0.043414816 0.13572831 -0.009811616
0000a0 19 fa 8b 3d 9a cd ab 3d 99 ae 28 3d 99 b3 a7 3d
       0.06834812 0.08388825 0.041182134 0.081885524
0000b0 46 c7 8c 3d 2a 03 20 3c b7 7a 94 3c cd f8 b6 3d
       0.06873946 0.009766379 0.018124921 0.08934174
0000c0 17 be b8 bc 77 69 3f 3d 5a a5 81 bd 64 d3 ac bd
       -0.02255158 0.04673144 -0.063303664 -0.08438757
0000d0 12 b5 2a 3d c9 bd 8e 3c 48 7b 60 3d 7f a9 8e bc
       0.04167659 0.017424481 0.05480507 -0.017414806
0000e0 98 f1 04 bd 49 26 24 3e 3a 01 07 3c e0 23 99 bd
       -0.032456964 0.1603023 0.0082400385 -0.07477546
0000f0 14 af 55 3e e9 65 8e 3d 10 03 41 3b df 63 c9 3c
       0.20867568 0.069530316 0.0029451288 0.024583755

mlp_extractor.value_net.0.weight f4 [64, 18]
000000 cf 29 5c be 35 2f 8a be e7 8e d3 be 50 e2 ef be
       -0.21500324 -0.2698914 -0.41319963 -0.4685235
000010 23 60 3d 3e 8f 3c ca 3d 1f 1a 62 be 2a d5 20 3f
       0.18493704 0.09874832 -0.22080277 0.6282526
000020 42 3f c5 be 95 f8 9e bd 50 c2 34 bd 0d c9 2a 3d
       -0.38524824 -0.07762257 -0.044130623 0.041695643
000030 4c e2 05 be 2b c8 df bd f5 17 8d 3e 7f 1a 52 3f
       -0.13074607 -0.10926851 0.2755734 0.8207168
000040 45 eb ae 3f cb fa 09 bf 23 d2 76 be 81 98 04 3e
       1.3665549 -0.53898305 -0.24103598 0.129488
000050 4d 69 29 bf 9c 9c 5b 3f 22 38 1c be 27 6e b0 3e
       -0.661763 0.8578584 -0.15255788 0.3445904
000060 5b 49 bb 3e 86 62 7c 3e cd 68 9c 3e 3a 36 12 bf
       0.36579403 0.24646959 0.30548707 -0.57113993
000070 d5 87 f6 3e 31 8c 95 bf 55 8b 4c be 61 42 d1 3d
       0.48150507 -1.1683408 -0.19975026 0.10217739
000080 28 f1 a6 3e 21 d2 2a 3f f8 75 17 3f 03 41 07 bf
       0.32605863 0.6672688 0.5916438 -0.52833575
000090 9c 09 96 bf 61 27 74 be b6 a3 9d bf 32 a5 28 3f
       -1.1721683 -0.23843147 -1.2315586 0.6587707
0000a0 c2 5f 9e 3e 92 a3 ca 3e 46 7b 0e 3f 7a 9f 7c 3e
       0.30932432 0.3957792 0.5565685 0.2467021
0000b0 1a be 51 be ae 4f eb 3e 53 e1 b3 bf 48 f9 54 3e
       -0.20482674 0.45959228 -1.4053138 0.20798218
0000c0 4e b9 be be 23 6b 1d bf c4 1c ff 3e 81 5c 0c 3e
       -0.3725075 -0.614916 0.49826634 0.13707162
0000d0 92 0b 3b 3e f8 97 36 bf 46 6a 1c bf 7c 6e 60 bf
       0.18266132 -0.71325636 -0.6109966 -0.87668586
0000e0 bd 51 ca 3e 45 65 72 3e 78 1e 24 3f 35 e2 1d bf
       0.39515486 0.23671444 0.6410899 -0.6167329
0000f0 56 6c 8d bf e1 23 3c 3f 6f 08 75 3e 5c fa 88 3f
       -1.1048687 0.73492247 0.23928998 1.0701404
000100 77 0e e6 3d 5c 2f 2d bf 0b 98 64 3f 0d 49 a3 3e
       0.11233228 -0.6765039 0.892945 0.3189167
000110 2b f9 df bd 35 2a 3d 3d 41 09 48 bd 30 d2 09 bf
       -0.10936197 0.04618283 -0.04883695 -0.53836346
000120 4f ba a8 3d da a2 d3 3e 89 58 65 be ba 7b 0d 3e
       0.082386605 0.41335183 -0.22397055 0.13816729
000130 57 45 2c be 07 86 4a 3d e2 6e 56 be 82 f6 39 bf
       -0.16823326 0.049444225 -0.20940736 -0.72641766
000140 93 db 2b 3e f9 1a 1a 3e 73 00 66 3f 26 23 2b 3f
       0.1678298 0.15049352 0.89844435 0.6685051
000150 8a cf be be c6 8a 21 3f 50 bb 8a bf 80 75 06 3f
       -0.37267715 0.63102376 -1.0838413 0.5252304
000160 e7 dd c5 3d ad 0b b5 bf 2c d1 07 bf 7f af 16 3e
       0.09661465 -1.4144188 -0.53053546 0.14715384
000170 fa d4 26 3e bd c0 29 3e 45 41 b4 3e 14 ac 66 be
       0.16292182 0.1657743 0.35206047 -0.2252658
000180 0c 88 82 be b3 63 83 be da a4 c6 be 0c a0 88 be
       -0.2549442 -0.25662002 -0.38797647 -0.26684606
000190 f8 50 44 3f 21 61 b8 be c5 22 ac 3e 85 fa 2a be
       0.7668605 -0.36011603 0.33620277 -0.16697128
0001a0 6d 44 07 be a5 0a 91 bc 6f 32 bf 3f 7b b2 03 bf
       -0.13209696 -0.017705271 1.4937266 -0.51444215
0001b0 90 83 b5 3e 99 ef 95 bd 8d 43 65 3d 33 db 91 be
       0.35451937 -0.0732109 0.055972625 -0.28487548
0001c0 ae e5 16 3f cf f7 08 3e d8 bf 9a 3e 02 e2 94 3c
       0.58944213 0.13375781 0.3022449 0.018174175
0001d0 04 67 10 be fb 90 25 3d 88 b6 8c ba d0 2b 8c 3e
       -0.14101797 0.040421467 -0.0010735551 0.27377176
0001e0 91 2e 17 be 60 ff d4 bc 01 5a b3 bd 39 48 b3 bd
       -0.14763857 -0.026000679 -0.08757401 -0.0875401
0001f0 37 82 f9 bf cb d1 ce be ae a7 a0 bb 83 02 71 3e
       -1.9492863 -0.40394434 -0.0049028015 0.23536114
000200 cc c6 be 3e 2c 45 e8 bd c7 b2 b6 be 01 a3 48 3f
       0.37261045 -0.113413185 -0.3568327 0.78373724
000210 aa 9b 96 bd 3b 28 1d 3f 0a d8 07 3e 72 f1 25 bd
       -0.07353909 0.6138951 0.13266006 -0.040513463
000220 00 ea 64 3f 9b 61 15 3f fd ab d7 be 43 3f cd bc
       0.89419556 0.5835206 -0.42123404 -0.02505458
000230 a5 b7 c8 be 86 6b 2b 3f 88 9c 00 40 e7 fd 4e bf
       -0.3920261 0.6696094 2.009554 -0.80856174
000240 04 76 ec bd d9 77 f2 3e 75 10 9a 3e 55 69 c2 be
       -0.11545947 0.47357062 0.3009068 -0.37970987
000250 17 8c 34 3e da 84 34 be 2c 5b c8 be 93 f9 4c 3c
       0.17631565 -0.17628804 -0.3913206 0.012510675
000260 a1 82 63 3c 68 e5 cb 3e 49 79 f2 bd 6d 3f c6 3e
       0.013886125 0.3982346 -0.118395396 0.38720265
000270 78 96 1f 3f 20 64 7e be a3 e8 95 3e c5 a1 40 3c
       0.6233897 -0.24842882 0.2927905 0.011757319
000280 3d 1b c5 3e 91 56 83 3f 6b e8 8c be 4a 6f 8b be
       0.38497344 1.0260793 -0.2752107 -0.27233344
000290 7c 5d d1 3d 1f 54 90 3e f7 1c 17 be 32 e6 a8 bd
       0.10222909 0.2818918 -0.14757143 -0.08247031
0002a0 c0 87 8c bd ac 1b 23 3e 0a b1 e5 3e b1 25 60 3e
       -0.0686183 0.15928525 0.44861633 0.21889378
0002b0 af f1 11 3f 9f 17 bb 3d b6 29 45 be 05 b6 15 3e
       0.57009405 0.09135365 -0.19254193 0.14620216
0002c0 70 92 4c be 59 ab 3b 3e 24 ca 7a 3e a4 f2 9d 3f
       -0.19977736 0.18327083 0.24491173 1.2339673
0002d0 47 10 ff 3e f8 83 9f 3e d2 0d 2e be 9c 6a 29 be
       0.49817106 0.31155372 -0.1699746 -0.16544574
0002e0 d1 5d 8e 3e 71 3f 43 bd ec b1 d4 3e 5a a1 ff 3e
       0.2780595 -0.047667924 0.41541994 0.4992779
0002f0 aa 21 20 bf ba b3 08 bf b7 70 01 3f 0d 46 60 3e
       -0.6255137 -0.5339924 0.50562614 0.21901722
000300 87 38 2a bf 18 8e 69 3f 05 7a 8f be 43 b8 2c 3e
       -0.66492504 0.9123244 -0.2802278 0.16867165
000310 61 21 00 40 74 40 1a bf f5 41 42 be 5b 14 94 3e
       2.0020373 -0.602546 -0.18970473 0.2892178
000320 73 6b 21 3e d4 f3 38 3f f5 1d b2 be 11 b4 2a 3e
       0.15763645 0.7224705 -0.3478848 0.16670252
000330 5b 45 aa bc 1e 72 29 be f2 6a 93 3d c0 35 0d 3f
       -0.020785024 -0.16547439 0.071981326 0.5516014
000340 29 29 1e 3e 5d dd 99 3e 01 0f 18 bf 62 ff 1d be
       0.15445389 0.300517 -0.59397894 -0.15429452
000350 b2 e8 8f be fd 9a ea 3d 80 55 ca 3e a3 ac 81 3f
       -0.2810722 0.11455343 0.39518356 1.013081
000360 ee a4 6d 3e 44 4d 4e bf ef d4 0b bf 67 58 21 be
       0.23207447 -0.8058665 -0.54621786 -0.15756379
000370 30 26 4d be 22 38 0e be 04 3f a0 3d 07 35 5b 3e
       -0.20034099 -0.138886 0.07824519 0.21406947
000380 8c e3 78 3e 9e e4 cf bc 6f d4 e4 3e 3d b7 ff be
       0.24305552 -0.025377568 0.44693324 -0.49944487
000390 f2 1b b6 bd 6d d3 f3 bd f7 f1 5e 3e 3d 0f ce be
       -0.08892049 -0.11905561 0.2177199 -0.40246
0003a0 25 09 21 be e6 d0 a4 bf 1e 3a ad 3e 44 ad 3a 3f
       -0.15726145 -1.2876251 0.33833402 0.7292063
0003b0 16 8e 17 3f 58 66 1c bf 21 35 49 3f 88 ce 47 3c
       0.5920118 -0.61093664 0.78596693 0.012195237
0003c0 d3 b4 95 3e e3 76 1e 3f 80 fc ba bf 36 5e 0e bf
       0.2923952 0.61900157 -1.4608307 -0.55612504
0003d0 ff 7e 02 3f 02 e5 82 be e0 b7 64 bf 2a bf fc 3e
       0.5097503 -0.25565344 -0.8934307 0.49364597
0003e0 53 e5 1f 3f 09 3a 1e 3f 60 e2 0a c0 d5 8c 9d be
       0.62459296 0.61807305 -2.1700668 -0.3077151
0003f0 90 a0 e5 be 9e d6 dd be 7b 6c 4e bf 70 8f 05 bf
       -0.44849062 -0.43327802 -0.8063428 -0.52171993

mlp_extractor.value_net.0.bias f4 [64]
000000 b9 ae 21 bf 70 82 99 bf 54 54 85 bf 23 ff 95 bd
       -0.6315723 -1.1992931 -1.041636 -0.07324054
000010 34 14 61 3e e8 0f 0f bf 57 cf a4 3e ed 1c 39 3e
       0.21980363 -0.55883646 0.32189438 0.1807744
000020 39 f9 ea 3e 8e 98 0d 3f 3a bf aa be de 7c 17 3f
       0.45893267 0.55310905 -0.3334902 0.5917491
000030 04 02 55 be 61 af a8 bd 27 c8 12 3f 13 1d f6 3e
       -0.2080155 -0.08236576 0.5733666 0.48069057
000040 f0 c5 64 bf 0f bf 3e 3f 22 03 5a be c5 03 e3 be
       -0.8936453 0.7451028 -0.21290258 -0.44338813
000050 36 6f 1f bf 7a 61 0e bf 6c a9 41 bf 29 44 81 bf
       -0.6227907 -0.5561749 -0.7564914 -1.0098926
000060 e8 f2 51 3f 10 a1 56 be 61 5a 48 3f c3 5b 8e be
       0.8201127 -0.20959878 0.7826291 -0.27804384
000070 d0 f9 27 3f 8b 2a 1f bf f6 44 7d 3f 0b d7 2c 3f
       0.6561556 -0.6217429 0.9893335 0.6751563
000080 0d 16 d3 3e e2 67 82 bf a4 c3 9b 3e 19 e1 49 3f
       0.4122776 -1.0187953 0.304227 0.78859097
000090 51 92 f6 3e 81 f6 e8 3e 92 b6 11 3f 4e 34 b1 be
       0.48158506 0.45500568 0.56919205 -0.34610218
0000a0 b3 b8 fd 3e 4b 96 eb 3e de a5 01 be d8 62 8f bf
       0.49554977 0.46013102 -0.1266093 -1.120204
0000b0 06 e0 d1 3d b5 35 92 be 3b 4d 94 3f 25 98 d4 be
       0.10247807 -0.285566 1.1586069 -0.41522327
0000c0 e3 8f 2c bd a3 4f 30 be a3 28 90 3d 71 2d 19 be
       -0.04212941 -0.17217879 0.07039001 -0.14958741
0000d0 0b ac 1b be ac 26 8f be 7b 68 8e be 8e eb ad 3e
       -0.15202348 -0.27959192 -0.27814087 0.33968776
0000e0 b4 47 e2 be 2d 08 c4 3e 79 a9 c5 3e 7f 36 5b 3f
       -0.4419533 0.38287488 0.3860586 0.8563003
0000f0 bb 03 01 3b c7 b1 3c bf 6e 3a 61 3f 72 a9 21 3f
       0.0019686061 -0.73708767 0.8797978 0.6314918

mlp_extractor.value_net.2.weight f4 [64, 64]
000000 17 05 9d bf da 80 4f bf ce 25 88 bf e4 bf f1 bc
       -1.2267178 -0.81055987 -1.0636537 -0.029510446
000010 cc f1 ea bf 05 a0 83 bf fa af 7c bf 33 8f 1f 3f
       -1.835504 -1.0283209 -0.9870602 0.6232788
000020 38 a3 39 3f 72 ef 21 3f 7d cc 06 c0 16 9f 62 3f
       0.7251468 0.6325599 -2.106231 0.88523996
000030 31 72 e0 bf 87 06 b9 3e 84 a1 4f 3f 5a ce b0 3e
       -1.7534848 0.36137792 0.8110583 0.34532434
000040 c1 a0 76 bf 97 32 2e 3f 4e 07 de bf a4 18 e1 bf
       -0.9633904 0.68045944 -1.7345979 -1.7585645
000050 b0 01 09 c0 b5 b2 25 bf 99 cc 77 bf ee 9a 6f bf
       -2.140728 -0.6472581 -0.96796566 -0.9359578
000060 71 9f 6b 3f 32 be 53 bf 64 0b 00 3f 66 63 a7 bf
       0.92040163 -0.8271209 0.5001738 -1.3077209
000070 8b e0 a0 3e 8d 3c ae 3e df 20 3f 3e 86 d4 22 3f
       0.31421313 0.34030572 0.18664883 0.63605535
000080 81 13 dc be 5c 4b a0 bf 45 90 8b 3f aa a7 fd 3d
       -0.4298363 -1.2522998 1.0903403 0.12385495
000090 db 4a 18 3f 5d 40 a3 3e 1b 11 6e 3e 9f 22 d9 bf
       0.5948922 0.31885043 0.23248713 -1.696369
0000a0 16 45 d0 3e 3f 6b 3d 3f 44 ef f8 be 45 df ae be
       0.40677708 0.7399177 -0.48620045 -0.34154716
0000b0 de 5b 86 3f 06 e4 84 be 80 d4 e5 3e d0 27 e8 bf
       1.0496786 -0.25955218 0.44888687 -1.813715
0000c0 62 d8 5f bd da 39 d0 bd 0d 35 31 bf 65 7a 38 bf
       -0.054649718 -0.10167284 -0.69221574 -0.7206176
0000d0 b8 13 25 c0 06 0f b4 bf 5a 55 3c c0 a9 c3 21 3f
       -2.5793285 -1.4067085 -2.9427094 0.6318918
0000e0 57 3f 86 bf dd b0 43 3f 03 31 ed 3e a0 6f 4f be
       -1.048808 0.76441747 0.46326455 -0.20257425
0000f0 a5 59 d0 bf 38 db e0 bf b4 39 2a 3f 68 58 ed 3e
       -1.6277357 -1.75669 0.664943 0.4635651
000100 89 12 bd 3f 1e 98 6a 3f 1c 7d 4d 3f d9 9a 27 bf
       1.4771281 0.9163836 0.80269027 -0.65470654
000110 28 82 d2 3f 17 f3 e7 3f 1d 96 4c 3f 1f 51 68 bf
       1.644597 1.812106 0.79916555 -0.9074878
000120 b8 f1 0d 3e 85 2a 07 bf f1 31 bb 3f dd 90 27 bf
       0.1386174 -0.52799255 1.4624616 -0.6545542
000130 fc 45 95 3f c1 fd df bd ef ce 80 bf fc 2e 7d bd
       1.1661983 -0.109370716 -1.0063151 -0.061812386
000140 1e f5 01 3d f2 f6 3d c0 1e ce fc 3f ff 98 b1 3f
       0.031727903 -2.9681973 1.9750402 1.3874816
000150 33 48 9f 3f 3d d2 0a 3f 7e 31 43 3f 89 16 00 3f
       1.2443908 0.5422705 0.76247394 0.50034386
000160 db 63 f0 be 9e 14 82 be 00 09 24 3f 95 16 ac 3e
       -0.46951184 -0.25406355 0.6407623 0.3361098
000170 71 97 d4 3d 7e 1d 85 3f 53 af 27 c0 16 de fb bd
       0.10380448 1.0399625 -2.620076 -0.12298219
000180 45 95 f3 3f ad a9 bf bf d8 37 0c be 0c c6 8c bf
       1.9029928 -1.4973656 -0.13693178 -1.0997939
000190 1a bc 07 be 08 55 77 bf 5a 06 ca bf 6c e0 98 3e
       -0.13255349 -0.9661412 -1.5783188 0.2985872
0001a0 14 90 cc bf 22 91 99 bd 65 2e 20 40 54 c7 8a 3f
       -1.5981469 -0.07498385 2.5028317 1.084208
0001b0 58 64 73 bf 89 df 2e 3f b6 92 a6 bf 11 86 88 3f
       -0.9507499 0.6830984 -1.3013523 1.0665914
0001c0 fc 88 b3 3d 8e 4c 45 3f fd 3b 47 bf 5b 85 da 3f
       0.08766362 0.7706994 -0.7782591 1.7071947
0001d0 c8 47 86 3f e9 70 6c 3d e6 9f 03 3f 86 21 cc bf
       1.0490656 0.057724867 0.5141586 -1.594773
0001e0 b9 8f 59 3f 67 5c 94 be ec fe 15 be cb f4 59 3f
       0.8498493 -0.28976747 -0.14648026 0.8513915
0001f0 53 39 54 40 2f d6 d0 3f 83 9e f7 bd 96 11 13 bf
       3.3159988 1.6315364 -0.120907806 -0.5744871
000200 6f c0 ef 3e 33 f3 f1 3d c7 a9 33 3f a7 2a 03 bf
       0.46826503 0.11813965 0.70180935 -0.5123696
000210 6e 5d fe be 0d a5 20 3f 1c 8b 1b 3f 5f c6 88 bf
       -0.49680656 0.6275185 0.6075914 -1.0685538
000220 f4 a0 aa be 64 f3 67 bf d4 05 49 3f 94 8d 1b bf
       -0.33325922 -0.9060576 0.7852452 -0.60762906
000230 56 8f 6d 3f 9b 54 93 bf bc 94 28 bf 32 d0 42 be
       0.9279684 -1.1510195 -0.6585195 -0.19024733
000240 e1 5a 8d 3f 8b 11 fe bf 75 94 44 3f a5 d6 b7 3f
       1.1043359 -1.9849104 0.7678903 1.4362379
000250 b1 42 a9 3f 20 ab fb 3e db be 37 3f 1a ed 80 3f
       1.3223478 0.49153996 0.717756 1.0072358
000260 e4 32 1d be a7 37 44 3f d3 67 80 be 4f 20 1e 3f
       -0.15351444 0.7664742 -0.25079212 0.6176805
000270 f4 3d 65 bf 28 bf a7 3f 9b dc c4 bf 5a 0c de be
       -0.8954766 1.3105211 -1.5379823 -0.43368798
000280 f8 7b aa 3e 8d e2 4c 3f 16 b0 f2 be 2f a6 ef be
       0.33297706 0.8003319 -0.47399968 -0.46806476
000290 1b d1 ad be d7 56 3f bf 43 c9 36 bf f4 3d 01 3f
       -0.33948597 -0.7474188 -0.7140085 0.5048516
0002a0 bd eb 15 bf 8c 58 9a be aa db a9 3d 9e 65 76 3f
       -0.58562833 -0.3014568 0.08293851 0.96248806
0002b0 43 9c ea be 60 c8 f6 3e 39 fd 04 bd 8b 5c b7 3f
       -0.45822343 0.4819975 -0.032468054 1.4325117
0002c0 63 02 d9 3e dd 16 f8 3e 21 4a 83 3b c7 a5 aa 3e
       0.42384633 0.48454943 0.0040066396 0.33329603
0002d0 44 86 10 3f 0c b2 a8 3f 1d 28 24 3f bd 44 91 be
       0.56454873 1.3179336 0.6412371 -0.28372756
0002e0 dd b1 52 3f 4c 1e 19 bf 58 2e 09 bf 7c c4 ec be
       0.8230265 -0.59811854 -0.5358634 -0.46243656
0002f0 cb 3d 7a 3f 4e 4f 99 3f 84 48 00 3e bb 95 ae be
       0.9775054 1.1977327 0.12527663 -0.3409861
000300 ba c9 ba 3f 28 16 d3 3f 0c 37 c3 3f 5a 1f ba bf
       1.4592812 1.6491137 1.5251174 -1.4540818
000310 ae 79 ba 3f 9e 97 c8 3f 89 8b cb 3f 79 73 28 c0
       1.4568384 1.567127 1.5901958 -2.632048
000320 7a c3 d1 bd e1 07 0f 3d ca 59 b9 3f 5f ff a7 3e
       -0.10242362 0.034919623 1.4480526 0.3281202
000330 53 91 25 3f 38 5f 14 c0 d0 5f 45 bf 56 9a 34 3e
       0.6467487 -2.3183117 -0.77099323 0.17637
000340 46 ea 76 3e c4 6b f0 bf 63 39 05 40 f8 1d f2 3f
       0.24112806 -1.8782887 2.0816276 1.8915396
000350 a4 ba 5f 3e e7 be 1c 3f 22 96 cf 3f 75 d7 29 3f
       0.21848541 0.61228794 1.6217692 0.66344386
000360 46 66 71 be 7f c1 08 40 fb 2a 45 3d 6a 65 17 3f
       -0.2357417 2.13681 0.048136692 0.5913912
000370 75 74 8f bf 34 7e db 3f d7 60 1e c0 1c a9 c1 3e
       -1.1207415 1.7147889 -2.4746606 0.37824333
000380 a9 3b 0e 40 a0 13 01 be 3e ad 8a be 14 e8 51 be
       2.2223914 -0.12605143 -0.27085298 -0.20498687
000390 a0 66 1f 3f e8 25 a6 bf 15 d0 72 bf 43 e0 8e 3e
       0.6226597 -1.2980318 -0.9484876 0.27905473
0003a0 fa 08 2e bf 03 f9 8f be b0 34 27 40 ec a5 db 3f
       -0.6798245 -0.28119668 2.6125908 1.716001
0003b0 1d 25 d4 be 89 d6 e0 3f 7b c9 18 3c 9d 71 bb 3f
       -0.41434565 1.7565471 0.00932538 1.4644047
0003c0 05 b8 bb 3f 64 34 cb 3f 9f 25 16 40 b3 a4 3e 3f
       1.4665533 1.5875363 2.3460462 0.7447006
0003d0 66 a1 90 3e 9f dc 02 3f b1 4e e6 3f fb 1d c6 bc
       0.28248137 0.5111789 1.7992765 -0.024184218
0003e0 6c ca bf 3f 5a 3e d4 3e 7e 89 7a bd 7a fa 23 bf
       1.4983649 0.4145382 -0.06116628 -0.6405407
0003f0 9f db 4f 40 00 24 90 3f 86 34 82 be 6a 21 89 3e
       3.2477796 1.1260986 -0.25430697 0.26783305

mlp_extractor.value_net.2.bias f4 [64]
000000 5f 38 ff 3e 87 3b b8 3e 1e 86 ab be 49 e2 71 3e
       0.49847695 0.35982916 -0.3350076 0.23621477
000010 ad 6a 9a bd 5b b9 10 3f 9a 4a 11 3f 99 8d 08 3f
       -0.07539878 0.5653283 0.5675446 0.5334106
000020 4b e2 22 3f e4 55 05 bf 17 37 0e 3e b1 d5 f0 be
       0.63626546 -0.52084184 0.13888203 -0.47038034
000030 f8 be 8a be 33 1c 85 be d9 48 ea 3e 46 5a b2 bd
       -0.27098823 -0.25998077 0.45758703 -0.087086245
000040 05 95 aa be 77 f7 0f 3e 6b 13 f6 be 3b d2 20 3f
       -0.33316818 0.14059244 -0.4806169 0.62820786
000050 83 52 05 bf fc 30 4a be c6 b4 18 3f f7 69 23 bd
       -0.5207903 -0.19745249 0.5965084 -0.039895978
000060 df 9c 64 3e 86 88 54 be 09 31 ba be 62 1a f3 3e
       0.22325467 -0.20755205 -0.36365536 0.47481066
000070 76 de 0b bf e3 d5 fb 3e 2b 64 01 3f 11 e6 96 3d
       -0.54636323 0.4918662 0.5054347 0.073681004
000080 b9 53 5d 3e 7f d1 92 be e5 f5 e6 be 79 c7 eb be
       0.21613969 -0.28675458 -0.45109478 -0.46050623
000090 a1 71 80 3d f0 d5 13 3f da 90 8b 3e ee 7f 06 3f
       0.06271673 0.5774832 0.2725895 0.52538955
0000a0 90 bf 5b be a3 ed dd be 77 fd d3 be 79 15 de 3c
       -0.21459794 -0.43345365 -0.41404316 0.027109848
0000b0 0b 52 0b 3f 98 c2 02 3f 3c f4 20 3d bb 95 4a 3e
       0.5442206 0.51078176 0.03929542 0.1978368
0000c0 e1 54 43 be be 88 2a 3d 07 da c2 3e ad 27 08 bd
       -0.19075347 0.041634314 0.38056967 -0.033240963
0000d0 44 fe fc 3e 08 81 80 bd 93 1e 0f 3f e6 62 9a be
       0.4941274 -0.06274611 0.5590603 -0.3015358
0000e0 85 3b 5c be 09 0d 76 bd 77 f7 00 3f 3d a3 f2 bc
       -0.2150708 -0.060071025 0.503776 -0.029618854
0000f0 f5 cd 00 3f 1e 71 71 be 0f ce d8 be b9 b9 e4 be
       0.50314265 -0.23578307 -0.4234471 -0.44672945

action_net.weight f4 [2, 64]
000000 11 0e 90 bd 4a c9 c7 bd 4f aa 63 3c 9b c3 f0 bc
       -0.07033933 -0.0975519 0.013895585 -0.029390147
000010 9a 5a 59 bd b2 41 b5 bd c2 a3 93 be 22 25 97 bd
       -0.05306492 -0.08850421 -0.28835875 -0.073801294
000020 32 5b 6b bd 44 c4 35 3d 67 26 f1 3d de 9f b3 3c
       -0.057460018 0.044376627 0.11774903 0.021926817
000030 96 0d f5 bd e4 23 21 bd 5d f4 83 3e 8d 05 28 3d
       -0.11965482 -0.03934087 0.25772372 0.04102092
000040 95 de 6b be 83 1d 87 bd 81 f2 8f bc bc d8 78 3e
       -0.23034127 -0.06597426 -0.01757169 0.24301428
000050 a5 65 cc 3d 9b 13 03 be dc 63 5e 3e 5b cb b2 bc
       0.09980325 -0.12800448 0.21717781 -0.021825483
000060 b5 95 db bd fb db 5d bd f7 f8 41 3c 87 41 44 3e
       -0.10721914 -0.054164868 0.011839143 0.19165622
000070 db 0f 17 3d 31 8a 61 be 77 ed 41 3d a6 73 3d 3e
       0.036880355 -0.22025372 0.047345605 0.18501148
000080 ee ff 1e 3d 53 2c 01 bd 0a 21 39 3e 37 85 03 3d
       0.038818292 -0.03153641 0.1807901 0.032109465
000090 99 7c b6 be e8 bf 9b bd 4f 6c 8d 3d 55 b2 33 3d
       -0.35641935 -0.076049626 0.06905424 0.043871243
0000a0 91 1d d6 bd 77 0d 3b bc 93 c2 4f be d2 3e 37 bd
       -0.10454858 -0.0114167845 -0.20289068 -0.044737644
0000b0 c3 66 8c 3d 03 93 22 3c 21 ca 92 3d 14 ff 97 3d
       0.06855538 0.009922746 0.07167459 0.07421699
0000c0 a9 42 e5 3d 31 91 97 bc eb 16 5d bd 82 c0 21 be
       0.11194355 -0.01850185 -0.053976934 -0.15796092
0000d0 a3 c4 a1 3d 35 f1 55 3c e0 39 32 3e c3 10 b6 3d
       0.078988336 0.0130579965 0.1740489 0.08889916
0000e0 79 17 85 bd c7 3a a5 bd 0d df f3 3d bb 33 47 3e
       -0.06498618 -0.080678515 0.11907778 0.19453327
0000f0 4a 3f 8c bc 4c 0a d0 3d f0 8b 19 bd 08 3b 60 3d
       -0.017120022 0.10158214 -0.03748697 0.054743797
000100 e7 e7 ca 3d 0a d4 d0 3d c0 23 c7 3c 71 b4 90 3d
       0.09907513 0.10196693 0.02430904 0.070656665
000110 8c ca ae 3d 75 3f 66 3d 84 ef a1 3d bd 01 ba 3d
       0.085347265 0.05621286 0.07907012 0.09082363
000120 49 e2 97 3d 98 b0 ed 3d dd f2 90 3d ab 3c 7f 3d
       0.07416207 0.11605948 0.070775725 0.062313717
000130 52 e7 8c 3d 2e 5a 8a 3d 4e ab 9f 3d 99 a6 00 be
       0.06880058 0.06755482 0.07796346 -0.12563552
000140 b1 1f 20 be a2 df 01 3e aa a0 9a 3d 45 a1 8d 3c
       -0.1563709 0.12682965 0.075501755 0.017288813
000150 da f7 a4 bc 4a 78 55 3e 94 50 7a 3d 29 fb ef 3d
       -0.020137716 0.20846668 0.061112 0.11717827
000160 a1 84 b1 3d 12 53 1a 3e 0c 4c b7 3d 09 e1 9d 3d
       0.08667875 0.15070751 0.08950052 0.07708938
000170 11 2f 50 3e 98 bd 09 3e 27 15 88 3d 1e 20 a1 3d
       0.20330454 0.1345123 0.066446595 0.07867454
000180 e9 68 11 3e 31 77 40 3e 1a de 30 3e d4 e0 02 3e
       0.14200176 0.18795468 0.17272225 0.12781078
000190 cf 85 0b 3e 49 16 46 be 8e de 19 3e ad 6d 6b 3d
       0.13625263 -0.19344439 0.15026304 0.05747764
0001a0 4f 37 a9 3d e9 bc b9 3d cc f1 fd 3d 7d 46 c6 3d
       0.082625024 0.09069235 0.12399635 0.09681413
0001b0 1f 8a c3 3d 9f e5 10 3e 89 d8 0c 3d 55 29 11 3e
       0.09547829 0.14150093 0.03438619 0.14175923
0001c0 4e 5a 31 bd fe b3 cf bd 4d ac de 3b 76 de b9 3d
       -0.043299012 -0.10141753 0.006795442 0.09075634
0001d0 1b ce a2 bd 6f 59 d0 3d 7c 8d 1f 3e 61 23 94 3d
       -0.07949468 0.10173308 0.15581316 0.072333105
0001e0 34 3b 99 3d 83 83 f4 3d 8e c3 7d bd fb f8 c1 3c
       0.07481995 0.11939146 -0.061954074 0.023678293
0001f0 fd 6b 2d 3e 81 a8 ab 3d 6f 32 0d be b4 75 fd 3d
       0.16935726 0.08381749 -0.1378877 0.12375966

action_net.bias f4 [2]
000000 7a de 99 bd e7 33 3b 3e
       -0.07513137 0.18281518

value_net.weight f4 [1, 64]
000000 cb dd 94 3f 3d 6a d1 c0 d9 20 00 c0 c0 18 e6 c0
       1.1630186 -6.5442185 -2.0020049 -7.1905212
000010 c4 3c b2 c0 8d 35 a3 3f af e9 a3 3f af 24 b0 3f
       -5.5699177 1.2750717 1.280569 1.3761195
000020 56 b7 a2 3f 32 fc 29 c0 9f 9d 1e c0 8a 20 d6 bf
       1.27122 -2.6560178 -2.4783704 -1.672868
000030 39 aa ec bf f4 36 da c0 48 ad 90 3f db 5c cd c0
       -1.8489448 -6.819208 1.1302881 -6.417585
000040 c1 a6 f4 bf 15 62 c4 3f aa 45 09 c0 42 b9 bf 3f
       -1.9113389 1.5342432 -2.144877 1.4978411
000050 a5 1a ab bf 5a 4a c4 c0 3d 1b a2 3f 21 17 c7 3d
       -1.3367506 -6.134076 1.2664562 0.09721208
000060 1b ad e6 bf ea 4c 18 c1 98 51 1a c0 d4 1c 9b 3f
       -1.8021578 -9.518778 -2.41123 1.2118173
000070 cd 2e 07 c0 a0 5a c1 3f 01 02 9e 3f 8d 8a 6d c0
       -2.1122315 1.5105782 1.2344362 -3.7115815
000080 b8 46 dd bf 80 6e d9 c0 5e d2 00 c0 44 e7 1b c0
       -1.7287207 -6.794739 -2.0128398 -2.4359903
000090 e1 d5 05 41 34 ab ae 3f fc bc 90 c0 be cf 9a 3f
       8.364717 1.3645997 -4.5230694 1.2094648
0000a0 69 24 90 c0 65 c9 6e c0 83 58 e5 bf 50 73 98 c0
       -4.5044446 -3.7310421 -1.7917637 -4.764076
0000b0 d1 69 98 3f 1a 80 8b 3f 8d b0 d5 c0 5a 3e e0 bf
       1.1907293 1.0898468 -6.6778016 -1.7519028
0000c0 41 8b eb c0 e3 ce 93 c0 be ea c6 c0 7b 76 04 c1
       -7.360749 -4.6190047 -6.216155 -8.278926
0000d0 0b a3 a5 3f 06 97 17 c1 94 b4 95 3f b9 6c fb bf
       1.2940382 -9.474371 1.1695733 -1.9642555
0000e0 ec 10 44 bf c2 cb fe c0 8f 13 aa 3f 54 1c b6 3d
       -0.7658832 -7.962373 1.3287219 0.08892122
0000f0 0b ee a3 3f 1c 46 ac c0 57 01 54 c0 29 19 16 c0
       1.280702 -5.3835583 -3.3125818 -2.3452857
